notebooks/model_tutorial/model_checkpoints/IM_generalization_model.pth (torch, 902982 bytes, 44 tensors)

core._input_weights_regularizer.laplace.filter f4 [1, 1, 3, 3]
000000 00 00 00 00 00 00 80 bf 00 00 00 00 00 00 80 bf
       0.0 -1.0 0.0 -1.0
000010 00 00 80 40 00 00 80 bf 00 00 00 00 00 00 80 bf
       4.0 -1.0 0.0 -1.0
000020 00 00 00 00
       0.0

core.features.layer0.conv.weight f4 [64, 1, 9, 9]
000000 d7 49 b3 bc 31 0d 65 3d d9 86 62 3d 31 18 4a be
       -0.021885796 0.055920783 0.055304382 -0.19735791
000010 05 39 03 be 3d 7f c2 3d fb 7a bf 3d 0f 80 42 3e
       -0.1281472 0.09496925 0.093496285 0.18994163
000020 26 00 ff 3e 42 bd 2d be 90 0d e7 3c 3c e3 67 3e
       0.498048 -0.16966727 0.02820471 0.22645277
000030 82 79 f1 ba 14 5d 82 bd c6 01 b9 3d 4b 9a a3 3c
       -0.0018423053 -0.063654095 0.090335414 0.019971034
000040 7e 7c 0b bd 10 3b 86 3e 07 a5 c2 bd 5c 50 e8 3d
       -0.034054272 0.26216936 -0.09504133 0.11343452
000050 7f 87 86 3e 8c 3f 28 bc 72 e0 b2 bd d9 9c 1a 3d
       0.2627525 -0.010269057 -0.08734216 0.037747238
000060 2c a7 1f 3b 72 a0 8d 3c 7c ca 90 3d e5 5c e4 3b
       0.0024361117 0.01728842 0.07069871 0.0069690817
000070 f0 a9 a9 bd 7c 41 e5 bc 08 08 7a bd b3 58 0c be
       -0.08284366 -0.027985327 -0.061042815 -0.13705711
000080 c0 4d ab 3c f7 c1 4a 3e c0 72 e3 3d eb dc dd bc
       0.020911098 0.19800554 0.11105871 -0.027082881
000090 c2 e9 7b 3e 3d e5 f5 bb f8 0a ad bd 27 50 71 bd
       0.2460089 -0.007504134 -0.08449358 -0.05891433
0000a0 ac 71 5f bd 24 60 6a bc bc 3b 2e 3e f7 51 6d 3c
       -0.054551765 -0.014305148 0.17014974 0.014484874
0000b0 8d 8e ad bd 41 e7 c3 3e ff 7f ad 3d 2f bf f2 3d
       -0.08474455 0.3826237 0.08471679 0.118528716
0000c0 7b 10 d3 3d ab 77 5c bd f5 54 53 be 24 d3 12 bc
       0.10305878 -0.05382506 -0.20637877 -0.008961473
0000d0 9f be 65 be a4 ab e9 bc 33 d7 bf 3e 71 9d d3 bb
       -0.22435997 -0.028524227 0.3746887 -0.0064579775
0000e0 28 4a 3e be f3 9b 5e bd 5c b9 77 bb 95 db 06 be
       -0.18582976 -0.054347944 -0.0037799692 -0.13169701
0000f0 14 23 49 3d 9d be e8 bd e6 c9 7e 3d bb 56 a8 3e
       0.04910572 -0.113644816 0.062204264 0.3287867
000100 0d 9e 2c be b8 1a c8 be 81 28 c3 3d cf e5 3d 3e
       -0.16857167 -0.39082885 0.0952921 0.18544696
000110 ba 43 20 3e cf 91 53 3e 28 03 25 be cb b7 2a be
       0.15650836 0.2066109 -0.16114485 -0.16671674
000120 0b 7f bb 3e f0 14 f2 bd fe 7f 74 be 5c 01 87 3e
       0.36620364 -0.118204 -0.2387695 0.26368225
000130 fb 3a a2 3e cf 42 a0 3e 5d be 8c 3e 57 68 9b be
       0.31685624 0.3130097 0.27488986 -0.30353042
000140 cd 6f 9b be 59 a9 96 3d 19 e7 38 3e 42 12 58 bc
       -0.30358735 0.07356519 0.18056907 -0.013187947
000150 7a 7c c2 bd de 25 a5 bd 5f a4 ee 3c f2 4f 9c bd
       -0.09496398 -0.08063863 0.029131113 -0.07632436
000160 83 73 f4 bd 67 47 aa bd 3c 05 06 be 8c 46 f4 ba
       -0.119360946 -0.083144 -0.13087934 -0.0018636747
000170 a4 f8 6d bd fb 06 01 be b5 d7 cd bd 7e d5 db bc
       -0.05809845 -0.12600319 -0.100509085 -0.0268352
000180 6c cf eb bc 9e 44 c1 bd 3e 2c 23 bd 97 95 10 bd
       -0.02878543 -0.09436916 -0.039837115 -0.03529891
000190 2c 9c 87 3c 8f 1c 81 bb e0 1e a8 bc fb a1 74 bd
       0.01655396 -0.003940172 -0.020522535 -0.05972479
0001a0 06 20 03 3d 48 4e 54 bc 31 c5 c3 bd 01 cb 48 bd
       0.03201296 -0.012958117 -0.09559096 -0.049021725
0001b0 45 78 9b bd 0c e8 79 bc 4e 83 92 3d 1c 86 43 3c
       -0.07591299 -0.015253078 0.07153951 0.01193383
0001c0 5f 8b 25 bd 45 66 23 3d 21 c5 85 bc 80 9f d2 bd
       -0.040416118 0.039892454 -0.01632935 -0.102843285
0001d0 1e 22 9c bd d5 b9 0c be 04 23 26 bd 23 a1 dd bc
       -0.07623695 -0.13742764 -0.040560737 -0.027054375
0001e0 93 aa 68 3c cf f8 40 3b fd fc 13 3e 2a b7 eb 3c
       0.014200824 0.0029445176 0.14451976 0.028773863
0001f0 d9 2c a6 bd 39 9e ed bd 34 2b fd bd aa 9e 84 bd
       -0.08114023 -0.11602444 -0.12361756 -0.06475575
000200 39 51 1f 3d 88 ed 94 3d a9 fb 2a 3d 2d 40 04 3e
       0.03889582 0.07271868 0.041743908 0.12915106
000210 7a 7c 68 bd 9e 6c 79 be d3 65 6b be d3 ef 34 be
       -0.056759335 -0.2435784 -0.22988062 -0.1766961
000220 47 bb b3 bd 11 85 51 3d 1f 40 16 3e 51 f4 b9 3d
       -0.08775955 0.051152293 0.14672898 0.09079803
000230 d8 60 17 3e d8 b4 c2 bc e3 b4 ab be b5 0b 88 be
       0.14783037 -0.023767874 -0.33536443 -0.26571432
000240 1a 14 3b be c5 e4 6b bd 1f 30 09 3d 77 d0 ad 3d
       -0.18269387 -0.05759122 0.033493157 0.08487027
000250 11 93 fa 3d 6d 0b d3 3d 67 da b6 bc e7 08 60 be
       0.12235082 0.10304914 -0.02232094 -0.21878396
000260 55 71 61 be 20 2a 4e bd d9 34 e4 bd 78 43 d4 bd
       -0.22015889 -0.050333142 -0.111428924 -0.10364431
000270 75 02 08 3d 76 95 59 3d 46 4f 93 3c 09 4e 9b bd
       0.03320547 0.053121053 0.017982136 -0.075832434
000280 a7 c8 b9 bd e7 da ce bd 0d 72 45 bd 9a 5e 0c 3e
       -0.090714745 -0.10100346 -0.04820447 0.13707963
000290 e4 6e af 3d 09 a6 07 be 3d db 74 be 9c 08 e0 bd
       0.085660726 -0.13246931 -0.23911758 -0.10939142
0002a0 4b 56 da bd 38 eb c4 bd 4c c9 86 be 96 ee d5 bd
       -0.1066099 -0.09615177 -0.26325452 -0.10445897
0002b0 e3 a0 2a 3e 1f 91 7e 3e 3e 3d 8e bd 6a 18 3d be
       0.16662936 0.24860047 -0.06945275 -0.18466344
0002c0 fc 0e 94 bc d7 fa 03 3d 2c 4a e6 3d 96 57 10 be
       -0.018073551 0.03222164 0.11244616 -0.14095911
0002d0 3b 54 f2 3d 8e 5e de 3e 74 8f f4 3e e3 da 08 3e
       0.11832472 0.43431515 0.47765696 0.13364749
0002e0 cc de 02 be 64 42 17 bd 97 73 03 3e 3f d3 73 3c
       -0.12780303 -0.03692855 0.12837063 0.014881908
0002f0 b7 69 88 be bf b4 1c 3c da a4 27 3e cc 08 ec 3d
       -0.26643154 0.009564578 0.1637148 0.11525115
000300 b5 7c 9b bd 24 59 08 be db 82 71 bd 72 82 3d 3c
       -0.07592145 -0.13315254 -0.058962684 0.011566745
000310 87 5d bc bc 0b e1 d7 bc 33 30 34 3d 8f b2 a9 bd
       -0.022993816 -0.026352426 0.04399128 -0.082860105
000320 76 ef 2c be b9 59 5e be aa 60 02 be 9c e3 6d 3d
       -0.16888222 -0.21713914 -0.12732187 0.058078393
000330 bb 7d f6 3b e1 ab 9b 3c 22 a7 21 3e 8a d6 81 3c
       0.0075223125 0.019002857 0.15786412 0.01584937
000340 5c 48 26 3c 28 8c 85 bd f3 85 09 be 13 32 9a bd
       0.010149088 -0.06520873 -0.13430004 -0.07529082
000350 ce 53 09 bd 2e 35 1e be 79 3a f6 bd fb b2 4e 3d
       -0.033527188 -0.15449974 -0.120228715 0.050463658
000360 6b 12 fa bd 6e cd 8c bd 3f 83 f4 bd c3 52 14 be
       -0.12210544 -0.0687512 -0.11939096 -0.14484696
000370 04 32 a1 bd ba 7e 3a 3d df 84 10 bd c6 ca 6f bd
       -0.07870868 0.045531012 -0.035282966 -0.05854299
000380 df 59 86 bd d3 55 a6 bd 15 5b 6b bd 2b b6 7f 3c
       -0.0656011 -0.081218384 -0.05745991 0.015607397
000390 13 0d 19 bd e9 32 4b 3c 69 0f 08 3e d1 ab 56 3e
       -0.037365984 0.012402275 0.13287129 0.2096398
0003a0 b5 0f 4b 3e fd 40 76 3c 69 1a 73 3d 13 70 91 3d
       0.1983021 0.015030143 0.05935136 0.071014546
0003b0 a0 34 f8 3b cb cb ec bd d4 b2 83 3c b0 a3 1e 3e
       0.0075746328 -0.11562308 0.016076483 0.1549213
0003c0 c0 0e 58 3e ad 70 2b 3e f8 38 2b bd 09 22 25 be
       0.21099377 0.16742201 -0.041802377 -0.16126265
0003d0 50 eb bd be 1f e0 2f bd 69 ea 39 3e 1f f8 21 3e
       -0.37093592 -0.042938348 0.18155827 0.15817307
0003e0 43 19 96 3d 58 05 28 be de 37 ce bc 49 23 25 3e
       0.07329037 -0.16408288 -0.025173124 0.16126741
0003f0 a8 a9 60 3d fc fb 20 be 0d 02 18 be 64 bd 9f bb
       0.054849297 -0.15721124 -0.14844532 -0.004874872

core.features.layer0.norm.weight f4 [64]
000000 d2 4a c4 3f 2a 59 7e 3f 8c c6 81 3f bd 55 a0 3f
       1.5335333 0.99354804 1.0138717 1.2526165
000010 e3 bf 76 3f e0 c8 b3 3f a0 a3 8c 3f 87 85 92 3f
       0.96386546 1.4045677 1.0987434 1.1446999
000020 13 94 a6 3f 2e 36 ab 3f 07 53 6f 3f 88 6d 84 3f
       1.3013939 1.3375909 0.93486065 1.0345926
000030 b5 ca cf 3f 10 32 a6 3f 24 7c 96 3f d1 d4 89 3f
       1.6233736 1.2984028 1.1756635 1.0768071
000040 49 e4 37 40 27 a5 5a 3f 2f 9c 98 3f ad 42 88 3f
       2.8733084 0.8540825 1.1922663 1.0645348
000050 b3 d5 6c 3f c1 a7 bc 3f 26 9a 6b 3f 5b f2 71 3f
       0.9251358 1.4738694 0.92032087 0.9451043
000060 a2 08 8a 3f f6 88 75 3f a4 7b 6d 3f 98 ff 92 3f
       1.0783885 0.9591211 0.92766786 1.1484251
000070 ee d8 92 3f 7c 96 67 40 50 7f 4d 3f 35 8b e2 3f
       1.1472452 3.6185598 0.8027239 1.7698733
000080 17 3e 85 3f 6c 0f 9b 3f af 90 d8 3f 14 e7 85 3f
       1.0409573 1.2114081 1.6919154 1.0461144
000090 2d 99 7d 3f 76 47 71 3f 11 2a 7e 3f 0c bf 73 3f
       0.9906185 0.94249666 0.9928294 0.9521339
0000a0 eb a3 8d 3f a0 d2 b1 3f f3 77 74 3f 19 96 af 3f
       1.1065649 1.3892403 0.9549553 1.3717681
0000b0 03 1c 80 3f 04 cb 93 3f 35 08 14 40 98 13 07 40
       1.0008548 1.154633 2.313001 2.110571
0000c0 2a 31 9e 3f 95 17 ad 3f 83 33 ab 3f 50 b7 44 3f
       1.2358754 1.3522822 1.3375095 0.7684221
0000d0 fa 70 94 3f 32 26 7a 3f c2 ea 26 40 9d 4e b1 3f
       1.1596978 0.9771453 2.6080785 1.3852116
0000e0 0f ab 7a 3f c1 7b 9a 3f 82 9f 86 3f 86 b4 8d 3f
       0.97917265 1.2069017 1.0517428 1.1070716
0000f0 89 44 5e 3f 49 76 c7 3f e1 65 d8 3f b4 e7 c6 3f
       0.86823326 1.5582973 1.6906091 1.553946

core.features.layer0.norm.bias f4 [64]
000000 34 c9 25 bf e1 cf 18 be 8b 7f 50 be 88 ef 46 be
       -0.64760137 -0.1492305 -0.20361154 -0.19427311
000010 ec c5 5b be 3b 6f ef be 03 a5 b7 bd d9 20 da be
       -0.2146222 -0.4676455 -0.0896702 -0.42603186
000020 10 2d f7 bc 4e 02 07 bf 5d 6c 57 be 6f 20 05 3d
       -0.030172855 -0.5273789 -0.21037431 0.032501634
000030 f8 b8 20 bf 2b 3f 1b bf 7c 01 94 be da f2 27 be
       -0.6278224 -0.6064326 -0.28907382 -0.16401234
000040 65 d7 64 bf cb ff 20 bf ea bf 5d be 95 2f 68 bd
       -0.89391166 -0.6289031 -0.2165524 -0.056686003
000050 4f 98 99 bd 89 4e fd be e7 f1 a9 bd cb 42 e1 bc
       -0.07499754 -0.4947398 -0.08298092 -0.02749767
000060 c5 f7 7b ba 1a 2f b1 be ab d9 c2 bd 97 99 4e be
       -0.00096118107 -0.34606248 -0.09514173 -0.20175777
000070 62 8f f4 be 97 f3 83 bf 0a 84 7a bd 25 50 49 bf
       -0.47765642 -1.0308713 -0.06116108 -0.78637916
000080 4c 5d 12 bd d5 42 da be 43 71 31 be 16 36 c3 bc
       -0.035733506 -0.42629114 -0.17328362 -0.023829501
000090 2f fc 80 be 5d db b5 bc 1a d4 cd be ca 80 88 bd
       -0.251924 -0.022199327 -0.40200883 -0.066651896
0000a0 f2 55 c9 bd 41 bb 9b bd 3b 56 5b be c4 2f e8 bd
       -0.09830846 -0.07604075 -0.21419613 -0.113372356
0000b0 89 18 04 be ec 5e e4 be 5b d3 13 bf d2 2c 8e bf
       -0.12899984 -0.4460367 -0.5774438 -1.1107428
0000c0 cc db 81 be 12 53 01 bb f6 ec 04 be 71 11 b8 be
       -0.25363004 -0.0019733352 -0.12981018 -0.35950807
0000d0 72 19 e5 bd 84 89 91 bd eb dd 97 bf 7f 39 1b bc
       -0.11186494 -0.07106307 -1.1864599 -0.009474157
0000e0 8f f6 d0 bd 30 dc c1 bd 75 15 26 be 9a 79 63 be
       -0.10203277 -0.094658256 -0.16219123 -0.22214356
0000f0 9f f4 16 be 49 35 e6 be 7a a9 6e be f3 9e 13 bf
       -0.14741753 -0.44962528 -0.23306838 -0.5766441

core.features.layer0.norm.running_mean f4 [64]
000000 83 6c bd 3c e8 07 bc bc c3 61 0e bd ab c8 9c 3b
       0.023123031 -0.022952989 -0.0347612 0.0047846637
000010 a2 47 55 3c 8b 01 4f 3c 5e c9 89 bc a0 6d 97 3d
       0.013017567 0.012634645 -0.016819652 0.07393956
000020 6b 23 08 bc 1e 68 26 3d ed ca 88 bc e4 db 85 ba
       -0.008309226 0.040626638 -0.016698325 -0.0010212627
000030 f6 44 a3 bc 99 75 29 bc 7d 0a 61 3d 43 f0 c5 bc
       -0.019930344 -0.010342979 0.054941643 -0.024162417
000040 99 b5 9a bb e2 c2 e5 ba 73 66 3b 3d 50 2d c8 bc
       -0.004721355 -0.0017529393 0.045752 -0.02443567
000050 89 3e a8 3c 09 69 9d bb e0 c3 84 bb 26 3a 1f bd
       0.020537632 -0.004803781 -0.0040516704 -0.038873814
000060 2f 09 3a bb 83 2e 8a bc 00 05 57 bc 77 ff 90 bc
       -0.0028386822 -0.016867882 -0.013123751 -0.01769994
000070 67 d3 2a bc e3 b9 a5 3a ca d9 74 bd ee 31 c1 bc
       -0.010426379 0.00126439 -0.059778012 -0.023583379
000080 16 84 6d bc 6e 8b 24 3c d2 1e fb 3b 1c a2 8a bc
       -0.014496824 0.010043008 0.007663586 -0.016923003
000090 7f 6f d1 ba e5 f9 24 bd 59 1f 7a 3a 6b 53 c2 bc
       -0.0015978663 -0.04027738 0.00095414143 -0.023721417
0000a0 8b 4d 82 3c 4c ab d2 bc 5d 2f 16 bd 48 ef 5a bb
       0.015906116 -0.025716446 -0.036666263 -0.0033406783
0000b0 7f 17 8c bb 9e 4d 5c bb 1e 8c a2 3c 7f 3f c1 3c
       -0.004275262 -0.00336156 0.019842204 0.023589848
0000c0 d1 48 00 bd b7 59 82 3b 2e 88 8a bc 27 ee 9c 3b
       -0.031319443 0.00397798 -0.016910639 0.004789132
0000d0 9a 36 37 bd 30 c3 f1 3b 31 db e0 bb f8 f2 a5 bc
       -0.044729806 0.0073780045 -0.006862067 -0.020257458
0000e0 59 95 22 3c b0 dd 95 bc f6 6c dd 3b 59 b3 02 3c
       0.009923303 -0.018294185 0.006757374 0.00797733
0000f0 65 97 b9 3a 8b 3e 9f 3a 8c cc 7c bc 0a 58 87 bc
       0.0014159499 0.0012149377 -0.015429627 -0.016521472

core.features.layer0.norm.running_var f4 [64]
000000 5d 3d 59 40 08 bf 41 40 14 94 4e 40 d3 b5 11 40
       3.3943703 3.0272846 3.227788 2.2767227
000010 24 52 db 3f d3 23 e6 3f 1c c5 7a 40 02 e2 a2 40
       1.7134442 1.7979683 3.9182806 5.090089
000020 be 20 84 40 3d d5 54 40 eb ad 12 40 4e 95 10 40
       4.128997 3.325515 2.291865 2.2591128
000030 30 55 0c 40 83 73 0f 40 cd 75 33 40 11 f5 34 40
       2.1926994 2.2414253 2.804065 2.8274577
000040 67 44 4f 40 88 97 16 40 82 4b 6f 40 86 60 00 40
       3.23855 2.3529987 3.7389836 2.0058913
000050 7c 08 0a 40 2a c0 71 40 01 e0 87 40 1f 73 e1 3f
       2.1567678 3.7773538 4.246094 1.7613257
000060 f0 05 1f 40 ec 9d 94 40 2b 24 29 40 ec b4 27 40
       2.4847374 4.6442776 2.6428325 2.6204176
000070 a7 f2 86 40 b7 d3 f7 3f 78 b3 0c 40 db b2 4b 40
       4.2171206 1.9361485 2.198454 3.1827915
000080 2d 84 fc 3f e6 3b 2b 40 f3 0e c6 3f 52 e4 d4 3f
       1.9727837 2.675531 1.5473312 1.6632178
000090 1e 26 75 40 89 23 e8 3f d0 b9 0c 40 ae d6 be 3f
       3.8304515 1.8135844 2.198841 1.4909265
0000a0 b0 81 41 40 22 45 88 40 2d 13 5f 40 a1 7a b3 3f
       3.0235405 4.258439 3.4855454 1.4021798
0000b0 7d 0d 1d 40 10 a3 10 40 14 dd be 40 58 6c 21 40
       2.4539483 2.2599525 5.964487 2.5222378
0000c0 b7 18 ba 3f 21 ce 13 40 c6 c9 45 40 97 e5 90 40
       1.4538792 2.309456 3.0904403 4.528026
0000d0 28 03 17 40 e3 6c c6 3f 92 18 ef 3f 91 3f cf 3f
       2.3595676 1.550198 1.8679373 1.6191274
0000e0 9d 81 3a 40 d1 f5 00 40 68 67 b0 3f 5f f8 02 40
       2.914161 2.0150034 1.3781557 2.0464094
0000f0 7c 13 11 40 46 52 53 40 98 6a 4f 40 76 99 08 40
       2.2668142 3.3018966 3.240881 2.1343665

core.features.layer1.ds_conv.in_depth_conv.weight f4 [64, 64, 1, 1]
000000 82 29 82 3e 32 79 4b 3e 00 e6 92 3d 6c b1 ac 3d
       0.25422293 0.19870451 0.07172775 0.08432278
000010 69 fb 5f 3e c0 0c bd 3e 58 ff 8a 3e a9 a2 37 3e
       0.21873249 0.3692379 0.27147937 0.17933144
000020 e0 d9 b1 be 4d 9e 3e bd b9 fe d9 3d 47 12 a0 bc
       -0.34736538 -0.046537686 0.106442876 -0.019539965
000030 37 a9 b0 be 75 27 ed 3d f5 4a 7e bb 81 f7 f5 bd
       -0.345041 0.115797915 -0.0038802002 -0.12010098
000040 6d fa 2b bf dd 67 02 be 28 f7 05 3e 2e 94 b3 3d
       -0.67178994 -0.12734933 0.13082564 0.087684974
000050 68 20 76 be ef 66 c2 3e 5d e8 a2 3e 96 38 36 bc
       -0.240358 0.37969157 0.31817904 -0.01112189
000060 d8 d1 47 be 6f 6e 12 3e 67 fd 25 3e 62 3f 2a be
       -0.19513643 0.1429994 0.16209947 -0.16625741
000070 28 d2 81 bd bd 1c 5a bf 08 90 93 be 81 58 51 be
       -0.06338912 -0.852001 -0.28820825 -0.20443918
000080 ed 60 8c 3d 07 92 82 bd 23 68 4c be fc bf 3c 3e
       0.068544246 -0.06375509 -0.199616 0.18432611
000090 91 2c bb 3e f0 86 cf bc 4c 62 8f bd e2 b0 b7 3d
       0.3655744 -0.025332898 -0.070011705 0.089692846
0000a0 d3 41 4c 3d 8d e0 7a 3e 3f c8 4d 3e f8 58 a0 3e
       0.049867462 0.24499722 0.20095919 0.31317878
0000b0 2e 7b 49 bd 3f e7 f2 bc e3 c4 0d 3d dd 3b f0 be
       -0.04918974 -0.029651282 0.034611594 -0.46920672
0000c0 3b 4e 6b be 3a 2a e1 3d 5f 0f 47 be c7 11 62 3e
       -0.22979061 0.10994382 -0.19439457 0.22077094
0000d0 0b b4 d4 bd 8a 68 a8 3d ea 21 d8 bc 0e 5b bd bc
       -0.10385903 0.08223064 -0.026383359 -0.023114707
0000e0 12 42 2e be 40 1d 6e 3d 8d 03 87 3c 32 4b 68 be
       -0.17017391 0.058133364 0.016481185 -0.22684935
0000f0 b3 af d6 bd 3d 14 8f 3e 31 03 7d 3d b5 38 59 be
       -0.10482731 0.27945128 0.06177062 -0.21213038
000100 55 cd e9 3d ce 7d 15 3d 27 97 a8 3e 72 9b 5c 3d
       0.11416117 0.03649693 0.3292782 0.05385918
000110 8d af d7 bd 7c 5e 07 be 5a 03 fa bc 35 79 4c 3e
       -0.105315305 -0.13219637 -0.030519176 0.19968112
000120 2e f5 a8 bd c0 48 97 be 4f db bf ba cc 30 2d be
       -0.08249889 -0.2954769 -0.0014637503 -0.16913146
000130 87 c2 ac 3e ea 68 f6 bc 63 6e 44 be 10 aa 29 be
       0.33742163 -0.030079324 -0.19182734 -0.1656878
000140 71 1c ef 3d e2 3b 05 be be 54 59 3e a9 7a 69 be
       0.11675347 -0.13011125 0.21223733 -0.22800697
000150 a5 aa 1d 3b fc 30 b3 bd 79 81 cd bd f0 31 0b 3e
       0.002405801 -0.087495774 -0.100344606 0.13593268
000160 ab ac 00 be 40 65 09 be ba 56 b7 bd ee 15 01 3c
       -0.12565868 -0.1341753 -0.08952089 0.007878764
000170 17 96 27 be 2d 1e a9 3d 36 cc ce 3b 44 fa 80 3d
       -0.16365848 0.08257709 0.006310965 0.062977344
000180 a4 40 b2 3e 4b b7 9b 3b 54 67 05 3d 93 c1 b3 3d
       0.34814942 0.004752075 0.032569245 0.08777156
000190 de 86 3d bd 02 b2 d4 3b 2a 09 d2 bd 28 23 9b 3c
       -0.046271197 0.0064909467 -0.10255654 0.018937662
0001a0 82 a1 0b be a6 6d e2 bd c5 d7 5a 3e 40 b1 c1 bd
       -0.13635829 -0.1105607 0.21371372 -0.09457636
0001b0 30 a7 81 3e f0 bd 42 3e 84 a6 51 be 19 ad 12 be
       0.25322866 0.19017768 -0.20473677 -0.14323844
0001c0 dd 42 9a 3e 80 75 1a 3d 10 3e ef bd 1a 6b c0 bd
       0.30129138 0.037709713 -0.11681759 -0.09395428
0001d0 b6 66 a3 3d b3 28 45 3e 83 4e fd bd b3 c7 a5 bd
       0.07978575 0.19253807 -0.123684905 -0.0809473
0001e0 e0 47 64 be ca 43 cc be 22 51 3b be 73 12 e1 bd
       -0.22293043 -0.3989547 -0.18292668 -0.10989847
0001f0 09 b0 6b be 6b 4b 10 be 2e cc c3 3e 3e 4a 1e 3e
       -0.23016371 -0.1409127 0.38241714 0.15458009
000200 3a e5 ea 3b 64 2b 46 3e a4 a4 80 be 43 0c d4 3d
       0.007168439 0.1935249 -0.2512561 0.10353901
000210 0b fc a6 be 5b 7e ee 3c 42 b4 00 be f3 09 d3 3e
       -0.3261417 0.029112985 -0.12568763 0.41218528
000220 c5 06 f2 3a 03 81 db 3e ee 38 67 3e 10 ef d2 be
       0.0018465152 0.42871866 0.2258031 -0.41198015
000230 61 fb 6b 3e 0c ba 9a 3c c0 e2 a1 3e 86 32 8c be
       0.23045112 0.018887542 0.3161831 -0.27382296
000240 b4 e0 42 be 0b aa c8 3d 42 1b ea 3e 9b c7 90 bd
       -0.1903103 0.09798058 0.4572392 -0.07069322
000250 76 51 6a be 92 52 c4 3d 4e aa a6 3e f2 9f bf bd
       -0.22882637 0.095860615 0.32551807 -0.09356679
000260 7e 79 65 bd 56 9e 96 3e 3e b0 9a 3d aa 81 7a 3c
       -0.056024067 0.29417676 0.07553147 0.015289703
000270 dd ba 2d be 0a 13 5e bd ae fb 6e 3e 62 5a af 3c
       -0.16965814 -0.054217376 0.23338196 0.021405403
000280 e2 a9 e4 3d 6b 19 69 be 03 58 e9 bd 7d c4 9e bc
       0.11165215 -0.22763602 -0.1139374 -0.019380802
000290 0d 06 b4 3a 6a 37 9c bd 10 2a bd be 23 a7 18 bd
       0.0013734713 -0.07627757 -0.36946154 -0.03726877
0002a0 46 7e ff bb 13 e5 17 3e c0 8a 74 3d 7a 05 a0 3b
       -0.0077970354 0.14833479 0.059702635 0.0048834654
0002b0 52 89 93 be 11 f7 97 3e a2 bf 86 bc 45 3e d5 bc
       -0.28815705 0.29680684 -0.0164488 -0.026030669
0002c0 38 4f d8 bd 67 59 e8 bd ad 9e aa 3d be e3 10 3b
       -0.10561985 -0.11345177 0.08331046 0.0022108401
0002d0 84 7c db be 9e 3e b1 3e 4f ff 56 be 82 15 10 be
       -0.42868435 0.34618086 -0.2099583 -0.14070705
0002e0 a9 f5 db 3e 56 b6 87 3e d2 ef 83 3e 3a fa 07 bf
       0.4296086 0.265063 0.25768906 -0.5311619
0002f0 52 fe 1e bd 16 bc 3a be 99 df 93 be d3 62 b7 be
       -0.038816758 -0.18235812 -0.2888153 -0.35817584
000300 83 24 f7 bc 79 48 69 bd fa 32 80 3d b3 fb f5 3d
       -0.030168777 -0.05695388 0.06259723 0.120108984
000310 ff 49 6f 3d 42 45 48 3e f9 a9 4b 3e c0 28 dc 3e
       0.058420178 0.1955767 0.19889058 0.4299984
000320 f1 09 10 3d 51 c3 b9 3e 22 9e 8a 3d 5d ea 10 3e
       0.03516573 0.36281827 0.06768443 0.14151902
000330 34 44 4c be 5f cd 7d bd 73 b2 b1 3e a3 86 33 bd
       -0.19947892 -0.061963435 0.34706458 -0.04382957
000340 3c c3 69 3e c2 7e cd 3b ec 04 eb bc e4 d0 88 3e
       0.22828382 0.006271214 -0.02868887 0.2672187
000350 21 d2 dc bd ac e0 cd bd b5 92 1f be ce c3 87 bc
       -0.107822664 -0.100526184 -0.15583308 -0.01657286
000360 e0 46 80 be d2 01 06 3e 94 0f 56 3d 9c 61 0c 3e
       -0.25054073 0.13086632 0.05226095 0.1370911
000370 5e 96 72 3e d6 bd 36 3e 64 dc 37 3e 15 19 f9 bc
       0.23690173 0.17845854 0.17955166 -0.030407468
000380 aa 08 a4 be c0 2b 73 3e 32 12 79 bd 81 85 6b bd
       -0.3203786 0.23747158 -0.060808368 -0.057500366
000390 9b a3 92 3d 51 66 92 bd d7 9c 2c 3e 5a e7 ea 3d
       0.071601115 -0.071484216 0.16856705 0.11469908
0003a0 76 3f 59 be 19 c4 2f 3e 28 d4 9b be a4 f1 77 bc
       -0.21215615 0.17164649 -0.304353 -0.015133295
0003b0 18 16 48 3e 28 ba fa 3d 7d 51 f6 be 3f ac 6a 3d
       0.19539678 0.12242538 -0.48109046 0.057293173
0003c0 7e 69 d2 3e 72 a4 90 3c 24 a4 2a bb b2 be 53 3e
       0.4109611 0.017656539 -0.0026037777 0.20678213
0003d0 85 c9 ed 3c d6 f3 ac be ad d6 11 3f c0 c8 b6 bd
       0.029026756 -0.33779782 0.56968194 -0.08925009
0003e0 99 b3 4d bd 95 63 27 3d f2 ac 49 be ee db 02 3e
       -0.050220106 0.040866453 -0.1969488 0.12779209
0003f0 88 be 82 3e e0 45 81 bc f1 77 19 be 84 13 7c 3e
       0.2553599 -0.01578039 -0.1498716 0.2461682

core.features.layer1.ds_conv.in_depth_conv.bias f4 [64]
000000 b1 aa e3 bd 3e d0 12 3c d5 35 3b 3d 6b 40 7a 3c
       -0.11116541 0.008960782 0.045705635 0.0152741475
000010 d5 61 8e 3d 6f e7 4e 3d 1a 72 f6 bd 58 c1 96 be
       0.06952254 0.05051368 -0.12033482 -0.29444385
000020 57 82 a3 3e 8b 5c 64 bd 66 a3 54 3d 1c 92 40 bd
       0.3193538 -0.05575232 0.05191364 -0.04701434
000030 a3 1d 8a bd f2 48 ac 3e 5e 37 8d 3c 50 f7 8a 3e
       -0.06743934 0.33649403 0.017238315 0.2714181
000040 1f 0a 12 3d e7 94 b3 bd 03 e5 f8 bd bd 69 e3 bd
       0.035654183 -0.08768635 -0.121530555 -0.11104152
000050 4a b4 5a ba 18 57 7c 3c 7d df 8d 3d d1 c5 9c 3d
       -0.0008342905 0.015401624 0.06927393 0.07654918
000060 b3 73 bb 3d 29 4b 2e 3e 34 f5 b3 3d 6f 04 96 bd
       0.09152927 0.17020859 0.08787003 -0.073250644
000070 1f cf d0 3d 97 dc 8f 3d 7a df a5 3d 62 48 0e be
       0.10195755 0.07024496 0.080992654 -0.138948
000080 7a 21 8a 3e 58 f3 59 3e 8e 23 bd bd 0d 7b c6 bd
       0.26978666 0.21284235 -0.09235297 -0.09691439
000090 8c 81 fb bd b1 e8 bb bc 20 52 ad 3d a5 cf 95 bd
       -0.122805685 -0.022938104 0.0846293 -0.07314996
0000a0 aa 19 39 3d 82 92 a5 bb d1 d2 1e be 29 0e ef bd
       0.04519049 -0.0050528655 -0.15510108 -0.11672623
0000b0 82 d4 80 bd 3d 05 c4 3b bd f0 02 be 63 9c fa 3d
       -0.06290533 0.0059820698 -0.12787147 0.1223686
0000c0 e7 c0 69 be 96 af b9 3d 1c 82 5c 3e 0d 7a 4f 3d
       -0.22827493 0.090666935 0.21534008 0.050653506
0000d0 5a d5 24 be 80 75 a9 3c 97 e4 06 be 36 17 45 3e
       -0.16097012 0.020685911 -0.13173138 0.19247136
0000e0 cf 5f 0b 3d 2a 8d 81 bd 35 ba 29 be 60 5b 62 3d
       0.034026917 -0.06325753 -0.16574939 0.055262923
0000f0 03 57 6d 3d 7f 88 95 bd 73 b2 58 bd d8 83 e5 3d
       0.05794431 -0.07301425 -0.052904557 0.11206788

core.features.layer1.ds_conv.spatial_conv.weight f4 [64, 1, 7, 7]
000000 23 51 a2 3e 93 9e 43 3e 21 b5 f4 bc c9 4b 56 bd
       0.31702527 0.1910346 -0.029871525 -0.052318368
000010 9f 71 88 3d 68 11 63 3c 25 84 9a 3e 7b 93 75 3e
       0.066622965 0.01385913 0.30178943 0.2398204
000020 2b 92 1d 3e b0 61 50 bd 48 a4 09 be 80 11 49 bd
       0.1538779 -0.050874412 -0.13441575 -0.049088955
000030 56 2f 4b 3d 29 04 5c 3e fd c6 ad 3c 37 06 1c 3b
       0.04960569 0.21485962 0.02121305 0.0023807415
000040 bd df 22 be 7b d1 1b be b1 2b 93 bd c8 e6 32 bd
       -0.15905662 -0.15216629 -0.07186068 -0.04367712
000050 31 4d b8 bd b2 ef 49 3c c8 30 c4 bd d6 09 1c be
       -0.08999098 0.012325214 -0.09579617 -0.15238127
000060 6a 84 0d be 9d 2a ca bd 19 af 46 be b0 4d 88 be
       -0.13820043 -0.09871409 -0.19402732 -0.2662177
000070 8e a3 02 3e 30 f0 3c 3d 04 d2 2e bc fb 0b 4e bb
       0.12757704 0.0461275 -0.010670189 -0.0031440246
000080 4e 7d 1b 3c 6d 11 da bd 0c ae 8a be eb de d9 3d
       0.009490324 -0.10647855 -0.27085912 0.10638221
000090 eb 6c 05 3d c5 39 97 3c e7 fe ba 3c 0e b9 4e bd
       0.032574575 0.018460164 0.022826625 -0.05046945
0000a0 b0 2d c5 bd 6f f7 63 be ae d2 34 be 29 66 84 be
       -0.09627855 -0.22262357 -0.17658493 -0.25859192
0000b0 a9 b8 03 be 3c df a7 bd f6 89 d9 bd 5c 80 f1 bb
       -0.12863411 -0.081968755 -0.10622017 -0.007370038
0000c0 3a 61 87 bd 43 e6 e7 3d 7a 5d f8 3d a2 e7 f0 3c
       -0.06610341 0.11323216 0.12127204 0.029407326
0000d0 c6 4f 43 3d 65 c9 84 3b 77 dd e7 3d f6 08 cb 3d
       0.0476835 0.0040523284 0.11321538 0.099138185
0000e0 3a 12 06 3e 0c d7 ae 3d d2 e0 8a 3d fd 23 f1 bd
       0.1309289 0.08537111 0.06781162 -0.11774442
0000f0 fb 67 8a bd 5d 83 94 bd 4e 42 4c bd a6 74 9a 3d
       -0.06758114 -0.07251618 -0.04986792 0.0754178
000100 35 49 bb 3d 97 db 91 3d aa 63 6b bc c8 9b a3 bd
       0.091448225 0.071219616 -0.0143670235 -0.07988697
000110 b8 a0 bf bd ad a0 11 be 20 d6 f4 bc aa 5c 79 3d
       -0.093568265 -0.14221449 -0.029887259 0.060879387
000120 45 04 82 3c d2 4e a3 3d 60 5a 52 3c c1 04 46 bd
       0.015871176 0.07974018 0.01283893 -0.048344377
000130 50 2a 16 be 65 82 e3 bc 20 b0 35 3a 7e 83 24 3d
       -0.14664578 -0.027772138 0.0006930847 0.040164463
000140 44 46 eb 3c d9 01 73 ba c6 91 05 bd 3c bf 83 bc
       0.028720029 -0.00092699897 -0.032609724 -0.016082399
000150 12 7d 97 bd 6e 23 60 bd ea 4e 40 bd 72 44 8f bc
       -0.07396902 -0.05472129 -0.04695026 -0.017488692
000160 52 49 57 3d 97 71 c3 3d d7 7a 84 3c 7f c9 b7 bd
       0.052560158 0.0954315 0.016171856 -0.08973979
000170 63 03 a3 bd ba 19 f5 bd 22 9e 01 be 15 a1 60 bd
       -0.0795963 -0.119677976 -0.12657979 -0.05484112
000180 6e 15 84 bb e0 69 9f bc 4a ce 74 bd d8 aa 17 be
       -0.004030875 -0.019459665 -0.059767045 -0.14811265
000190 3a 79 12 be 49 1f e8 bd 99 1b d8 bd 7f ba e5 bd
       -0.14304057 -0.11334092 -0.10552139 -0.11217212
0001a0 52 93 af bd 15 51 b3 3c ad c0 79 bd 10 42 56 3d
       -0.08573021 0.021889249 -0.060974766 0.052309096
0001b0 a0 81 9e 3d 76 95 06 3e c5 6e 3d 3e 89 6e ab 3e
       0.07739568 0.13142952 0.18499286 0.3348277
0001c0 f6 46 05 3d 02 9e 5d bd 87 ec 00 3d 1a 4f c9 3d
       0.032538377 -0.054105766 0.03147557 0.098295406
0001d0 1c a3 91 3d a2 78 b6 3d fc d4 80 3e ce 96 12 bd
       0.07111189 0.08909728 0.25162494 -0.03578835
0001e0 bd f6 13 bd 9f fd e3 bc d9 11 8b bd 1b 52 79 be
       -0.03612398 -0.027830897 -0.067905135 -0.24347727
0001f0 d0 c4 4a be 42 d5 da 3c 75 49 1f 3e 81 ab 17 3e
       -0.1980164 0.026713017 0.15555365 0.14811517
000200 83 3e e2 3c ff 28 4d be 88 6c e1 be 47 b1 aa be
       0.027617699 -0.2003517 -0.44028115 -0.33338377
000210 76 c8 09 be 38 fd 0d 3e ec d3 2d 3e f7 bc af bc
       -0.13455376 0.13866127 0.16975373 -0.02145241
000220 52 de 47 be 27 b6 d6 be 0a a2 a6 be c5 48 6d bd
       -0.19518402 -0.41935846 -0.325455 -0.057930727
000230 9a be b8 3d a3 2a 46 bc 5f 17 91 bd 64 d6 23 be
       0.09020729 -0.012095126 -0.07084536 -0.15999752
000240 a3 a5 32 be 41 bc 4f bd 59 cc 03 3e 10 d0 51 be
       -0.17445998 -0.050716642 0.12870921 -0.20489526
000250 24 94 46 be 17 24 1f be ad 7c 99 bd 0e 26 f1 bc
       -0.19392449 -0.15541111 -0.07494483 -0.029437091
000260 50 f9 2b 3d 8d 96 e5 3d 22 4b 61 be 19 83 03 be
       0.04198581 0.11210356 -0.22001317 -0.12842979
000270 e6 9d ef bd 0b 27 1c bd d2 45 89 3d 3a 70 10 3e
       -0.117000386 -0.03812317 0.0670277 0.14105311
000280 c2 d8 e3 3d 60 0a f7 bd ed 5c 87 bd a3 62 62 bd
       0.11125328 -0.12062526 -0.06609521 -0.05526985
000290 9a e9 dd bd 7b 30 8d 3c 8e e8 80 3d 98 a1 fb 3d
       -0.108355716 0.017235031 0.06294356 0.12286681
0002a0 b3 87 6a bd 40 75 e3 bc b1 b2 94 bd 4e ee 97 bd
       -0.05725832 -0.02776587 -0.07260645 -0.074185
0002b0 e3 53 e7 bd c0 b1 dc bd 8e 12 93 3c 22 82 d7 bc
       -0.11295297 -0.107760906 0.017953184 -0.02630717
0002c0 89 72 c2 3c 92 05 a1 3b 02 8b c0 3d fd 08 49 bc
       0.023736255 0.004913994 0.09401514 -0.012270209
0002d0 c1 91 83 bc c4 f1 f9 3c 28 5c 95 3d cb eb 06 bd
       -0.016060712 0.03051079 0.07292968 -0.032939713
0002e0 c2 78 b5 3d 74 82 c9 3d 55 70 2c 3e 9c b5 ff 3c
       0.08860923 0.09839335 0.16839726 0.031214528
0002f0 78 fc a1 bb 8c 68 c4 bd bb 7c 20 be 04 16 54 bd
       -0.0049434267 -0.09590253 -0.15672581 -0.05177881
000300 4c 6c ad 3d 0f df 0a 3e 60 97 c9 3d 38 7d b1 3d
       0.084679216 0.13561653 0.098433256 0.08666462
000310 9a 0f e0 bb 5d 3c 91 3d 87 d7 25 3e 96 d8 f1 3d
       -0.0068377974 0.070915915 0.16195498 0.118088886
000320 1f 6d 85 bc b0 e0 3b bd 04 12 07 be af 5f bc 3d
       -0.016287385 -0.045868576 -0.13190466 0.09197938
000330 28 dd 53 3e 29 b5 8f 3e 5c 49 79 3e dd 6e 14 3e
       0.20689833 0.28067902 0.2434439 0.14495416
000340 19 32 06 3d 28 2c fc 3c 99 82 b7 3d 81 13 64 3e
       0.03276262 0.030782774 0.089604564 0.22273065
000350 be 2e 78 3e 94 d0 73 3e c9 c0 1a 3e e4 0b 16 3e
       0.2423658 0.23810035 0.15112604 0.14652973
000360 a5 25 00 3e db de 46 bd 75 22 48 bd 84 d2 8a bd
       0.1251436 -0.048552375 -0.048860986 -0.06778434
000370 e2 3e 8e bc 4b 7c 74 bc 9c 12 4a bd da ff 99 3c
       -0.01736397 -0.014922212 -0.049334154 0.018798757
000380 66 e6 fe 3b 9c 87 f5 3c 58 4b 65 bc 53 c2 88 3b
       0.0077789305 0.02997189 -0.013995014 0.004173556
000390 00 a1 b6 bd b2 b9 0b bd 2b c4 23 3d 39 33 8a 3d
       -0.08917427 -0.03411264 0.039982002 0.06748051
0003a0 64 13 37 3d 6b 9f a9 3d 0d a1 c2 bb b0 60 3b 3b
       0.044696227 0.0828236 -0.005939609 0.0028591566
0003b0 48 eb 93 bc d9 75 d7 3c a1 ea a1 3d 71 c6 e4 3c
       -0.018056527 0.026301311 0.0790608 0.027926655
0003c0 1e 21 02 3c 6b 0e 42 3c ab 2e 88 bd 41 da 7f 3c
       0.007942466 0.011844258 -0.06649526 0.015616001
0003d0 a0 ef 76 3d 22 fd fe 3d d3 59 2d 3d 60 9a da 3d
       0.060287118 0.12450625 0.04232199 0.10673976
0003e0 55 a8 c5 3d 3a c7 96 3d fe b6 9f 3d 99 bb df 3c
       0.096512474 0.07362218 0.07798575 0.027311133
0003f0 06 05 cc 3d b7 14 95 3d 40 15 b8 3d 65 62 dc 3d
       0.09961896 0.07279342 0.08988428 0.10760955

core.features.layer1.ds_conv.spatial_conv.bias f4 [64]
000000 4d ef ec 3d 2d 94 2f 3d 2f 5c 67 3d 3c ae 91 bd
       0.115690805 0.04286592 0.056484398 -0.07113311
000010 14 0f 68 3d 4a 53 b4 bd f4 f2 05 bd d8 54 1b bb
       0.056655005 -0.08804949 -0.0327024 -0.0023701694
000020 95 dc c7 3d 2e e7 0a 3d 93 f2 8d bd 29 73 63 be
       0.097588696 0.033911876 -0.06931033 -0.22211899
000030 98 07 2a bc bf 92 e1 3d 9b d3 9b bd 71 db 39 be
       -0.010377787 0.11014318 -0.0760872 -0.18150117
000040 7e a2 87 3d 5b 7f 02 bd 0b 81 f7 bc a0 4f 65 be
       0.0662279 -0.031859737 -0.0302129 -0.22393656
000050 bd 93 bb bd 61 ed 82 bd af 52 db bd b9 57 71 bd
       -0.09159038 -0.06392933 -0.1070913 -0.05892155
000060 5d 42 97 bc db 5e b1 3d 18 5c 39 3d 3f aa ed bd
       -0.018464262 0.0866067 0.045253843 -0.116047375
000070 ae a8 99 bd 09 ff b2 bd b9 b3 95 bc d7 e0 11 3d
       -0.07502876 -0.0874005 -0.018274175 0.035614815
000080 fa 54 96 bd 7d 52 d3 bc a5 60 b6 3c dc 36 07 3d
       -0.07340427 -0.02579617 0.02226288 0.033011302
000090 f9 f4 62 be 67 8a e7 3d be c1 0d 3c cd 3e 4c bd
       -0.22163762 0.11305695 0.008652149 -0.04986458
0000a0 d7 72 6d 3d 72 8b 96 bc 8a 39 91 bd 0c 1a b8 3d
       0.057970848 -0.01837704 -0.07091053 0.08989343
0000b0 98 c8 ca 3d de 0a 21 3a 2f 4e 0d 3e 72 15 c7 bd
       0.099015415 0.0006143282 0.13799356 -0.09720887
0000c0 de b2 6d 3d 79 ed c5 bd 0f 65 81 bc 25 c4 16 3d
       0.05803191 -0.09664435 -0.015795259 0.03680815
0000d0 ff 85 5c 3d 82 f2 40 3d 6a 74 ba 3d 35 72 be bc
       0.053838726 0.047106273 0.091042355 -0.023247818
0000e0 bc c2 e8 bd 0e d7 7c be 58 c3 bc 3d c5 c4 ba 3c
       -0.11365268 -0.24691412 0.09216946 0.022798905
0000f0 ea 0e 8c 3c ac c1 0c be c9 c4 05 bd 3b 4e 1b be
       0.017096955 -0.13745755 -0.032658372 -0.15166561

core.features.layer1.ds_conv.out_depth_conv.weight f4 [64, 64, 1, 1]
000000 64 45 09 3f e6 29 a7 be af 4c f7 3d d7 23 47 bd
       0.53621507 -0.32649153 0.12075173 -0.048618164
000010 7f 3e 6b bd aa 41 73 3e 5d fa 04 3e c3 8b 37 3b
       -0.057432648 0.23755518 0.12986131 0.0028006888
000020 12 5a 2e be 9e 70 43 3e fe d9 89 3e 91 06 2b 3d
       -0.17026547 0.19085929 0.26924127 0.04175431
000030 94 9b bf bd f5 9c 13 be ec 95 9b bd 47 af 48 3e
       -0.09355846 -0.14415343 -0.07596955 0.19598113
000040 e8 28 fa bd 11 f7 2e be 01 33 ac 3e 90 32 58 be
       -0.122148335 -0.17086436 0.33632663 -0.21113038
000050 68 a5 30 be a1 d5 0c 3d 16 90 81 be d0 04 85 3e
       -0.17250597 0.03438342 -0.2530524 0.25980234
000060 3d 3c 91 bb 79 45 17 bd 93 e8 1e be c7 de cc 3e
       -0.00443223 -0.03693149 -0.15518408 0.40013716
000070 b7 08 90 3d 99 75 88 bd f4 fe 19 3e da 87 8c be
       0.07032912 -0.06663055 0.15038663 -0.27447397
000080 24 0a f6 bc ab 19 1f 3c ff 63 00 bd 46 c0 9d bc
       -0.030034132 0.00971071 -0.031345364 -0.019256722
000090 1a d2 b0 3c 50 91 af 3d e3 4f 77 bd 09 41 0c be
       0.02158456 0.08572638 -0.06037892 -0.13696684
0000a0 b7 d7 f6 bc d2 e4 a8 3e 0a 84 34 3e ec 65 fd bd
       -0.030132158 0.32987076 0.17628494 -0.12372956
0000b0 da 6e 08 3d ec 82 a3 be 58 2d b1 be a3 3a 02 be
       0.03330884 -0.31935823 -0.34604907 -0.1271768
0000c0 7f 66 23 3e 3d 67 4a 3e ff 4b ab 3e ac 93 a3 3e
       0.15957068 0.19765945 0.33456418 0.31948602
0000d0 f7 cb db bd 91 af 5d 3e ad 38 56 bc bf 30 0a 3f
       -0.107322626 0.21649005 -0.013075036 0.5398063
0000e0 f4 ef 74 bd 3c d0 90 be fe 0d 59 3e af 4c f6 3e
       -0.05979915 -0.2828387 0.21196744 0.4810538
0000f0 e4 b9 ab be b8 b1 62 3c 02 9e a9 3e c4 ae 2d 3e
       -0.3354026 0.013836317 0.33128363 0.16961199
000100 67 60 d5 3e 56 6d 00 bf 86 ea 04 bd 9b e3 f8 be
       0.41675112 -0.50166833 -0.03245022 -0.4861115
000110 e0 48 25 be 19 ff 71 be 24 f5 e9 3b e3 b6 a4 3d
       -0.16141081 -0.23632468 0.0071398187 0.080426954
000120 5b e2 a5 3d a3 6b a6 3d 8e ba de be 1b a2 ac 3d
       0.080998145 0.08125999 -0.43501705 0.08429357
000130 64 f8 a8 bc 14 a4 e6 be f3 45 7a bd 15 ed e4 3e
       -0.020626254 -0.45047057 -0.061101865 0.4471213
000140 da 00 32 3e 53 59 80 3e 2a a3 a7 3e 6f b6 91 3d
       0.17383137 0.2506815 0.32741672 0.071148746
000150 ec 42 bb be 93 d8 61 3f 3b 04 59 3c 9b 8a d3 be
       -0.36574495 0.8822109 0.0132456375 -0.41316685
000160 f8 b3 ad 3e 03 be f0 bc d0 19 f9 bc 9f 1f fb 3d
       0.33926368 -0.02938748 -0.030407816 0.122618906
000170 a3 1c 96 3d 5b 4f af 3e 18 e9 1f be 82 4e 1a 3d
       0.07329681 0.3424023 -0.15616262 0.037672527
000180 95 7b f8 3d 81 19 ee 3c c1 b1 aa bb 2f c1 d3 bc
       0.121329464 0.029064896 -0.005209178 -0.025848953
000190 1b e0 d2 be 1b 30 81 3d 14 63 34 3b fb e1 02 bd
       -0.41186604 0.063080035 0.0027524875 -0.031953793
0001a0 63 54 d0 3c 5f 3f 17 bc 27 bc 50 3c ab 83 f6 bd
       0.025430864 -0.009231417 0.0127401715 -0.120368324
0001b0 e3 fc b2 3c 61 26 d3 3d d8 e3 b6 3e 4d ef 97 bd
       0.021849101 0.103100546 0.35720706 -0.0741869
0001c0 ae 69 d9 3d 1e e6 5a 3e 41 4f 2d 3e 61 8f ac 3d
       0.1061586 0.21376845 0.16924764 0.08425785
0001d0 e2 5e b4 be 63 0e 7a be c7 df bb bd e7 21 46 3e
       -0.3522864 -0.2441955 -0.091735415 0.1934887
0001e0 8d a8 3a be 4e 13 2d bd 44 1c 20 3e 7b 37 72 bd
       -0.1822836 -0.04225474 0.15635782 -0.05913494
0001f0 f6 00 a4 3c 27 5e 1e 3b 39 d3 11 3e a2 6f 88 3e
       0.02001999 0.0024165006 0.14240731 0.2664767
000200 d8 55 bd be 47 b1 b1 bd 69 be 30 bd f6 ee 8e 3e
       -0.36979556 -0.08676391 -0.04315034 0.27916688
000210 5a fa fd bd 90 61 df bd 88 ba ac 3d b9 c5 d4 bd
       -0.124012664 -0.109072804 0.084340155 -0.10389275
000220 ae c9 26 bf 03 a2 7e bd 21 a9 19 be 6a e8 d4 3d
       -0.6515149 -0.062166225 -0.15005924 0.10395892
000230 59 85 8d 3e 22 8f 4c bd 69 92 a3 3e 0d 8f 74 be
       0.276408 -0.04994119 0.3194764 -0.23882695
000240 b9 5f 02 3e 33 d1 3e 3e 6a 24 aa bc 7c 02 0c 3e
       0.12731828 0.1863449 -0.020769317 0.13672823
000250 11 77 23 bd 1c 42 30 3e 0c 8f f2 bd d4 bd 09 bc
       -0.039908472 0.17212719 -0.1184369 -0.008407075
000260 61 9c 33 3e dd 1f f2 3c b6 9c 78 bd 7c 23 3b 3e
       0.17540123 0.02955621 -0.060696326 0.18275255
000270 ae 1a 15 3e 26 42 5b 3e 78 82 63 bd 5d 55 cd 3c
       0.14560959 0.21411952 -0.055544347 0.025065118
000280 00 98 7b bd a8 4f 92 bd fa 67 46 bc 6a 3f 9d be
       -0.061424255 -0.071440995 -0.012109751 -0.30712444
000290 01 3a 49 3e 4d b8 11 be 9a 37 8e be 2c e5 08 3e
       0.19651033 -0.14230461 -0.27776796 0.13368672
0002a0 e7 bb 8c 3d 9f 60 33 be 52 15 c6 bb 42 04 c3 be
       0.06871777 -0.17517327 -0.006045022 -0.38089186
0002b0 a0 b5 3b bd 49 69 4f bc de cc c7 bd d0 1b 95 3d
       -0.045827508 -0.012659379 -0.09755872 0.072806954
0002c0 b1 cf 1c bf 7c 50 3f be 91 45 fc bd 5c 3c fc ba
       -0.6125441 -0.18683046 -0.12317956 -0.0019244063
0002d0 43 38 6d 3d bd c2 69 bc 8c ca 21 3e 0f 48 38 3e
       0.057914983 -0.014267621 0.15799922 0.17996238
0002e0 f7 22 74 be 6c 24 29 3d b0 41 77 be e0 bf 15 be
       -0.23841463 0.0412945 -0.24146152 -0.14623976
0002f0 df c6 00 bd 15 34 1f bd 04 ea 18 3e 92 fd 00 bc
       -0.03143966 -0.03886803 0.1493302 -0.007872956
000300 9f 30 3a bc c4 88 54 be 23 54 6b bd 0e f3 d3 bd
       -0.011364131 -0.20755297 -0.057453286 -0.103490934
000310 76 2b 7d 3d ec 39 0c 3c 17 83 9c bd 1d 01 0e be
       0.061809026 0.0085587315 -0.07642191 -0.13867612
000320 95 2d 17 bc 95 9b b3 3d 3c c5 c7 bd d5 60 63 3d
       -0.009227176 0.08769909 -0.09754416 0.055512268
000330 d7 f2 ac 3d 1f ad 07 bc d9 d7 67 bd 70 aa c9 3e
       0.084447555 -0.008281021 -0.056602333 0.39387846
000340 4e 77 24 3d a8 eb b8 be f1 39 77 3e 71 b9 17 3f
       0.04015284 -0.3611729 0.24143197 0.59267336
000350 82 5e d6 be 2e 26 4f 3e 6d dc e2 bc 69 fd 15 bd
       -0.4186898 0.20229408 -0.027692998 -0.036618624
000360 54 1a 37 be d5 be 8a be a5 b3 8d 3c 5e 1f 8c bd
       -0.17881137 -0.27098718 0.017297575 -0.0684192
000370 9a 63 8d bd ac 20 67 3e 75 c2 d5 bc 7f b3 af bd
       -0.06903763 0.22571057 -0.0260937 -0.08579158
000380 e7 01 a2 3d 89 4d b0 bd a7 21 06 3e 3a 9a cc bd
       0.07910519 -0.08608539 0.13098775 -0.09990354
000390 39 0d 77 3d 20 52 eb bd 5a 67 3e bd c6 35 37 be
       0.060315344 -0.114902735 -0.046485282 -0.17891607
0003a0 e1 af dc 3d 75 8c 1b 3f 4d 31 0b be e6 dd d2 3d
       0.10775734 0.60761195 -0.13593026 0.1029623
0003b0 ae 74 a9 bc 52 5a c7 bd 28 ea 84 be 88 0b 8b 3e
       -0.02068552 -0.09734024 -0.25959897 0.27157235
0003c0 0a eb bf 3d 34 76 9d bd 1f 49 04 bd f2 c1 24 be
       0.09371002 -0.07688561 -0.032296296 -0.1608961
0003d0 76 78 37 3d 43 ae 9f bd 04 2f c4 bd 56 d6 b4 3d
       0.044792615 -0.0779691 -0.0957928 0.08829944
0003e0 fe 0a 9a 3d a7 99 c5 bb 1f 27 bd 3b 3f 62 ca 3d
       0.07521628 -0.0060302797 0.005772486 0.0988202
0003f0 96 58 86 bd f3 8c 23 be 76 9f 2b 3d 1b b3 74 be
       -0.06559865 -0.15971737 0.04190012 -0.23896448

core.features.layer1.ds_conv.out_depth_conv.bias f4 [64]
000000 ef f3 cb bc b7 9d 13 3e fe 24 4d bd 1d a7 56 bd
       -0.02489659 0.14415632 -0.050084107 -0.052405465
000010 53 1f 40 bd 9d aa 0e 3d f2 89 07 bc 80 03 27 3e
       -0.046904873 0.03483068 -0.008272635 0.16309929
000020 3d 2a 31 3d 6a ad 81 3d e4 c4 b7 3d de 9f 6d be
       0.043253172 0.06331904 0.08973101 -0.23205516
000030 37 75 40 bd 8f 1f d2 bb 81 50 27 3d 39 d0 86 bd
       -0.046986785 -0.0064124535 0.04084826 -0.06582684
000040 71 82 58 bd cb 05 85 bd 2b 21 a0 bd 7b 13 dc bd
       -0.052858774 -0.064952455 -0.07818826 -0.10745903
000050 ff 6e 3d bd ad 83 e2 bd 3c ee 1f be 9a de df 3d
       -0.046248432 -0.110602714 -0.15618223 0.1093113
000060 1f 83 11 3c 7d 6b 33 3d a7 de 46 3d 3e dd 7c 3b
       0.008881359 0.04380368 0.04855218 0.003858402
000070 80 8c f6 ba 06 88 c6 bd 7a 68 8d bd 6c 08 08 be
       -0.0018810183 -0.09693913 -0.06904693 -0.13284463
000080 45 2e 34 bd 33 0a 0e 3d c8 f1 bd bd df 65 c8 3d
       -0.04398944 0.034677695 -0.09274632 0.09785055
000090 60 d8 14 be 45 96 35 3d f2 45 a6 bd f6 a2 1b bd
       -0.14535666 0.04433276 -0.0811881 -0.03799721
0000a0 d0 ee ae bd 92 f9 cc 3d e7 98 45 bc 66 ad de bd
       -0.085416436 0.10008539 -0.012060381 -0.10872917
0000b0 a5 36 e9 bd e7 a8 f6 bd 4f ba a7 ba b7 c3 86 3d
       -0.11387376 -0.12043934 -0.0012796613 0.065802984
0000c0 25 99 04 3c 63 ed cf bd 26 02 80 bd f1 1a 95 bd
       0.008093153 -0.101527 -0.0625041 -0.07280529
0000d0 5a 4e 19 bc d1 7d 32 bd ad 0b 82 bd 92 97 ef bb
       -0.009357059 -0.04357702 -0.06349883 -0.0073117698
0000e0 67 93 55 3e 01 a0 a8 3d 49 fc 59 3b d1 f0 ad 3e
       0.20857011 0.08233643 0.0033261946 0.3397279
0000f0 f9 9b d5 bd a2 74 43 3b 19 b1 9d bd 35 e2 9c 3d
       -0.1043014 0.0029824157 -0.07699794 0.07660333

core.features.layer1.norm.weight f4 [64]
000000 9d 03 b9 3f e2 d3 d0 3f ab 71 a5 3f 77 9e b0 3f
       1.4454228 1.6314662 1.2925314 1.379836
000010 21 cb 97 3f 98 26 b7 3f 25 b3 a5 3f 67 95 93 3f
       1.1858865 1.4308653 1.2945296 1.1529969
000020 50 b9 b8 3f 6c 6b 9d 3f 05 d2 79 3f 08 9a b3 3f
       1.4431553 1.2298408 0.9758609 1.4031382
000030 11 88 86 3f e0 0b 94 3f f8 e9 a9 3f de b5 8f 3f
       1.0510274 1.1566124 1.3274527 1.1227376
000040 92 f7 bb 3f 3e 69 aa 3f 4e b0 b3 3f d3 03 ae 3f
       1.4684927 1.3313367 1.4038179 1.3594917
000050 68 3f 85 3f ba 5c 9d 3f a3 45 84 3f 5c 1b 80 3f
       1.0409975 1.2293923 1.0333751 1.000835
000060 0c c9 ba 3f 21 18 93 3f 65 95 9d 3f ea 72 8f 3f
       1.4592605 1.1491739 1.2311217 1.1206944
000070 f4 07 93 3f 16 9c b3 3f b6 f4 8c 3f 28 36 b5 3f
       1.1486802 1.4032009 1.101218 1.4157152
000080 dc f3 aa 3f d1 84 9e 3f 17 99 7c 3f 7a 7a b9 3f
       1.335567 1.2384282 0.98671097 1.4490502
000090 6b 78 87 3f bd e5 86 3f 97 13 87 3f 4b 23 a8 3f
       1.0583624 1.053886 1.0552853 1.313577
0000a0 f6 4b 88 3f 00 2d 8f 3f 02 e0 b7 3f 59 7b 91 3f
       1.0648181 1.1185608 1.4365237 1.1365768
0000b0 c1 2b 93 3f 94 db 89 3f 1c e3 a6 3f 32 58 81 3f
       1.1497728 1.0770135 1.3038058 1.010504
0000c0 05 74 b6 3f d4 d9 86 3f 80 77 9c 3f 0a 28 98 3f
       1.4254156 1.0535226 1.2223969 1.1887219
0000d0 03 b3 b0 3f 1d ad a2 3f 6b 26 77 3f 5c 67 a0 3f
       1.380463 1.270908 0.96542996 1.2531543
0000e0 5e ea bd 3f 0c 8c a1 3f 49 04 a5 3f 42 9d e2 3f
       1.4837148 1.2620864 1.2891933 1.7704241
0000f0 74 a7 89 3f 7e 0e 87 3f 5a 90 9a 3f cf 59 9b 3f
       1.0754228 1.0551298 1.2075303 1.2136782

core.features.layer1.norm.bias f4 [64]
000000 ba 97 8d be f8 8b 13 bf 08 23 3a be c3 ed 71 be
       -0.2765482 -0.5763545 -0.18177426 -0.23625855
000010 e3 a9 88 bd 02 63 d1 be d3 65 6b be 2f ce 7d be
       -0.06673028 -0.4089585 -0.22988062 -0.24785684
000020 e9 84 e4 be 09 fe b9 be 60 1a 59 be d5 7d b9 be
       -0.44632652 -0.36326626 -0.21201468 -0.36228815
000030 8f fd 52 be 50 c2 8a be ec 14 c9 be 48 aa 9a bd
       -0.20604537 -0.27101374 -0.39273775 -0.0755201
000040 02 46 af be 18 35 9c be e6 aa 70 be 2f 55 10 be
       -0.342331 -0.30509257 -0.23502693 -0.14094995
000050 50 a6 8e be 92 6b 16 bc f7 b4 cc bd e7 93 d3 be
       -0.2786126 -0.00918092 -0.09995454 -0.41323778
000060 36 49 88 be cb 77 a8 be aa 7d 32 be 94 e5 85 be
       -0.26618356 -0.32903895 -0.1743075 -0.26151717
000070 15 6f 2e be 61 0d 00 bf 17 1b 98 bd b7 46 15 be
       -0.17034562 -0.50020415 -0.07427042 -0.14577757
000080 c2 c3 a2 bd 79 7f 6e be 63 f6 09 bd d6 ff f2 be
       -0.07947494 -0.23290814 -0.03368224 -0.47460812
000090 21 4e a3 be 31 23 0f be b1 b3 86 bd 0a b3 b9 be
       -0.31895545 -0.13978268 -0.06577242 -0.36269408
0000a0 64 83 4f be 5d 80 71 be ba fe 07 bf 61 8a 9c bc
       -0.20264965 -0.23584123 -0.53123057 -0.019108953
0000b0 14 8b 3d be a1 e6 14 be 57 77 5b be 3e 95 79 be
       -0.18510085 -0.14541103 -0.21432243 -0.24373338
0000c0 29 c6 b8 be 6b a0 45 be 6c aa 34 be b3 25 1f be
       -0.36088684 -0.19299476 -0.17643136 -0.15541725
0000d0 e3 2a a4 be 33 fc 9d be 80 5f b0 bc df 4b 3f be
       -0.3206397 -0.30856475 -0.021529913 -0.18681286
0000e0 53 cd d4 be f8 ab b5 be 2e d5 7c be 93 20 4a bf
       -0.415629 -0.35482764 -0.24690697 -0.78955954
0000f0 12 c0 8a bd 24 dc 99 be 42 9d 3c be 94 89 dc be
       -0.06774916 -0.30050766 -0.18419364 -0.43073714

core.features.layer1.norm.running_mean f4 [64]
000000 5b 18 02 3f ac 07 9b bd 69 e0 2c c0 9d 34 81 bf
       0.50818413 -0.07569823 -2.701197 -1.0094181
000010 f1 bf a1 3e 43 31 27 bf c7 df 83 bf 74 1c f1 bf
       0.31591752 -0.6530954 -1.0302666 -1.8836808
000020 45 b2 d8 bf 38 c8 d9 3e 2d b4 d5 3f 59 19 5e c0
       -1.6929404 0.42535567 1.669561 -3.470297
000030 e6 d6 88 3d c5 7e ee bf 07 d8 fa bf c2 cf 18 c0
       0.066816136 -1.8632437 -1.9597176 -2.3876805
000040 d3 39 69 bf 53 d2 99 bd 3d 1f d1 bf 13 d4 0f bf
       -0.9110386 -0.07510819 -1.6337658 -0.56182975
000050 6d ff 7c 3f 82 37 09 bf 1e 01 14 bf 33 77 5d bf
       0.9882725 -0.53600323 -0.57814205 -0.8651001
000060 c6 02 75 be 6b 90 40 3f 62 80 c4 3f 76 3d 27 c0
       -0.23926839 0.75220364 1.5351679 -2.6131263
000070 8d a8 d8 3e 83 20 dd bf 71 80 8c 3f ee 28 6f bf
       0.42316094 -1.7275547 1.0976697 -0.9342183
000080 84 ca 15 3f 62 84 33 be fb 9c b9 bf 11 37 82 3f
       0.5851214 -0.17530969 -1.4501032 1.0173055
000090 7d 17 8a bd 01 3e f6 3f ab 39 be bd ba e5 46 c0
       -0.06742761 1.9237672 -0.09288343 -3.1077714
0000a0 a1 a4 68 be f6 86 eb bf 6a 29 64 c0 dd 1e b6 be
       -0.22719051 -1.8400562 -3.5650277 -0.35570422
0000b0 e0 21 c2 bf 66 16 90 3e b0 43 7f bf 4a a9 44 3e
       -1.5166588 0.2814209 -0.9971266 0.19205204
0000c0 6f 23 e5 be 57 c7 a2 3e 83 2d c0 bf f3 cc 14 bf
       -0.44753596 0.3179271 -1.5013889 -0.5812523
0000d0 7e 60 c4 bf 3c 0b 3f 3f 4c d3 cb 3e cc 20 1a c0
       -1.5341947 0.7462652 0.39809644 -2.4082518
0000e0 85 77 bd bf c4 da 87 bf 50 1b 4b bf be 05 61 3f
       -1.48021 -1.0613637 -0.7933855 0.87899387
0000f0 a9 96 15 bf 05 1e 83 3e af fe 0d c0 31 8f f2 3e
       -0.58433014 0.2560884 -2.2186697 0.4737487

core.features.layer1.norm.running_var f4 [64]
000000 ce 98 5b 42 8f 2f db 42 8b 89 25 42 3a 60 4d 42
       54.899223 109.59289 41.38432 51.34397
000010 33 64 16 42 f5 79 82 42 3e 9d 70 42 ae 9e b6 41
       37.59785 65.2382 60.153557 22.82748
000020 40 46 29 42 f2 1d 48 42 73 9d 5e 42 5c 1f 0c 42
       42.318604 50.029243 55.65376 35.030624
000030 67 84 d5 41 94 a1 3a 42 ca 68 0a 42 cc ee 08 42
       26.68965 46.65779 34.602333 34.2332
000040 8d 1f 05 43 c9 4e 84 42 04 43 11 42 61 3a 63 42
       133.12325 66.15388 36.315445 56.80701
000050 e8 e9 b1 41 0a 01 1c 42 29 7c e5 41 cf 2e 17 42
       22.239212 39.001015 28.685625 37.79571
000060 4e 4a 97 42 25 f8 c7 41 29 62 2e 42 25 8b 20 42
       75.64513 24.996164 43.59586 40.135883
000070 f2 fb f1 41 08 e8 1c 42 9a be 37 42 de 55 85 42
       30.24802 39.226593 45.936134 66.66771
000080 8a f0 27 42 93 9a 23 42 2c 12 d7 41 aa 1f 94 42
       41.9849 40.90095 26.883873 74.061844
000090 91 dd 67 42 48 19 33 42 fe a2 00 42 cf 0f 6c 42
       57.966373 44.77469 32.159172 59.015438
0000a0 59 c6 e2 41 cd f5 01 42 56 50 43 42 56 7e f2 41
       28.34685 32.49004 48.828453 30.311687
0000b0 5f 0f 16 42 28 3e 14 42 ff c2 32 42 05 5b 26 42
       37.51501 37.0607 44.690426 41.588886
0000c0 5d dd 85 42 4a 01 59 42 45 75 a1 41 7f f6 4e 42
       66.93235 54.25126 20.18226 51.74072
0000d0 9d d3 b6 42 22 7c 52 42 35 aa 22 42 c9 4c 07 42
       91.41331 52.621223 40.666218 33.824986
0000e0 47 2f 55 42 f3 65 1e 42 32 08 1a 42 5b c6 94 42
       53.29617 39.59956 38.508003 74.38741
0000f0 59 3f 06 42 bc ed 03 42 25 90 e5 41 96 a5 45 42
       33.561863 32.982162 28.695383 49.411705
