notebooks/model_tutorial/model_checkpoints/IM_ln_model.pth (torch, 850763 bytes, 33 tensors)

core.features.layer0.conv.weight f4 [64, 1, 9, 9]
0.29456812 0.07873006 -0.037863754 -0.08123111 -0.04387004 -0.06967157 -0.087089926 -0.08046599
-0.035516102 0.06315368 0.0008229072 -0.054478593 0.0009653046 0.028169898 -0.0073030246 -0.04551566
-0.10006616 -0.018798193 -0.11922618 -0.13011755 -0.1643175 -0.11819028 -0.029799538 -0.02475421
-0.038789324 -0.060135346 0.006329422 -0.16981326 -0.1673843 -0.11515717 -0.07183174 -0.030514963
0.041839276 -0.037408013 -0.09153366 -0.068454534 -0.02025865 -0.05336185 -0.05988991 -0.09784005
-0.03998319 0.08034997 0.06385685 0.015266677 -0.03528936 0.11726974 0.04508195 0.02214449
-0.00059224083 0.023257785 0.05588315 0.027327213 -0.10483524 -0.20825921 0.08724876 -0.0032099874
-0.024932282 -0.004236568 0.016556902 0.040753197 0.015339081 -0.13272482 -0.26762673 0.04038844
-0.0075089624 -0.055916965 -0.018304162 -0.010222737 -0.009087077 -0.014773663 -0.1186367 -0.15977183
0.13348368 0.08776099 0.056180816 0.05607821 0.008499341 0.012083832 -0.019459419 -0.11765819
-0.2066749 -0.19161017 -0.099417515 0.04973849 0.05767255 -0.021798518 0.022940403 0.034922183
0.15939872 0.26740858 -0.12676312 -0.035788447 0.10550581 0.1444988 0.022364814 0.021139653
-0.008117975 0.015623986 0.09982475 -0.11059448 -0.09215812 -0.08484451 -0.016538871 -0.07059622
-0.04980776 -0.08516615 -0.06686945 -0.023461489 -0.00764863 -0.006754099 -0.052363828 0.003589172
-0.016237218 -0.013112068 -0.0539977 -0.029983921 -0.023012457 -0.042852752 -0.029844 -0.016309526
0.004430739 0.038341507 0.07282916 0.100131355 0.12950611 0.13924198 -0.03545117 -0.038310017
-0.018337598 -0.02794681 -0.004107282 -0.018486328 0.05266452 0.03428992 0.043247774 0.151756
0.0963806 0.018325536 -0.029331636 -0.017462764 0.0042807907 0.03714674 0.07733417 0.108224764
0.14549337 0.12990804 0.014436124 -0.037133962 -0.07353405 -0.038500108 -0.01765311 0.07559729
0.13993162 -0.026757954 -0.016392618 -0.054209016 -0.0676732 -0.11256914 -0.08600936 0.05349703
0.22121823 0.36379358 -0.23318042 -0.04957643 0.10447626 0.2366101 0.13986444 0.1302184
0.11166006 0.095860735 0.014649264 -0.23896912 -0.081812724 -0.0107387 0.08213697 0.082119
0.10438613 0.08859248 0.060725372 -0.0009032852 -0.19050395 -0.070047915 -0.047273144 -0.00025023217
0.07027313 0.06288428 0.04149731 0.046453413 0.05537926 -0.07030187 0.012987748 0.0009271939
0.052849986 0.076040894 0.067144126 0.090945855 0.051673155 0.046438064 -0.013873994 0.071653575
0.0678511 0.030616362 0.029137954 0.004494055 0.019786127 0.038559783 0.028709106 0.03295134
0.045052692 0.092454515 0.033064067 -0.024002597 -0.020859683 0.0009874105 0.0006231198 -0.015439408
-0.048492465 -0.04119259 -0.040635016 -0.065341644 -0.061437566 -0.089566484 0.0022084715 0.06100271
0.03598077 0.0049060765 0.016951313 0.036421962 0.07229789 0.050618853 0.053413358 0.11248666
0.15072165 0.15511404 -0.07472796 -0.05052693 -0.091830164 -0.07075124 0.012826141 0.077291265
0.18565297 0.26124066 0.1888722 -0.37866202 -0.33480415 -0.11568208 0.0055621103 -0.036347993
-0.05672783 -0.07534498 -0.13418135 -0.15050982 -0.2999807 -0.12898746 0.10323924 0.13555256
00000000: a2d1 963e 3a3d a13d 0617 1bbd 7f5c a6bd
00000010: 12b1 33bd f8af 8ebd 345c b2bd 5acb a4bd
00000020: 5579 11bd b756 813d 5eb8 573a f224 5fbd
00000030: 7f0c 7d3a 8fc4 e63c 364e efbb a16e 3abd
00000040: 7def ccbd abfe 99bc db2c f4bd 893d 05be
00000050: d942 28be bf0d f2bd 291e f4bc 57c9 cabc
00000060: 8ee1 1ebd 7b50 76bd 0a67 cf3b 87e3 2dbe
00000070: ca66 2bbe 86d7 ebbd 851c 93bd 84fa f9bc
00000080: a95f 2b3d 2539 19bd 0076 bbbd e431 8cbd
00000090: 78f5 a5bc f591 5abd 1f4f 75bd 5d60 c8bd
000000a0: 6ac5 23bd 868e a43d 61c7 823d 1621 7a3c
000000b0: 938b 10bd 1e2b f03d daa7 383d 5d68 b53c
000000c0: 9c40 1bba 1c87 be3c bbe5 643d 52dd df3c
000000d0: dcb3 d6bd e741 55be 7aaf b23d a75e 52bb
000000e0: c93e ccbc e9d2 8abb 57a2 873c d3ec 263d
000000f0: c550 7b3c 04e9 07be 5f06 89be 596e 253d
00000100: be0d f6bb 3009 65bd 9cf2 95bc 447d 27bc
00000110: f7e1 14bc 3c0d 72bc ccf7 f2bd 3a9b 23be
00000120: f2af 083e 09bc b33d db1d 663d 44b2 653d
00000130: d240 0b3c 44fb 453c 5c69 9fbc c7f6 f0bd
00000140: 96a2 53be 7535 44be 699b cbbd 96ba 4b3d
00000150: 0d3a 6c3d ce92 b2bc 83ed bb3c 900a 0f3d
00000160: 6b39 233e c7e9 883e 31ce 01be e896 12bd
00000170: 6e13 d83d 7ef7 133e 6a36 b73c 112d ad3c
00000180: 4101 05bc bffb 7f3c eb70 cc3d 5c7f e2bd
00000190: 65bd bcbd f5c2 adbd 877c 87bc c094 90bd
000001a0: 3903 4cbd 976b aebd daf2 88bd 4f32 c0bc
000001b0: 5ca1 fabb 7d51 ddbb 747b 56bd 5038 6b3b
000001c0: ea03 85bc 00d4 56bc b12c 5dbd d7a0 f5bc
000001d0: 9f84 bcbc 5e86 2fbd 677b f4bc 8e9b 85bc
000001e0: bc2f 913b fc0b 1d3d 7427 953d ab11 cd3d
000001f0: 409d 043e 7395 0e3e 3f35 11bd f7ea 1cbd
00000200: bb38 96bc b5f0 e4bc 6196 86bb a470 97bc
00000210: c0b6 573d 9673 0c3d 9424 313d ed65 1b3e
00000220: 3163 c53d 6f1f 963c e648 f0bc 120e 8fbc
00000230: e045 8c3b 2e27 183d 6161 9e3d f2a4 dd3d
00000240: 37fc 143e 9d06 053e 7e85 6c3c c819 18bd
00000250: 0599 96bd 4ab2 1dbd 419d 90bc c1d2 9a3d
00000260: 3c4a 0f3e 7f33 dbbc d049 86bc 460a 5ebd
00000270: 3f98 8abd a68a e6bd ad25 b0bd b41f 5b3d
00000280: 0887 623e 2743 ba3e d9c6 6ebe a810 4bbd
00000290: a6f7 d53d eb49 723e a038 0f3e f957 053e
000002a0: 08ae e43d a252 c43d 7703 703c 52b4 74be
000002b0: 6e8d a7bd 5ff1 2fbc 6d37 a83d 022e a83d
000002c0: 65c8 d53d f96f b53d 2bbb 783d 72ca 6cba
000002d0: 7813 43be 4875 8fbd 7ca1 41bd 9831 83b9
000002e0: 5ceb 8f3d 79c9 803d 15f9 293d ef45 3e3d
000002f0: 5dd5 623d 6dfa 8fbd 90ca 543c ee0e 733a
00000300: 3a79 583d 54bb 9b3d dc82 893d d241 ba3d
00000310: 3ba7 533d d735 3e3d c04f 63bc 1cbf 923d
00000320: 84f5 8a3d 2acf fa3c b8b2 ee3c de42 933b
00000330: 8416 a23c ddf0 1d3d 5c2f eb3c fcf7 063d
00000340: 2c89 383d cb58 bd3d 306e 073d 18a1 c4bc
00000350: ede1 aabc 006c 813a dd58 233a 92f5 7cbc
00000360: 09a0 46bd 90b9 28bd e770 26bd d7d1 85bd
00000370: f5a5 7bbd a26e b7bd 01bc 103b fadd 793d
00000380: 9260 133d 27c3 a03b 7bdd 8a3c 322f 153d
00000390: eb10 943d b755 4f3d f7c7 5a3d 685f e63d
000003a0: c756 1a3e 37d6 1e3e f90a 99bd 53f5 4ebd
000003b0: 7411 bcbd 07e6 90bd bc24 523c e24a 9e3d
000003c0: d01b 3e3e 56c1 853e b767 413e fddf c1be
000003d0: 736b abbe baea ecbd 5d42 b63b a2e1 14bd
000003e0: 715b 68bd 784e 9abd d666 09be 3f1f 1abe
000003f0: 1297 99be 4a15 04be 186f d33d 4ace 0a3e

core.features.layer0.norm.weight f4 [64]
1.0189066 1.102164 0.9631656 1.0578808 0.9791132 1.1358604 1.0219992 1.1265423
0.9369824 1.0112247 0.89550245 0.97096664 1.1106678 0.9528664 0.94887197 0.93879956
1.0471481 1.0462906 0.94108325 0.78585243 1.0284556 1.2458941 1.028217 1.003795
0.94745404 0.9623771 0.8850021 0.7859367 0.70736974 1.1514674 1.0114981 0.909135
0.9726815 1.0868485 1.0610511 1.0128073 1.0128238 1.1056296 0.90337235 1.0655135
1.1717052 0.9786158 1.0823035 0.9199552 1.1621894 1.2211093 1.0064629 1.0511737
0.81911945 1.1259085 1.0593005 0.829145 1.1254312 0.9631285 1.0242102 0.7853482
0.9551163 1.2711724 0.9637761 0.8778952 0.8378766 1.0531217 0.97798747 0.9664965
00000000: 886b 823f b613 8d3f 0592 763f a368 873f
00000010: 2aa7 7a3f e063 913f dfd0 823f 8a32 903f
00000020: 14de 6f3f d06f 813f a63f 653f 4591 783f
00000030: 5d2a 8e3f 0def 733f 46e9 723f 2b55 703f
00000040: f308 863f daec 853f d5ea 703f a02d 493f
00000050: 6fa4 833f 7579 9f3f 9d9c 833f 5b7c 803f
00000060: 598c 723f 585e 763f 7f8f 623f 2633 493f
00000070: 2f16 353f 4963 933f c578 813f 12bd 683f
00000080: a801 793f da1d 8b3f 86d0 873f aba3 813f
00000090: 36a4 813f 4585 8d3f 6943 673f bf62 883f
000000a0: 70fa 953f 9186 7a3f ec88 8a3f 2f82 6b3f
000000b0: 9fc2 943f 4f4d 9c3f c7d3 803f dc8c 863f
000000c0: d0b1 513f c51d 903f 2997 873f d942 543f
000000d0: 210e 903f 978f 763f 5219 833f 940c 493f
000000e0: 8082 743f c7b5 a23f 08ba 763f bdbd 603f
000000f0: 157f 563f b1cc 863f 635d 7a3f 516c 773f

core.features.layer0.norm.bias f4 [64]
-0.02266322 -0.08634978 0.036391143 0.0797765 -0.02750482 0.08451914 0.039225988 0.08978097
-0.026420116 -0.12592183 -0.07572039 0.08560648 -0.1006397 -0.097861186 -0.044629138 0.13840593
0.15165581 -0.06428358 0.12956728 -0.05419301 -0.012098634 -0.05901059 0.12983273 0.065372385
0.14091945 0.06195292 -0.12749203 -0.063845724 -0.115120485 0.0057867747 0.108614825 -0.06814968
-0.12730451 0.14631528 0.09496689 -0.07701849 0.103370346 -0.016365997 -0.0024565235 -0.0057215327
0.0077196523 -0.08285128 -0.104153 -0.032474626 0.07938755 0.042173013 0.10747486 0.1258419
-0.06602113 0.13108642 -0.11089843 -0.118730426 -0.06911744 0.062560126 0.09849797 0.08913809
0.0039842115 -0.011136841 0.060421687 0.1056281 0.082207836 -0.085594416 0.031851284 -0.021596303
00000000: 38a8 b9bc 27d8 b0bd e10e 153d dd61 a33d
00000010: ca51 e1bc 5f18 ad3d 6eab 203d 16df b73d
00000020: 006f d8bc a7f1 00be 4b13 9bbd 7352 af3d
00000030: 301c cebd 726b c8bd 0bcd 36bd 49ba 0d3e
00000040: a94b 1b3e 1ca7 83bd 49ad 043e 7df9 5dbd
00000050: 5939 46bc 17b5 71bd dff2 043e f5e1 853d
00000060: 304d 103e 58c2 7d3d 458d 02be 8cc1 82bd
00000070: 4ac4 ebbd fc9e bd3b 7371 de3d 0f92 8bbd
00000080: 1d5c 02be acd3 153e 007e c23d dfbb 9dbd
00000090: d5b3 d33d fc11 86bc a0fd 20bb b27b bbbb
000000a0: 23f5 fc3b efad a9bd 2b4e d5bd 1d04 05bd
000000b0: f195 a23d 9cbd 2c3d c81b dc3d b3dc 003e
000000c0: 1636 87bd 853b 063e b71e e3bd f028 f3bd
000000d0: 728d 8dbd 861f 803d 4eb9 c93d 088e b63d
000000e0: fd8d 823b 4c77 36bc bb7c 773d 8c53 d83d
000000f0: 955c a83d 204c afbd 7e76 023d bbea b0bc

core.features.layer0.norm.running_mean f4 [64]
-0.016410526 0.02095114 0.018142007 -0.0011007267 0.026945835 -0.007585593 0.0038771979 -0.0059769363
-0.0058329776 0.016312648 0.006586502 0.012109422 0.0047655534 0.0028300972 -0.0074862787 -0.028063409
-0.017515324 -0.005025043 0.008813544 0.0015848906 0.0027943512 0.0011476276 0.021426095 -0.03491944
-0.023994252 0.008235294 -0.00046131623 0.0023834438 0.0074029425 0.010161631 0.018849019 0.003323731
0.0032287363 -0.0039642965 -0.016755525 -0.003559882 -0.032792203 0.008913881 -0.023138594 0.0018190395
-0.014553156 -0.015330791 0.039797105 0.025920592 0.024875812 -0.0038126493 -0.0060177697 -0.0048762057
0.019054117 -0.0025112072 -0.036397263 0.018725574 -0.0016882442 -0.02343809 -0.0007482235 -0.014679411
-0.030926516 0.01585832 -0.035104044 -0.0035134275 -0.0031752973 0.019875469 -0.023556933 0.009884093
00000000: 5e6f 86bc baa1 ab3c 8c9e 943c 4246 90ba
00000010: 83bd dc3c 9190 f8bb 9618 7e3b 2dda c3bb
00000020: 9022 bfbb 1aa2 853c 95d3 d73b 9966 463c
00000030: 5c28 9c3b 2779 393b 754f f5bb 3ce5 e5bc
00000040: 4c7c 8fbc 1ea9 a4bb af66 103c 1bbc cf3a
00000050: 6f21 373b fe6b 963a c785 af3c b007 0fbd
00000060: 988f c4bc 54ed 063c d1dc f1b9 8d33 1c3b
00000070: 6294 f23b f87c 263c 4269 9a3c f4d2 593b
00000080: 3599 533b eee6 81bb e242 89bc e94c 69bb
00000090: 1e51 06bd 870b 123c 268d bdbc d66c ee3a
000000a0: 5c70 6ebc ff2d 7bbc 4a02 233d 6c57 d43c
000000b0: 5cc8 cb3c a4dd 79bb b630 c5bb 94c8 9fbb
000000c0: 6117 9c3c 1193 24bb 4c15 15bd 6066 993c
000000d0: 1348 ddba 3d01 c0bc 6e24 44ba ea81 70bc
000000e0: 9b59 fdbc 4fe9 813c 42c9 0fbd 8841 66bb
000000f0: a618 50bb e1d1 a23c 78fa c0bc e4f0 213c

core.features.layer0.norm.running_var f4 [64]
1.4211073 1.396113 1.8092815 1.3294863 2.056927 1.2597569 1.2672842 1.5720161
1.1868703 1.559455 1.2096177 1.4373206 2.2789223 1.1934209 1.8136687 1.9715631
1.6844707 0.97158504 1.3569223 1.3644589 0.9330249 1.3843365 1.1290483 1.9147842
0.90349746 1.4620533 1.2190343 1.7148072 1.6957248 1.4221087 1.89409 1.0965669
1.0160067 1.7170691 2.145934 1.3440576 1.9865534 1.1298805 2.0949714 1.0399489
1.2883662 1.2275951 1.7317133 0.94650507 1.5666414 1.9945331 1.6023479 1.5067222
1.4392418 1.3998011 1.6041988 1.3371352 2.167114 1.1797915 1.7154675 1.0321695
1.6836513 2.000045 1.9780172 1.1111706 1.9116375 1.081549 1.2516447 1.4283121
00000000: d8e6 b53f d5b3 b23f 8996 e73f 9b2c aa3f
00000010: b1a4 0340 b73f a13f 5e36 a23f d337 c93f
00000020: 5eeb 973f 399c c73f c1d4 9a3f 1ffa b73f
00000030: ddd9 1140 04c2 983f 4c26 e83f 2e5c fc3f
00000040: bc9c d73f ccb9 783f a1af ad3f 97a6 ae3f
00000050: b8da 6e3f f031 b13f a884 903f a617 f53f
00000060: 9c4b 673f 9024 bb3f 5109 9c3f cd7e db3f
00000070: 830d d93f a807 b63f 8b71 f23f 4e5c 8c3f
00000080: 820c 823f ecc8 db3f fc56 0940 140a ac3f
00000090: 6247 fe3f ed9f 903f 0314 0640 0c1d 853f
000000a0: 2fe9 a43f d621 9d3f c8a8 dd3f 284e 723f
000000b0: b587 c83f dc4c ff3f bc19 cd3f 46dc c03f
000000c0: 1339 b83f af2c b33f 6356 cd3f 3f27 ab3f
000000d0: ffb1 0a40 6803 973f 7094 db3f 211e 843f
000000e0: e381 d73f bd00 0040 ab2f fd3f d73a 8e3f
000000f0: 8ab0 f43f 3370 8a3f e535 a03f eed2 b63f

core.features.layer1.ds_conv.in_depth_conv.weight f4 [64, 64, 1, 1]
0.075212434 -0.06721183 -0.005228156 0.13888443 0.12520275 0.17692214 0.11871414 0.15868385
0.044313762 -0.12044534 0.18923524 -0.091351986 -0.123872265 -0.055747192 -0.012112914 0.13636674
-0.036427796 0.01919197 -0.14798191 -0.33284914 0.083294176 0.06057692 0.10129581 -0.23832223
0.061315116 -0.0003275958 0.07059896 -0.0019534393 0.13562429 -0.044800967 -0.033787996 -0.090834305
-0.007969978 0.14672296 -0.3255494 -0.2106514 -0.112418436 0.22980599 0.067505725 -0.1612935
0.11996125 -0.052879248 0.13624346 -0.12025029 0.20108739 -0.13766228 0.060418542 -0.27687043
-0.079070844 0.023253603 -0.122564055 0.19197626 0.034054503 0.02078747 0.007595534 0.10267457
0.035652023 -0.055301074 -0.0041873483 -0.091415726 -0.03180748 -0.14481874 -0.105252 0.039724562
-0.024510812 0.062149096 -0.0070615467 -0.009868448 0.11719772 0.054923523 -0.032065883 -0.06526301
0.063115016 -0.21550743 -0.11955456 0.06017223 0.027055902 -0.11473465 -0.0900137 0.21239819
-0.21736114 -0.06669057 0.14135426 -0.006751467 0.06588931 -0.22415487 0.011300753 -0.29797155
-0.08815252 0.033197623 0.06236231 -0.0669257 -0.052827056 -0.068080746 -0.104656614 0.17384587
-0.13772653 0.28261867 0.024394164 -0.21907397 0.13811365 0.099323824 -0.1479256 -0.26570067
0.089517504 -0.031417347 0.16307148 -0.051722933 -0.015749516 -0.017203553 0.010207108 0.09563074
0.014485092 0.16471408 0.086088754 0.066641845 0.1679272 -0.11553419 -0.032706305 0.13358001
-0.29277626 0.037909444 0.059416503 -0.05296243 0.055977616 -0.16941455 -0.13330385 0.0062436434
0.16144793 -0.28523007 -0.030363007 -0.1556911 -0.071183436 -0.16942419 0.027459538 -0.1382051
0.06788827 0.15351488 -0.12601343 0.008475946 -0.07806808 0.031097261 -0.07345123 0.24257451
-0.31370482 0.12899458 -0.1612608 0.21171029 0.14517444 -0.018186845 -0.06119566 0.14438835
0.13099028 0.19112287 -0.0049240473 0.14143161 -0.16706567 -0.118883714 -0.06415746 0.07950363
0.10250968 -0.16601232 -0.14701787 -0.23860328 -0.19568154 0.1594053 0.2392461 -0.021616215
-0.17479488 -0.019821644 -0.17549352 -0.3283376 0.10770865 0.0054025906 -0.1887662 0.25498733
-0.026660841 -0.25979927 0.17216569 -0.059457306 -0.037119113 -0.12252583 0.17829363 -0.063550696
-0.03465627 -0.01805566 -0.10288041 -0.006056929 0.044717886 0.044032007 -0.031831168 -0.32982963
0.21349423 -0.38668123 -0.11174526 0.13374203 -0.44672078 -0.31654593 -0.20206806 -0.07003716
0.13618214 0.13573526 0.03476504 0.07318517 0.52731496 -0.21966875 0.25587872 -0.1015614
-0.03470146 -0.09402203 -0.15663847 -0.075656764 0.06871237 0.32684666 0.2179123 0.19461496
0.059333682 -0.11691128 -0.054434847 -0.2932129 -0.13065773 -0.47516194 0.10492794 0.07710712
0.10833815 -0.44879094 0.2849622 0.423112 -0.08610336 -0.026688265 0.10908503 0.36863422
-0.09757712 -0.089118 0.05738144 -0.18235467 0.37544557 0.18036914 -0.060679875 0.19667794
-0.11771411 -0.021780271 0.055720814 -8.218534e-05 -0.023500085 0.08526754 -0.10955811 0.27772695
0.4005527 0.46542722 -0.09096489 -0.19032823 -0.045782205 0.07612341 0.17361338 0.25394547
00000000: fa08 9a3d 5ba6 89bd f450 abbb b837 0e3e
00000010: 2635 003e 142b 353e 6620 f33d 057e 223e
00000020: 5982 353d 0cac f6bd e2c6 413e c016 bbbd
00000030: beb0 fdbd 2b57 64bd 3e75 46bc b9a3 0b3e
00000040: 5035 15bd 7a38 9d3c 9288 17be 346b aabe
00000050: 2396 aa3d 811f 783d 2d74 cf3d be0a 74be
00000060: 8f25 7b3d 2ac1 abb9 3096 903d 4605 00bb
00000070: 18e1 0a3e 3881 37bd 4865 0abd 5607 babd
00000080: 8394 02bc 8b3e 163e 69ae a6be 00b5 57be
00000090: a33b e6bd 4352 6b3e 7140 8a3d 202a 25be
000000a0: 3eae f53d e997 58bd 6883 0b3e c945 f6bd
000000b0: dae9 4d3e 57f7 0cbe 6f79 773d f6c1 8dbe
000000c0: e5ef a1bd 577e be3c dd02 fbbd 6d95 443e
000000d0: bc7c 0b3d 7c4a aa3c f5e3 f83b 0c47 d23d
000000e0: db07 123d 6183 62bd 0636 89bb 2b38 bbbd
000000f0: 8f48 02bd 5d4b 14be 5c8e d7bd 39b6 223d
00000100: e6ca c8bc 0d90 7e3d 8c64 e7bb 45af 21bc
00000110: 5c05 f03d 7df7 603d 8457 03bd 9da8 85bd
00000120: 7242 813d fbad 5cbe 05d9 f4bd 2877 763d
00000130: 57a4 dd3c 00fa eabd 1a59 b8bd e97e 593e
00000140: eb93 5ebe 1195 88bd 2cbf 103e 693b ddbb
00000150: f9f0 863d db88 65be cb26 393c ba8f 98be
00000160: 4f89 b4bd 3bfa 073d 9f6f 7f3d 5710 89bd
00000170: 2f61 58bd eb6d 8bbd 3556 d6bd a704 323e
00000180: 2f08 0dbe 65b3 903e 45d6 c73c ed54 60be
00000190: aa6d 0d3e 4a6a cb3d cf79 17be eb09 88be
000001a0: f454 b73d 7aaf 00bd 36fc 263e 6ddb 53bd
000001b0: 2105 81bc 77ee 8cbc b73b 273c 0dda c33d
000001c0: e152 6d3c cfaa 283e 4d4f b03d 857b 883d
000001d0: 1cf5 2b3e 309d ecbd 0cf7 05bd 33c9 083e
000001e0: c5e6 95be ef46 1b3d b85e 733d 22ef 58bd
000001f0: c948 653d 027b 2dbe ce80 08be 7a97 cc3b
00000200: 9b52 253e ad09 92be d7bb f8bc 7d6d 1fbe
00000210: 9fc8 91bd 897d 2dbe d3f2 e03c a385 0dbe
00000220: 0109 8b3d 0133 1d3e aa09 01be b2de 0a3c
00000230: 28e2 9fbd afbf fe3c 996d 96bd 7465 783e
00000240: eb9d a0be 2817 043e 8d21 25be 95ca 583e
00000250: 9ca8 143e 94fc 94bc 4da8 7abd 8ada 133e
00000260: 5122 063e b7b5 433e e759 a1bb 73d3 103e
00000270: 4313 2bbe 4e79 f3bd fd64 83bd cdd2 a23d
00000280: 98f0 d13d 22ff 29be da8b 16be 6b54 74be
00000290: be60 48be 253b 233e eefc 743e 7d14 b1bc
000002a0: 6efd 32be 0061 a2bc 93b4 33be de1b a8be
000002b0: 5a96 dc3d 3708 b13b ed4b 41be b38d 823e
000002c0: d667 dabc 6904 85be 344c 303e 8189 73bd
000002d0: 360a 18bd d3ee fabd 9b92 363e de26 82bd
000002e0: bcf3 0dbd 77e9 93bc f7b2 d2bd 3479 c6bb
000002f0: 1a2a 373d e85a 343d 6661 02bd 6edf a8be
00000300: 3b9e 5a3e 15fb c5be b3da e4bd acf3 083e
00000310: 96b8 e4be 4f12 a2be eeea 4ebe a46f 8fbd
00000320: 5573 0b3e 2ffe 0a3e c965 0e3d 1be2 953d
00000330: 1dfe 063f d8f0 60be 8902 833e 6cff cfbd
00000340: 1e23 0ebd 9f8e c0bd d665 20be eff1 9abd
00000350: 12b9 8c3d 7258 a73e 6724 5f3e 2549 473e
00000360: e007 733d 2e6f efbd 13f7 5ebd 0020 96be
00000370: 24cb 05be 6d48 f3be 76e4 d63d 56ea 9d3d
00000380: 64e0 dd3d edc7 e5be 91e6 913e 23a2 d83e
00000390: f556 b0bd 59a1 dabc f967 df3d a0bd bc3e
000003a0: 83d6 c7bd 7f83 b6bd cd08 6b3d 2fbb 3abe
000003b0: 673a c03e b0b2 383e 768b 78bd f165 493e
000003c0: 1814 f1bd 8a6c b2bc 823b 643d eb5a acb8
000003d0: 4083 c0bc bfa0 ae3d 0160 e0bd 3a32 8e3e
000003e0: 3e15 cd3e 7a4c ee3e cd4b babd 67e5 42be
000003f0: 1f86 3bbd 97e6 9b3d b5c7 313e 2405 823e

core.features.layer1.ds_conv.in_depth_conv.bias f4 [64]
-0.15902933 -0.07609774 -0.035870325 0.07053164 -0.043964054 0.055398352 0.07575742 -0.13966936
-0.08795492 -0.10105517 0.114925645 -0.09333144 -0.12960404 -0.06951197 -0.024059642 -0.051255126
-0.059644945 -0.003887435 0.020777915 -0.06545412 -0.06591935 -0.05616138 0.05672484 0.03879018
0.061280295 0.07508407 -0.14212754 -0.029358571 -0.069312885 0.077322856 0.06640397 0.12222419
0.14518744 -0.04727778 -0.0737338 0.14910327 0.105344 0.06547704 -0.09067098 0.06076785
-0.09292945 0.09279024 0.14250167 -0.12134758 0.14809087 -0.056381352 -0.0036753186 0.07266159
-0.1544077 -0.04771081 0.11173893 0.056644104 0.1021728 0.19022016 0.06428627 0.1234064
-0.025686318 0.019963881 0.2018225 -0.012967285 0.04482458 0.020015514 0.035052955 -0.0054649496
00000000: 96d8 22be 22d9 9bbd c3ec 12bd e472 903d
00000010: a713 34bd 62e9 623d b526 9b3d 7c05 0fbe
00000020: b621 b4bd 03f6 cebd 235e eb3d 8e24 bfbd
00000030: ecb6 04be 4b5c 8ebd ba18 c5bc e5f0 51bd
00000040: 424e 74bd 56c4 7ebb 7236 aa3c cf0c 86bd
00000050: b900 87bd 7a09 66bd 4e58 683d 74e2 1e3d
00000060: 0c01 7b3d adc5 993d e289 11be 6381 f0bc
00000070: eaf3 8dbd 725b 9e3d cefe 873d ad50 fa3d
00000080: 04ac 143e 58a6 41bd bf01 97bd 87ae 183e
00000090: 98be d73d d418 863d b5b1 b9bd b6e7 783d
000000a0: cc51 bebd cf08 be3d f5eb 113e 1485 f8bd
000000b0: 22a5 173e 22f0 66bd 9ddd 70bb 9acf 943d
000000c0: 0d1d 1ebe 696c 43bd 61d7 e43d a603 683d
000000d0: f93f d13d 13c9 423e 85a8 833d 7fbc fc3d
000000e0: 1d6c d2bc 4b8b a33c 8faa 4e3e bc74 54bc
000000f0: fb99 373d 93f7 a33c b093 0f3d 5213 b3bb

core.features.layer1.ds_conv.spatial_conv.weight f4 [64, 1, 7, 7]
0.06811697 0.028448686 0.038788375 0.014568014 0.05255691 0.057540234 0.04660498 0.12247415
0.0964629 -0.0018917264 -0.08106189 -0.08892492 -0.06400316 -0.064324714 -0.012103323 0.01525767
-0.075992815 -0.010095684 -0.10624922 -0.07510625 -0.056542076 0.028140195 -0.11926912 -0.058459073
-0.08371397 -0.051319405 -0.10955422 -0.012476933 -0.041318167 -0.08221452 -0.016747661 0.03641373
0.071380824 0.09359388 0.028713346 0.019301336 0.043326262 0.07872802 0.14573398 0.055665903
0.012324218 0.009149093 0.08971094 -0.00786884 0.055310655 0.08949115 -0.002806294 -0.06447704
0.011491942 0.013703724 -0.001985637 -0.013626285 -0.02347785 0.009443865 0.044680305 0.047237214
0.0059260884 -0.034515567 0.06024866 0.04205539 0.018624809 0.067200616 0.10421109 -0.06700474
-0.0014956364 0.06624857 0.09221392 0.014274217 0.007191057 0.053979326 -0.021433257 -0.023841046
0.0889169 0.061547287 0.055134322 -0.00028594676 0.05772715 -0.00435146 -0.027321842 -0.0090833595
0.031008998 -0.03283401 0.04123854 0.013424727 0.116911784 0.028207751 -0.06419844 -0.030143939
0.026107578 -0.04471925 -0.07887932 0.13373685 0.01980373 -0.090827174 -0.08289275 -0.041612938
0.019501923 -0.019942712 -0.03206396 -0.054252498 -0.06694379 0.021846667 -0.092959456 -0.088643536
-0.078967564 0.04842305 0.0052145873 0.0041586785 0.04853464 -0.019907814 -0.046571884 -0.06638829
0.009268752 -0.013299188 0.048548814 0.06982388 0.07061681 -0.009260874 0.005495431 0.030523498
0.015847446 0.008581791 0.10009525 0.0084845405 0.04491175 0.01904112 0.036374535 0.038482897
0.022585262 0.077896774 0.040300183 0.04681115 0.015679687 0.072813846 -0.028670168 -0.093787245
-0.03941212 0.0052290596 0.041251596 0.07489608 -0.0029250432 -0.08389206 -0.07786455 -0.07624211
-0.013342672 0.036770523 -0.017709317 -0.18413581 -0.13911945 -0.044234805 -0.029817812 -0.02416179
-0.04789434 0.028021235 -0.15414657 -0.13728452 -0.09368208 -0.03714926 -0.10343304 -0.15784359
-0.24478258 -0.18869756 -0.18340762 -0.08389723 -0.09679815 -0.10314254 -0.11621561 -0.19943748
0.3143105 0.10986585 -0.047296833 -0.0737695 -0.14024204 -0.13589132 -0.12867276 0.09138885
0.0009554253 -0.14455576 -0.13450058 -0.04380462 -0.1040938 -0.027017651 -0.051947232 -0.16675407
-0.12967432 0.039201308 0.081619255 0.19440334 0.06263921 -0.10018026 -0.11976807 -0.059559993
0.080466226 0.19305113 0.17293395 0.19434988 -0.06192161 0.049346525 0.05113242 0.04825681
0.07963569 0.13718675 0.03051647 -0.033827234 0.006130311 0.076029986 0.105892606 0.06521766
0.058248777 -0.009563093 -0.069475755 -0.048717923 0.009705676 -0.029927814 -0.002173938 0.046055898
-0.007858473 -0.02281875 0.013313217 -0.0095314495 -0.028648324 0.009725071 0.02445147 -0.03053803
-0.028390877 -0.07109233 -0.044687707 -0.08087357 -0.037199754 -0.011456196 -0.016908493 -0.06223963
-0.13320017 -0.18309745 -0.15279664 -0.0965544 -0.049021993 0.026335156 0.13999094 0.08432798
0.14922254 -0.0547637 -0.000232787 0.041798204 0.11662028 0.075373255 0.058981165 0.060907476
0.015368774 0.041589405 -0.03215716 -0.13438867 0.086454645 0.12927891 0.083453976 0.07152504
00000000: e980 8b3d 380d e93c 8fe0 1e3d aeae 6e3c
00000010: ea45 573d 4faf 6b3d dde4 3e3d bad3 fa3d
00000020: 578e c53d cef3 f7ba c703 a6bd 451e b6bd
00000030: 1714 83bd adbc 83bd 044d 46bc 4efb 793c
00000040: 1fa2 9bbd 5e68 25bc 3199 d9bd 4ed1 99bd
00000050: aa98 67bd 4486 e63c 5e43 f4bd c872 6fbd
00000060: 3b72 abbd 4c34 52bd f75d e0bd 0d6c 4cbc
00000070: 3d3d 29bd 1660 a8bd 6432 89bc 9026 153d
00000080: 1c30 923d 26ae bf3d 4038 eb3c d61d 9e3c
00000090: e176 313d 283c a13d 4a3b 153e ee01 643d
000000a0: 84eb 493c 14e6 153c 5fba b73d 4fec 00bc
000000b0: 6d8d 623d 2347 b73d cde9 37bb 8a0c 84bd
000000c0: b348 3c3c 9685 603c 7621 02bb c840 5fbc
000000d0: 9f54 c0bc 71ba 1a3c b202 373d cf7b 413d
000000e0: a22f c23b 3260 0dbd 4dc7 763d 4642 2c3d
000000f0: 0e93 983c 7aa0 893d a06c d53d c839 89bd
00000100: 3b09 c4ba 55ad 873d a7da bc3d 68de 693c
00000110: f5a2 eb3b 6d19 5d3d cc94 afbc 4c4e c3bc
00000120: 101a b63d 0219 7c3d 87d4 613d 20eb 95b9
00000130: 4e73 6c3d b196 8ebb 0ed2 dfbc 5fd2 14bc
00000140: 9506 fe3c f47c 06bd bee9 283d 63f3 5b3c
00000150: 726f ef3d f113 e73c 797a 83bd 6cf0 f6bc
00000160: 8fdf d53c 882b 37bd 7b8b a1bd 50f2 083e
00000170: 6f3b a23c 9903 babd adc3 a9bd 5472 2abd
00000180: 7fc2 9f3c e65e a3bc 8055 03bd de37 5ebd
00000190: d319 89bd c8f7 b23c 8761 bebd be8a b5bd
000001a0: bfb9 a1bd 4057 463d 21df aa3b 8645 883b
000001b0: 42cc 463d b615 a3bc 29c2 3ebd 95f6 87bd
000001c0: f7db 173c d6e4 59bc 1fdb 463d d3ff 8e3d
000001d0: 8c9f 903d ecba 17bc 0413 b43b 6a0c fa3c
000001e0: 81d2 813c a49a 0c3c bdfe cc3d be02 0b3c
000001f0: 62f5 373d 1ffc 9b3c 77fd 143d 3ea0 1d3d
00000200: ba04 b93c 5888 9f3d ce11 253d 0cbd 3f3d
00000210: b072 803c 6d1f 953d b3dd eabc 8713 c0bd
00000220: 9a6e 21bd 8858 ab3b 6ff7 283d 1e63 993d
00000230: 15b2 3fbb 9acf abbd 7377 9fbd d324 9cbd
00000240: 399b 5abc b09c 163d 2113 91bc 198e 3cbe
00000250: 5475 0ebe 8e2f 35bd 7c44 f4bc f2ee c5bc
00000260: db2c 44bd ca8c e53c 99d8 1dbe 5094 0cbe
00000270: 64dc bfbd d329 18bd b4d4 d3bd c0a1 21be
00000280: 49a8 7abe ef39 41be 35cf 3bbe 50d2 abbd
00000290: 1c3e c6bd 653c d3bd 7302 eebd 5739 4cbe
000002a0: 4eed a03e 5901 e13d 53ba 41bd 7714 97bd
000002b0: 9c9b 0fbe 1827 0bbe cbc2 03be 142a bb3d
000002c0: 8275 7a3a 6d06 14be 85ba 09be 796c 33bd
000002d0: 212f d5bd 1f54 ddbc 9fc6 54bd 94c1 2abe
000002e0: 58c9 04be 8d91 203d ff27 a73d ab11 473e
000002f0: fc48 803d 4f2b cdbd f648 f5bd 2ef5 73bd
00000300: 7acb a43d 32af 453e 9915 313e a803 473e
00000310: 84a1 7dbd 951f 4a3d 3a70 513d efa8 453d
00000320: 0918 a33d af7a 0c3e adfd f93c 6d8e 0abd
00000330: c7e0 c83b 9cb5 9b3d 39de d83d d690 853d
00000340: 4596 6e3d 85ae 1cbc 4e49 8ebd 728c 47bd
00000350: 8e04 1f3c 2d2b f5bc a178 0ebb 1ca5 3c3d
00000360: d3c0 00bc 63ee babc ae1f 5a3c cc29 1cbc
00000370: e4af eabc e755 1f3c 734e c83c e42a fabc
00000380: fc93 e8bc db98 91bd 750a 37bd 0ba1 a5bd
00000390: c55e 18bd c5b2 3bbc ae83 8abc fbee 7ebd
000003a0: a065 08be e67d 3bbe b976 1cbe 50be c5bd
000003b0: 49cb 48bd d3bc d73c c959 0f3e 26b4 ac3d
000003c0: cbcd 183e e74f 60bd 4918 74b9 9834 2b3d
000003d0: 9dd6 ee3d 4b5d 9a3d 3c96 713d 1e7a 793d
000003e0: 4fcd 7b3c a759 2a3d 3ab7 03bd 2f9d 09be
000003f0: 220f b13d b161 043e ebe9 aa3d b87b 923d

core.features.layer1.ds_conv.spatial_conv.bias f4 [64]
-0.06821291 0.08950828 -0.054599017 0.0011643453 -0.07360336 0.057094842 -0.0921225 0.06526552
0.062566675 -0.15857105 -0.05180845 -0.010676765 0.082105406 -0.0722105 -0.046843693 -0.0621943
0.11061179 0.014137578 -0.04250706 0.010801852 0.040626835 0.078318015 -0.025376534 -0.040807266
-0.032853372 0.041467965 -0.016256547 0.055560503 -0.08938243 0.05518771 -0.020181803 0.060693346
0.01962292 -0.05451993 0.022122303 0.028794479 -7.9521065e-05 -0.10547004 -0.050165188 -0.05301121
-0.033906836 -0.008075338 0.040959004 0.012642686 0.11729709 0.0269272 -0.068134114 0.020142581
-0.016962182 0.021585245 0.046266515 -0.045851108 -0.07658672 -0.0692637 -0.052769776 0.018822003
0.10460554 -0.060786486 -0.010830154 0.009711932 -0.06211086 -0.04579417 -0.09189812 -0.06162331
00000000: 36b3 8bbd 1e50 b73d 38a3 5fbd f29c 983a
00000010: 5cbd 96bd 48dc 693d b9aa bcbd eea9 853d
00000020: f522 803d 7360 22be 1935 54bd 99ed 2ebc
00000030: e126 a83d 19e3 93bd 2cdf 3fbd 73bf 7ebd
00000040: 6f88 e23d 4da1 673c e21b 2ebd 40fa 303c
00000050: 5368 263d 3265 a03d 73e2 cfbc 8525 27bd
00000060: 4291 06bd 50da 293d 732c 85bc 6993 633d
00000070: 230e b7bd 820c 623d 4f54 a5bc 9699 783d
00000080: 3fc0 a03c 4a50 5fbd d539 b53c 66e2 eb3c
00000090: 8cc4 a6b8 ad00 d8bd 037a 4dbd 4822 59bd
000000a0: e5e1 0abd 6c4e 04bc a1c4 273d 4523 4f3c
000000b0: 7539 f03d 6e96 dc3c e689 8bbd 0e02 a53c
000000c0: 46f4 8abc 8ad3 b03c f581 3d3d 5fce 3bbd
000000d0: 80d9 9cbd 20da 8dbd 1f25 58bd 9a30 9a3c
000000e0: 6e3b d63d 40fb 78bd f570 31bc cc1e 1f3c
000000f0: f567 7ebd ab92 3bbd 1535 bcbd b968 7cbd

core.features.layer1.ds_conv.out_depth_conv.weight f4 [64, 64, 1, 1]
-0.33620256 0.095616676 0.110250406 0.04313233 -0.105881445 0.023216942 0.009852864 -0.21240047
0.14870489 -0.0956659 -0.048300214 0.1422186 0.11788449 0.2374924 0.010718789 0.09324239
0.106078096 0.4184535 -0.13710798 -0.17297189 0.2548543 -0.43897262 0.0027462738 0.2142073
-0.017893549 0.034422282 -0.076166734 -0.10864052 0.14690422 0.13054766 0.2651528 0.39776894
0.11815304 0.0340607 0.06566388 -0.07709156 0.10658623 0.043712202 0.15803428 -0.063855976
0.0048595225 0.23747157 0.29841986 0.05907158 -0.041773096 0.10242451 -0.036905725 0.026449498
-0.078230634 0.07821201 -0.09041008 0.030020913 -0.18686725 -0.06153964 -0.22352225 0.023053817
0.12935857 0.08443084 -0.07459027 -0.16749302 0.038182337 0.19422503 -0.31393716 -0.07373004
0.106077224 -0.053319883 -0.09137058 0.2686531 0.085218504 -0.15756904 -0.19629622 0.18338092
-0.21192919 0.30583766 0.01732452 -0.015600771 0.055997122 -0.13124506 -0.01229868 -0.2980265
-0.11446172 -0.18657048 -0.12677984 -0.028767388 0.02036759 0.0061944313 0.27097958 -0.1026169
0.27561074 0.07695653 -0.37062296 -0.11349164 -0.17676803 -0.15670715 -0.06746914 0.49641824
0.08528627 -0.026212351 -0.23358363 0.09690186 -0.15184571 0.050562076 -0.21884003 0.33227846
0.2422071 -0.06575074 0.047217585 -0.056671016 0.10268192 0.033287745 0.029503642 0.010084927
0.22894174 -0.10445725 0.008270224 0.35581118 -0.32218897 0.023758313 0.0071593006 -0.005752124
-0.2504877 -0.19326739 0.12745269 0.17512828 -0.047489293 0.056886043 -0.16543938 -0.04166265
-0.08630528 0.26451567 0.011270035 0.35662848 0.0056320666 0.15782474 0.07532023 0.1352982
-0.11134598 0.10198722 0.06762531 -0.22303227 -0.1432409 0.010493855 -0.090137675 0.011683551
-0.02274134 0.1582724 -0.076857015 -0.060815293 0.12263962 0.23103473 -0.02916761 -0.17563796
0.15456803 0.35862422 -0.24696085 0.23933887 -0.16208234 -0.16135769 -0.053582665 0.013172837
0.14695676 -0.19003548 -0.11053481 0.15462856 0.024282264 0.31550813 -0.18795039 -0.0477019
0.008222496 -0.1944711 0.047317825 -0.09437608 0.14095236 -0.021007765 -0.021289479 -0.14473952
-0.12377124 -0.35405925 -0.015338092 0.12467302 -0.10981715 0.026511036 0.088862754 0.29573908
-0.09816042 -0.24606767 0.28164637 0.16450119 -0.074790925 0.06472743 0.0803173 -0.002042769
0.14982994 0.14702977 0.18171248 0.18679638 -0.108242415 -0.07597378 0.02761176 -0.01384413
-0.07660234 -0.15207022 0.0027799024 0.296879 0.042590708 0.027596178 0.076819316 -0.2487847
-0.105933666 -0.07211444 0.11048456 -0.16763213 0.23482259 0.16967227 -0.22584961 -0.053609274
-0.12197352 0.054103035 -0.109220035 0.25085005 -0.43860486 -0.08421814 -0.029227968 0.00239931
0.24848643 -0.10036656 -0.19700007 0.48078847 -0.31436807 -0.007295924 -0.06591897 -0.23444782
-0.19323601 -0.17660512 0.039981242 -0.18530445 0.14966348 0.073960766 -0.120292336 0.03293232
0.0049130446 -0.07315239 -0.10355944 0.33298847 -0.04197043 0.025237821 0.026297923 -0.21171725
-0.01794843 -0.2961804 0.06137648 -0.021651737 0.0642809 0.090783626 -0.09623634 0.06282888
00000000: be22 acbe add2 c33d f7ca e13d 87ab 303d
00000010: 5fd8 d8bd 7531 be3c e86d 213c 827f 59be
00000020: 1846 183e 7cec c3bd 72d6 45bd c1a1 113e
00000030: 6c6d f13d 3531 733e dc9d 2f3c def5 be3d
00000040: 793f d93d 8a3f d63e 0966 0cbe 8b1f 31be
00000050: 437c 823e 05c1 e0be d4fa 333b 2959 5b3e
00000060: 7e95 92bc 61fe 0c3d 4efd 9bbd ec7e debd
00000070: 0f6e 163e 49ae 053e 1cc2 873e 5fa8 cb3e
00000080: 39fa f13d 3c83 0b3d c97a 863d 2ee2 9dbd
00000090: e249 da3d 910b 333d bdd3 213e ecc6 82bd
000000a0: a13c 9f3b bf2b 733e 7dca 983e 0bf5 713d
000000b0: 441a 2bbd f1c3 d13d 752a 17bd 9eac d83c
000000c0: 6237 a0bd 9e2d a03d ec28 b9bd 6bee f53c
000000d0: 215a 3fbe fd10 7cbd 04e3 64be 5cdb bc3c
000000e0: 9376 043e 14ea ac3d c9c2 98bd 4a83 2bbe
000000f0: 1565 1c3d ede2 463e 5fbc a0be c6ff 96bd
00000100: 043f d93d f365 5abd 8020 bbbd e68c 893e
00000110: 0a87 ae3d c759 21be e001 49be 35c8 3b3e
00000120: f703 59be c196 9c3e 27ec 8d3c 609a 7fbc
00000130: 3d5d 653d 1b65 06be 6780 49bc ee96 98be
00000140: e86a eabd 550c 3fbe 93d2 01be 96a9 ebbc
00000150: efd9 a63c a8fa ca3b d6bd 8a3e cf28 d2bd
00000160: da1c 8d3e 639b 9d3d 4bc2 bdbe 4e6e e8bd
00000170: ae02 35be d777 20be 432d 8abd 882a fe3e
00000180: 91aa ae3d 49bb d6bc 8c30 6fbe 7b74 c63d
00000190: 717d 1bbe 2e1a 4f3d 9a17 60be 6720 aa3e
000001a0: 2305 783e 53a8 86bd 3a67 413d de1f 68bd
000001b0: e64a d23d bb58 083d 9fb1 f13c 403b 253c
000001c0: b46f 6a3e afed d5bd d57f 073c e22c b63e
000001d0: f4f5 a4be cba0 c23c 9198 ea3b 507c bcbb
000001e0: ec3f 80be e3e7 45be f582 023e d454 333e
000001f0: 2284 42bd 5701 693d f168 29be 74a6 2abd
00000200: d3c0 b0bd 996e 873e f4a5 383c 0298 b63e
00000210: 338d b83b cf9c 213e 7e41 9a3d 9d8b 0a3e
00000220: 5c09 e4bd adde d03d 237f 8a3d 9262 64be
00000230: bead 12be 6bee 2b3c 1a9a b8bd 5d6c 3f3c
00000240: 0c4c babc 2912 223e 3667 9dbd 7519 79bd
00000250: 7b2a fb3d 5e94 6c3e e9f0 eebc 70da 33be
00000260: 1547 1e3e 989d b73e 4ee3 7cbe 4015 753e
00000270: eaf8 25be f33a 25be 7f79 5bbd e2d2 573c
00000280: d57b 163e a998 42be 1360 e2bd f356 1e3e
00000290: 99eb c63c 488a a13e 1176 40be 1163 43bd
000002a0: a6b7 063c 6f23 47be 56d0 413d 3f48 c1bd
000002b0: d155 103e 7a18 acbc 4667 aebc 9936 14be
000002c0: c77b fdbd 4147 b5be 9f4c 7bbc 9154 ff3d
000002d0: d0e7 e0bd ac2d d93c adfd b53d 1d6b 973e
000002e0: 5508 c9bd 2af9 7bbe f433 903e 0073 283e
000002f0: fc2b 99bd d18f 843d 667d a43d fadf 05bb
00000300: 056d 193e f98e 163e d612 3a3e 8d47 3f3e
00000310: 33ae ddbd 2498 9bbd 0f32 e23c 7dd2 62bc
00000320: b0e1 9cbd 4cb8 1bbe 062f 363b 8600 983e
00000330: 9873 2e3d 6111 e23c 7253 9d3d 6bc1 7ebe
00000340: c0f3 d8bd bcb0 93bd bb45 e23d c2a7 2bbe
00000350: 5575 703e 91be 2d3e 1f45 67be 6695 5bbd
00000360: 41cd f9bd 259b 5d3d c1ae dfbd 6b6f 803e
00000370: d190 e0be 8f7a acbd 7e6f efbc be3d 1d3b
00000380: 3a73 7e3e fc8c cdbd 63ba 49be e829 f63e
00000390: daf4 a0be a512 efbb 8600 87bd 1713 70be
000003a0: a9df 45be f9d7 34be 5fc3 233d 73c0 3dbe
000003b0: 6241 193e be78 973d d45b f6bd 0ae4 063d
000003c0: 9bfd a03b ecd0 95bd f916 d4bd 777d aa3e
000003d0: 30e9 2bbd 8cbf ce3c be6e d73c 68cc 58be
000003e0: 9608 93bc f5a4 97be e765 7b3d fc5e b1bc
000003f0: b4a5 833d c4ec b93d 8f17 c5bd 6eac 803d

core.features.layer1.ds_conv.out_depth_conv.bias f4 [64]
0.06324468 0.019870827 0.04175737 -0.07190106 0.13092622 -0.08655526 -0.04106572 0.028708905
-0.024237191 -0.039122757 0.06690193 -0.13277285 -0.05473224 -0.06924978 -0.03883266 0.045497984
-0.058701076 0.021438003 0.042779677 0.03348875 0.09839589 -0.07461785 -0.04926608 -0.041889604
-0.042806678 0.10175527 -0.12812357 -0.025932252 -0.029473104 0.012544366 0.10597821 0.060108166
0.07444603 -0.003964303 -0.08248886 -0.056811344 0.058720753 -0.006865653 -0.029885456 0.03266483
-0.017360857 -0.019068236 -0.048228107 -0.012895755 0.08700257 0.003841563 -0.11328193 -0.011048848
-0.06527126 -0.04549168 0.059593063 -0.110430636 -0.04585961 0.103147775 -0.13944249 -0.014036577
0.066411346 0.035370868 0.08033828 0.042952586 -0.055666123 0.018806305 0.09111908 -0.07548016
00000000: 6d86 813d 25c8 a23c c709 2b3d dd40 93bd
00000010: 8611 063e e243 b1bd 8734 28bd f02e eb3c
00000020: 138d c6bc 2f3f 20bd e103 893d 9bf5 07be
00000030: ea2e 60bd d4d2 8dbd ff0e 1fbd 185c 3a3d
00000040: 8a70 70bd c09e af3c be39 2f3d 802b 093d
00000050: c983 c93d 3ed1 98bd 3bcb 49bd 6f94 2bbd
00000060: 0e56 2fbd 1165 d03d d332 03be e06f d4bc
00000070: 9471 f1bc e286 4d3c 1b0b d93d fb33 763d
00000080: 2977 983d fce6 81bb ebef a8bd 03b3 68bd
00000090: 2c85 703d 46f9 e0bb 58d2 f4bc 8fcb 053d
000000a0: 5b38 8ebc fd34 9cbc d68a 45bd b748 53bc
000000b0: 672e b23d bbc2 7b3b 5b00 e8bd 3a06 35bc
000000c0: f0ac 85bd 7c55 3abd db17 743d 7529 e2bd
000000d0: 49d7 3bbd 243f d33d 03ca 0ebe acf9 65bc
000000e0: ac02 883d 0be1 103d 6588 a43d 0def 2f3d
000000f0: 2902 64bd ae0f 9a3c a49c ba3d 5895 9abd

core.features.layer1.norm.weight f4 [64]
1.024822 1.1358526 0.9963874 1.0127802 0.9902238 0.9791787 1.1036208 0.90049297
1.1201925 1.0054551 1.0085098 1.0617751 1.0335778 0.9841988 1.0624013 0.9580147
1.0198741 1.0078516 0.9948821 0.9494769 0.9073759 1.0712802 0.9923354 1.2193565
0.9683112 1.0925496 0.9619803 1.0018617 1.1182761 0.9683107 1.0873891 0.97178304
1.0063539 1.1118904 1.0044078 1.1235303 0.9740708 0.9881277 1.0575807 1.0676278
1.0091815 1.0032598 0.8974361 0.98003596 1.0076667 1.0694896 1.1771306 0.9139735
1.1120371 1.1706985 1.0503604 1.0620095 1.0042356 1.0301813 1.0818354 0.99944407
1.1027321 1.0550392 1.0857778 1.0035193 1.0436366 0.9420986 0.9061391 0.9749664
00000000: 5e2d 833f 9e63 913f 3f13 7f3f c8a2 813f
00000010: 4f7f 7d3f 75ab 7a3f 7243 8d3f b586 663f
00000020: 7862 8f3f c1b2 803f d916 813f 3fe8 873f
00000030: 474c 843f 74f4 7b3f c4fc 873f 7440 753f
00000040: 3c8b 823f 4801 813f 98b0 7e3f eb10 733f
00000050: c949 683f b61f 893f b109 7e3f e013 9c3f
00000060: 3ee3 773f aad8 8b3f 5744 763f 013d 803f
00000070: ac23 8f3f 36e3 773f 912f 8b3f c6c6 783f
00000080: 34d0 803f 6d52 8e3f 6f90 803f d7cf 8f3f
00000090: b45c 793f f0f5 7c3f ce5e 873f 07a8 883f
000000a0: dc2c 813f d16a 803f 5fbe 653f a3e3 7a3f
000000b0: 39fb 803f 09e5 883f 37ac 963f 2bfa 693f
000000c0: 3b57 8e3f 73d9 953f 3672 863f edef 873f
000000d0: cb8a 803f fbdc 833f 9579 8a3f 91db 7f3f
000000e0: 5326 8d3f 860b 873f c4fa 8a3f 5273 803f
000000f0: e295 853f 602d 713f bbf8 673f 6697 793f

core.features.layer1.norm.bias f4 [64]
-0.04630248 0.0604329 0.051214233 0.101583585 -0.011363936 0.11520536 0.044346265 -0.0012458755
-0.020556606 -0.036990482 0.07819075 0.04012332 -0.00398572 0.024612902 -0.06416642 0.09681042
0.091504976 0.015251906 -0.010981401 0.08904346 -0.05903343 0.061444826 0.06796485 -0.016611129
-0.02844023 -0.0892899 0.14141577 -0.06197995 0.01769623 0.019677347 -0.10543594 -0.004926988
-0.07932461 -0.009875535 0.08413628 -0.044726383 0.0003560721 -0.122346275 0.081036754 0.07410801
-0.055664185 -0.045546263 -0.09337135 -0.14086372 -0.06621632 0.08563554 0.119821414 -0.026777156
-0.018938195 0.060085457 -0.075395316 0.12443406 -0.045316357 -0.13224216 0.13812473 0.06646413
-0.0034833562 0.03990357 -0.062397167 -0.025483444 -0.04213143 0.08536944 -0.10586935 0.064409405
00000000: aba7 3dbd 7d88 773d 04c6 513d 0e0b d03d
00000010: cd2f 3abc caf0 eb3d 6ea4 353d a54c a3ba
00000020: 5466 a8bc 5583 17bd 7922 a03d 5a58 243d
00000030: a59a 82bb ffa0 c93c af69 83bd 8b44 c63d
00000040: f666 bb3d 21e3 793c 56eb 33bc 6b5c b63d
00000050: 0acd 71bd 92ad 7b3d 2831 8b3d 1014 88bc
00000060: 7cfb e8bc a0dd b6bd 4ccf 103e b0de 7dbd
00000070: aff7 903c 6332 a13c ccee d7bd 9272 a1bb
00000080: f174 a2bd ffcc 21bc a44f ac3d 0333 37bd
00000090: 30af ba39 af90 fabd 99f6 a53d f1c5 973d
000000a0: 2100 64bd b88e 3abd 7a39 bfbd 943e 10be
000000b0: 6c9c 87bd b061 af3d ee64 f53d c45b dbbc
000000c0: 4624 9bbc 2b1c 763d dc68 9abd 49d7 fe3d
000000d0: a59d 39bd 7d6a 07be 9270 0d3e 591e 883d
000000e0: 0549 64bb ed71 233d 2c94 7fbd a8c2 d0bc
000000f0: 0292 2cbd 2cd6 ae3d 08d2 d8bd 14e9 833d

core.features.layer1.norm.running_mean f4 [64]
0.07794588 -0.7154295 -0.12061777 0.74163824 0.16985625 0.9928452 -0.40462902 0.40975842
-1.11147 -0.17795585 0.23897766 -0.6672928 0.40604424 0.58178526 0.565385 -0.07773968
0.45481122 0.62934834 0.60037464 0.6106957 -0.20053075 -0.11264954 -0.42055368 0.25302905
-0.7504826 -0.16685154 -0.73595625 0.50301284 0.07380262 0.05010027 0.6210424 0.2294752
0.40076953 -0.68111056 -1.0114123 -0.11901788 0.27918798 0.3580594 -0.5951683 -0.27437115
-0.710935 0.1783615 -0.25135526 -0.44163424 -0.36521387 0.7454202 0.11236569 0.65614873
-0.07682884 -0.30971476 -0.069070384 -0.70651317 0.03184607 0.22454913 0.28038794 -0.21611236
0.080807686 0.38049057 -0.35139096 0.6890311 -0.4915555 0.22810367 -0.25485674 -0.1755827
00000000: 17a2 9f3d 6326 37bf 7306 f7bd 01dc 3d3f
00000010: ccee 2d3e 1a2b 7e3f 892b cfbe dbcb d13e
00000020: a644 8ebf 0f3a 36be 8fb6 743e b3d3 2abf
00000030: 08e5 cf3e e1ef 143f 12bd 103f fb35 9fbd
00000040: 04dd e83e f91c 213f 27b2 193f 8e56 1c3f
00000050: ef57 4dbe cdb4 e6bd d052 d7be 068d 813e
00000060: a11f 40bf 21db 2abe a167 3cbf 73c5 003f
00000070: d425 973d f135 4d3d a2fc 1e3f 8cfb 6a3e
00000080: aa31 cd3e 435d 2ebf f575 81bf a5bf f3bd
00000090: baf1 8e3e 9053 b73e f35c 18bf 607a 8cbe
000000a0: d6ff 35bf 66a4 363e a3b1 80be e21d e2be
000000b0: 50fd babe dcd3 3e3f fc1f e63d 5df9 273f
000000c0: 7058 9dbd ef92 9ebe c674 8dbd 0cde 34bf
000000d0: 0671 023d 35f0 653e 028f 8f3e 8f4c 5dbe
000000e0: 807e a53d a9cf c23e 84e9 b3be 5864 303f
000000f0: 2aad fbbe 0294 693e 957c 82be f4cb 33be

core.features.layer1.norm.running_var f4 [64]
51.488045 42.06073 46.382107 34.82709 20.648125 26.244211 31.71736 40.988247
33.175705 46.64134 16.978542 29.059254 30.489233 31.744242 32.119507 40.97605
32.846073 40.18951 34.714314 25.922033 35.814465 35.728954 36.780567 33.23508
26.993761 22.139917 19.9905 33.12978 37.188213 25.92249 41.00505 31.004725
37.902668 33.049873 22.45325 37.159115 38.68426 32.52937 33.73215 44.22673
30.542297 28.632456 23.087505 36.476162 41.920723 22.495638 19.473011 33.415516
46.8457 28.742062 18.03009 31.693048 44.313038 14.769681 26.87383 41.72085
35.32916 31.335722 22.939177 28.832855 54.663094 31.329111 18.62127 25.800495
00000000: c2f3 4d42 303e 2842 4787 3942 f14e 0b42
00000010: 5c2f a541 25f4 d141 27bd fd41 f7f3 2342
00000020: ecb3 0442 bb90 3a42 0ed4 8741 5a79 e841
00000030: f3e9 f341 35f4 fd41 607a 0042 7ae7 2342
00000040: 6162 0342 0fc2 2042 75db 0a42 5360 cf41
00000050: 0342 0f42 73ea 0e42 4d1f 1342 b9f0 0442
00000060: 39f3 d741 8d1e b141 8bec 9f41 e584 0442
00000070: bbc0 1442 4261 cf41 2c05 2442 ad09 f841
00000080: 559c 1742 1233 0442 42a0 b341 efa2 1442
00000090: afbc 1a42 131e 0242 b9ed 0642 2ce8 3042
000000a0: a056 f441 450f e541 36b3 b841 97e7 1142
000000b0: d2ae 2742 11f7 b341 bac8 9b41 7da9 0542
000000c0: ff61 3b42 beef e541 a03d 9041 5d8b fd41
000000d0: 8d40 3142 9d50 6c41 9bfd d641 27e2 2642
000000e0: 0f51 0d42 8faf fa41 6f83 b741 b0a9 e641
000000f0: 02a7 5a42 05a2 fa41 5cf8 9441 6a67 ce41

core.features.layer2.ds_conv.in_depth_conv.weight f4 [64, 64, 1, 1]
-0.034230314 0.18165438 0.09277978 0.037082985 -0.084284104 -0.017127514 -0.07326758 -0.021653363
0.12121708 0.090734705 0.09774573 0.09439244 -0.045924112 0.03721586 -0.29589653 0.31086674
0.026514964 -0.40036982 0.012808824 -0.0990216 0.022399196 0.06583334 0.049307637 -0.04972633
0.14747684 0.049905725 -0.027467191 -0.052650176 -0.21425615 0.11312697 0.019251056 0.024692765
-0.048591718 0.08946892 0.0641207 -0.09360113 -0.16220209 0.08157263 -0.041357655 -0.08917881
0.13100879 -0.17477512 -0.15205847 0.09361324 -0.007053789 0.1216013 0.12261882 0.086870804
0.44687682 0.31702295 -0.26715875 -0.10253715 0.17099279 -0.19519076 0.017173499 0.3269312
-0.23870094 0.14628236 0.2698377 -0.004305443 0.02692201 -0.05177849 -0.1817825 0.10090512
0.15793861 -0.04094219 0.04027279 -0.00033230815 -0.31484056 -0.1473337 0.0074916026 0.13356346
0.00766371 -0.21544795 -0.34763157 0.3680103 -0.06260679 0.061437655 -0.12662235 0.1658108
0.036197204 0.17596619 0.35916632 -0.15386505 -0.15961196 -0.16824448 0.22210743 0.07263966
-0.37725246 0.24193656 0.2742916 -0.12070533 0.1549153 0.045562375 -0.2770806 -0.0137791205
0.066447325 0.062074307 -0.3316341 -0.043899372 0.20720442 -0.16683905 -0.15977983 0.35857874
-0.040432133 -0.14877257 -0.14512414 -0.19385351 -0.22855312 -0.19330491 0.25930288 0.007934797
0.16751237 -0.2567915 -0.27357844 0.22346565 0.22231711 -0.06546762 0.03877924 0.030897394
-0.009483218 -0.28174815 0.07941643 0.02384043 0.088396534 -0.03206689 0.067408025 0.16879405
-0.14848651 -0.0030847392 0.15792996 -0.066850625 -0.25985715 -0.28910825 0.22201826 0.13450444
-0.24906725 -0.23304299 0.05384263 0.10048003 -0.082176335 -0.14674549 -0.0012059561 -0.20516948
-0.13712046 0.11134801 0.10867947 0.1346111 0.24966358 0.16329598 -0.050996035 -0.15048192
-0.006662399 0.22725782 -0.0998845 -0.067211166 -0.13324152 -0.110065304 -0.08330084 -0.18888295
-0.20217736 -0.17675354 0.1732726 0.09944737 -0.2211226 -0.15431938 -0.14429294 -0.18252479
-0.06939354 -0.12148921 0.39947507 -0.13266654 0.08911747 -0.3035041 0.0096488055 -0.16282953
-0.12883975 0.12783824 0.13023058 0.29469082 0.21547951 -0.44975382 -0.31159464 0.26830328
0.19130255 -0.059278294 0.11548654 0.075605966 0.13642263 -0.25221196 0.26755947 -0.061845537
-0.09449696 -0.09588602 0.09491646 -0.111743316 0.3836399 0.38717648 0.06274872 0.021656357
-0.36800292 0.14273392 -0.2980133 -0.18386595 -0.19265482 0.38094065 0.10615087 -0.28238294
-0.40922552 -0.20424575 -0.109075494 -0.062144067 -0.32196343 0.28168896 0.5316381 0.09467982
-0.023215383 0.04586317 -0.016772274 -0.32718238 0.058672596 -0.06615606 0.04353536 -0.13264556
0.06504288 0.023364514 -0.12170492 0.28707033 0.16268745 -0.016570115 0.19967172 -0.09516856
0.035547107 0.044375263 0.2975128 0.050847366 0.115508914 0.17340542 0.16928507 -0.08450261
-0.24950358 0.050337814 -0.21769476 0.15008183 -0.22088929 -0.009095628 0.26252413 0.23382953
-0.28773835 -0.21429357 0.022441272 -0.25678706 -0.35480338 0.18460763 0.0385526 0.2953269
00000000: 1635 0cbd 9b03 3a3e 5303 be3d 54e4 173d
00000010: 259d acbd 004f 8cbc 500d 96bd 6562 b1bc
00000020: a940 f83d 1ed3 b93d ea2e c83d d350 c13d
00000030: ec1a 3cbd a86f 183d c07f 97be ed29 9f3e
00000040: e935 d93c 46fd ccbe 1adc 513c d6cb cabd
00000050: 857e b73c a1d3 863d cef6 493d d6ad 4bbd
00000060: 2b04 173e f269 4c3d e002 e1bc b6a7 57bd
00000070: f765 5bbe 1daf e73d 64b4 9d3c 7b48 ca3c
00000080: 1c08 47bd 7b3b b73d b751 833d f3b1 bfbd
00000090: 4e18 26be 8d0f a73d a566 29bd 61a3 b6bd
000000a0: 2b27 063e 40f8 32be 37b5 1bbe 4cb8 bf3d
000000b0: 7923 e7bb 1a0a f93d 931f fb3d 52e9 b13d
000000c0: 0acd e43e d550 a23e 08c9 88be fffe d1bd
000000d0: bc18 2f3e 16e0 47be 70af 8c3c 8763 a73e
000000e0: 056e 74be 0bcb 153e 2b28 8a3e ac14 8dbb
000000f0: 8c8b dc3c af15 54bd 3125 3abe 58a7 ce3d
00000100: a9ba 213e ffb2 27bd 15f5 243d a539 aeb9
00000110: c832 a1be a5de 16be 1e7c f53b dcc4 083e
00000120: dc1f fb3b 639e 5cbe c4fc b1be d96b bc3e
00000130: fd37 80bd 0da6 7b3d 4aa9 01be 4eca 293e
00000140: 8543 143d 7b30 343e a6e4 b73e cd8e 1dbe
00000150: 5171 23be 4848 2cbe 2170 633e 1ac4 943d
00000160: 3c27 c1be 38be 773e f36f 8c3e 5b34 f7bd
00000170: 1ea2 1e3e 9d9f 3a3d 82dd 8dbe d2c1 61bc
00000180: 8915 883d a141 7e3d f2cb a9be d4cf 33bd
00000190: 652d 543e dbd7 2abe 539d 23be a297 b73e
000001a0: 2a9c 25bd d657 18be 6c9b 14be 8981 46be
000001b0: d409 6abe b9f1 45be 59c3 843e f300 023c
000001c0: 5d88 2b3e 2d7a 83be 7912 8cbe 2ed4 643e
000001d0: 19a7 633e e313 86bd fbd6 1e3d 881c fd3c
000001e0: 805f 1bbc 4b41 90be 15a5 a23d 014d c33c
000001f0: 3e09 b53d 9258 03bd 380d 8a3d 59d8 2c3e
00000200: d90c 18be 5629 4abb 64b8 213e fbe8 88bd
00000210: ff0b 85be ff05 94be c158 633e 88bb 093e
00000220: 7c0b 7fbe d2a2 6ebe 178a 5c3d 79c8 cd3d
00000230: 114c a8bd 7344 16be 2c11 9eba f317 52be
00000240: 4e69 0cbe 6d0a e43d 5893 de3d 7ed7 093e
00000250: cfa7 7f3e 1037 273e 38e1 50bd ef17 1abe
00000260: 4150 dabb 46b6 683e 3f90 ccbd 02a6 89bd
00000270: 7770 08be eb69 e1bd a199 aabd 886a 41be
00000280: 9507 4fbe e1fe 34be 5f6e 313e 10ab cb3d
00000290: f66d 62be e605 1ebe 87c1 13be c7e7 3abe
000002a0: 331e 8ebd 56cf f8bd ff87 cc3e bdd9 07be
000002b0: 3883 b63d e464 9bbe 0616 1e3c c9bc 26be
000002c0: 91ee 03be 07e8 023e 2a5b 053e b7e1 963e
000002d0: a9a6 5c3e 2246 e6be 5589 9fbe 0c5f 893e
000002e0: d1e4 433e cccd 72bd 3584 ec3d 4dd7 9a3d
000002f0: 60b2 0b3e ed21 81be 8efd 883e bf51 7dbd
00000300: 9f87 c1bd e45f c4bd 9063 c23d aed9 e4bd
00000310: 736c c43e ff3b c63e 6782 803d ac68 b13c
00000320: e16a bcbe d728 123e 3395 98be 5b47 3cbe
00000330: 4e47 45be a70a c33e a165 d93d 7f94 90be
00000340: 0286 d1be cc25 51be f962 dfbd c78a 7ebd
00000350: 64d8 a4be 8939 903e 6f19 083f 7ee7 c13d
00000360: 302e bebc 05db 3b3d 0266 89bc 7384 a7be
00000370: ad52 703d d47c 87bd 2252 323d 3dd4 07be
00000380: 3435 853d f066 bf3c 6e40 f9bd e2fa 923e
00000390: 8a97 263e 0dbe 87bc be76 4c3e bce7 c2bd
000003a0: d899 113d d6c2 353d 9953 983e 5445 503d
000003b0: f08f ec3d 3191 313e 1159 2d3e b40f adbd
000003c0: de7d 7fbe 062f 4e3d 60eb 5ebe 0daf 193e
000003d0: cd30 62be d405 15bc 9069 863e 0271 6f3e
000003e0: 7152 93be c66f 5bbe c2d6 b73c 9879 83be
000003f0: caa8 b5be c809 3d3e 55e9 1d3d 1635 973e

core.features.layer2.ds_conv.in_depth_conv.bias f4 [64]
0.030492852 0.051273387 -0.045767806 0.10401376 -0.105704166 0.041407436 0.052010316 -0.15698153
-0.10055026 -0.0784779 -0.03677802 -0.124106996 0.009012387 0.012899729 0.0020580932 0.09091491
0.055377122 -0.035429236 0.05669221 0.122695446 -0.08539024 0.14292759 -0.0072331023 0.07897793
0.12101521 0.12089042 0.15934205 -0.009196398 -0.12262689 0.147484 0.12111806 0.14240424
-0.09343035 0.05637124 -0.11754352 -0.102768324 0.09777975 0.17565733 0.14202201 -0.080620535
-0.06056441 -0.0884077 0.12085592 0.10228636 0.09909026 0.16703387 -0.0964228 0.050586935
0.077775046 -0.11386419 0.060029548 0.03377784 -0.017304033 0.19910897 0.023693914 -0.0044310982
-0.1028171 -0.008879553 0.087629154 0.09625715 0.15276267 0.0049617114 0.073111236 0.08714333
00000000: 25cc f93c 0b04 523d 0677 3bbd 2b05 d53d
00000010: 6d7b d8bd d89a 293d c508 553d c4bf 20be
00000020: 4bed cdbd 05b9 a0bd 8da4 16bd cf2b febd
00000030: b1a8 133c 6359 533c 13e1 063b 9931 ba3d
00000040: 1fd3 623d 3f1e 11bd 1736 683d c047 fb3d
00000050: 14e1 aebd 9c5b 123e a903 edbb 2ebf a13d
00000060: d3d6 f73d 6695 f73d 902a 233e 7dac 16bc
00000070: cf23 fbbd 0c06 173e bf0c f83d 6bd2 113e
00000080: 6958 bfbd 88e5 663d a8ba f0bd 3378 d2bd
00000090: c040 c83d 84df 333e 386e 113e 611c a5bd
000000a0: 6312 78bd 190f b5bd 4f83 f73d 837b d13d
000000b0: d6ef ca3d ed0a 2b3e 5179 c5bd 3f34 4f3d
000000c0: 8648 9f3d a131 e9bd 8be1 753d a25a 0a3d
000000d0: 30c1 8dbc 39e3 4b3e bd19 c23c bf32 91bb
000000e0: c691 d2bd 8b7b 11bc ea76 b33d 7822 c53d
000000f0: d16d 1c3e da95 a23b 58bb 953d 3478 b23d
