notebooks/model_tutorial/model_checkpoints/IM_p_sota_model.pth (torch, 967300 bytes, 49 tensors)

core.features.layer0.conv.weight f4 [64, 4, 9, 9]
0	0xbec60a87	-0.38679907
1	0xbeab570f	-0.33464858
2	0x3e145d50	0.14488721
3	0x3edba44d	0.4289879
4	0x3ebe71ee	0.37196296
5	0x3e735a5b	0.23764937
6	0x3e34725d	0.17621751
7	0x3e2d0e7a	0.16900054
8	0x3c16880a	0.009187708
9	0xbe703bb1	-0.2346027
10	0xbe017083	-0.12640576
11	0x3e5db004	0.21649176
12	0x3e6b77bd	0.22994895
13	0x3d0e9ccf	0.034817513
14	0x3dc381b9	0.09546227
15	0x3de1697e	0.11006449
16	0x3d4ff176	0.050767384
17	0x3db376a1	0.08762861
18	0xbe155083	-0.14581494
19	0xbe1c0b75	-0.15238746
20	0xbe9e848e	-0.30960506
21	0xbeca8f77	-0.3956258
22	0xbeada4e0	-0.33914852
23	0xbdb9f384	-0.0907965
24	0xbbef11c0	-0.007295817
25	0x3da07873	0.07835474
26	0x3e69a741	0.22817709
27	0xbdc5211a	-0.09625454
28	0xbe426bc5	-0.18986423
29	0xbe8cb9e8	-0.27485585
30	0xbe355e73	-0.17711811
31	0xbe890921	-0.26764777
32	0xbe5e97fb	-0.21737663
33	0x3d0752b5	0.03303786
34	0x3e024cf7	0.12724672
35	0x3e2b598c	0.16733378
36	0x3dd369ed	0.10322938
37	0xbd8bfc5e	-0.068352446
38	0xbed6d0ff	-0.41956326
39	0xbe9ba15f	-0.30396554
40	0xbe20e826	-0.15713558
41	0xbe2d4dbb	-0.16924183
42	0xbd8660a1	-0.06561399
43	0xbd23db3a	-0.040003993
44	0xbddb170e	-0.10697757
45	0x3e69276a	0.22768942
46	0x3ebbf7e1	0.36712554
47	0x3dcba53c	0.09943625
48	0xbe62c4a9	-0.22145332
49	0xbe7b2b49	-0.2452823
50	0xbe438089	-0.19092001
51	0xbdcf8fbf	-0.10134839
52	0xbd54ec7e	-0.05198335
53	0xbd50dcba	-0.05099175
54	0x3ec04817	0.37555
55	0x3e995e59	0.29954794
56	0x3e2de5b9	0.16982163
57	0x3d513a6c	0.051081106
58	0xbda4982e	-0.080368385
59	0xbe471741	-0.19442464
60	0xbd98f444	-0.07468465
61	0x3d13700e	0.035995536
62	0x3e1dd189	0.15411963
63	0x3d625bac	0.055263206
64	0x3df45d64	0.11931875
65	0x3ddcef4a	0.10787828
66	0x3d4aa55f	0.049474116
67	0xbd6e60f1	-0.05819792
68	0xbe5ca00e	-0.21545431
69	0xbda205db	-0.07911273
70	0xbcebafa0	-0.028770268
71	0x3cf96c85	0.030447254
72	0x3cb1daea	0.021710832
73	0x3c8b9844	0.01704038
74	0x3d5491b7	0.051896777
75	0x3ce34f54	0.027747788
76	0xbd6c0a13	-0.057626795
77	0xbe1c907d	-0.15289493
78	0xbd105416	-0.03523644
79	0xbcec6b1f	-0.028859673
80	0xbc9e9558	-0.019358322
81	0x3d1028b0	0.035195053
82	0x3d53250c	0.051549003
83	0x3d927535	0.07151262
84	0x3d2ad068	0.041702658
85	0x3d5cdded	0.053922582
86	0x3d7040f9	0.058655713
87	0x3d2eae38	0.042646617
88	0x3d2aa079	0.041656945
89	0x3d537bd8	0.05163178
90	0x3d5ebc4a	0.054378785
91	0x3d69a0bc	0.057038054
92	0x3d693fd7	0.056945648
93	0x3d2f77ed	0.04283898
94	0x3d07049e	0.032963388
95	0x3cfb3029	0.030662613
96	0x3c176227	0.00923971
97	0x3ce669f8	0.028126702
98	0x3d815ae3	0.063161634
99	0x3d9a90c3	0.07547142
100	0x3d269b56	0.040675484
101	0x3d419393	0.04725988
102	0x3d838bb5	0.064231314
103	0x3d81ab39	0.06331486
104	0x3d602d94	0.054730967
105	0x3cad6687	0.021167053
106	0x3d3739a2	0.044732697
107	0x3d4cbaec	0.04998295
108	0x3cd3c3da	0.025850225
109	0x3c4745a1	0.012162597
110	0x3d06d92b	0.03292195
111	0x3d63c313	0.05560596
112	0x3d7d7bcc	0.06188564
113	0x3d78a3c3	0.06070305
114	0x3d51df6e	0.05123847
115	0x3d5379af	0.05162972
116	0x3cbb828e	0.022889402
117	0x3d7c2af3	0.061564397
118	0x3cb8d3f2	0.022562
119	0x3d3adc5e	0.045620315
120	0x3d7252cf	0.059161004
121	0x3d26a54c	0.040684983
122	0x3d18aa82	0.037271984
123	0x3d1ca292	0.038240977
124	0x3d4af4d7	0.049549904
125	0x3d627c41	0.05529428
126	0x3d3872de	0.04503142
127	0x3d2baa61	0.041910533
128	0x3d1d73d8	0.038440555
129	0x3d435018	0.047683805
130	0x3d81ab30	0.063314795
131	0x3d69096c	0.05689375
132	0x3cef8c64	0.029241748
133	0x3d40eb09	0.047099147
134	0x3d4726da	0.048621036
135	0x3d951468	0.07279283
136	0x3daab3fb	0.0833511
137	0x3d17b1c4	0.037034765
138	0x3d6260f7	0.055268254
139	0x3d90e0b6	0.0707411
140	0x3dbe0ac4	0.09279397
141	0x3d4d856a	0.05017606
142	0x3d052cd0	0.03251344
143	0x3d21f7d9	0.039543007
144	0x3d804f5a	0.06265135
145	0x3d883e70	0.06652534
146	0x3cf514bd	0.029917115
147	0x3d7da9b6	0.061929427
148	0x3d6e087b	0.058113556
149	0x3d87a3ca	0.06623037
150	0x3da7d86d	0.08195577
151	0x3d7c2845	0.06156184
152	0x3d79399e	0.060845964
153	0x3d932d74	0.07186404
154	0x3d74d777	0.059775796
155	0x3d481c96	0.048855387
156	0x3d297863	0.041374575
157	0x3d74b1e0	0.059739947
158	0x3d59e1b9	0.05319378
159	0x3d42faa7	0.047602322
160	0x3d7b381a	0.0613328
161	0x3d7d6532	0.061864085
162	0x3d317e61	0.043333415
163	0x3d17f99b	0.037103277
164	0x3d3f3727	0.046683457
165	0x3d1cddd8	0.038297504
166	0x3d6531c8	0.05595568
167	0x3d2c0472	0.041996427
168	0x3d87d8e6	0.06633167
169	0x3d70905d	0.058731426
170	0x3cf4254e	0.029802945
171	0x3d7a0550	0.061040223
172	0x3cadb8be	0.021206256
173	0x3d84c51f	0.0648291
174	0x3ce163c1	0.027513387
175	0x3d5b9a5b	0.053614
176	0x3d57f075	0.052719552
177	0x3d79e568	0.061009794
178	0x3d90969d	0.07059977
179	0x3d96e09e	0.07367061
180	0x3d0a7bda	0.03380952
181	0x3d0f097f	0.034921166
182	0x3d9bb4ec	0.076028675
183	0x3d30099c	0.042977914
184	0x3d8c54d4	0.06852117
185	0x3d604d3c	0.054761156
186	0x3c99295b	0.018696478
187	0x3d3192c9	0.043352876
188	0x3d9dcb76	0.07704823
189	0x3d1f8687	0.038946655
190	0x3cf218d7	0.02955286
191	0x3d43229b	0.047640424
192	0x3d55c1d2	0.052186795
193	0x3d183fd1	0.037170235
194	0x3d4aac5b	0.049480777
195	0x3d491b42	0.04909826
196	0x3d5108b2	0.051033683
197	0x3dae72d2	0.08517994
198	0x3d2e7421	0.042591218
199	0x3d273cf3	0.04082961
200	0x3d1d4fad	0.038406063
201	0x3d8ca3ac	0.068671554
202	0x3d518e0f	0.05116087
203	0x3cc62f68	0.024192527
204	0x3d2405f5	0.040044744
205	0x3d7e0bee	0.062023096
206	0x3d02b125	0.03190722
207	0x3d3c010d	0.04589944
208	0x3d61a136	0.055085383
209	0x3da12882	0.078690544
210	0x3d85ba7f	0.06529712
211	0x3d412db2	0.04716272
212	0x3d511cd9	0.051052902
213	0x3d3be11e	0.045868985
214	0x3d8c1b57	0.06841152
215	0x3d8b8b1d	0.06813643
216	0x3d1c070a	0.03809265
217	0x3d98528b	0.07437619
218	0x3cd7dea9	0.02635129
219	0x3d0a0604	0.033697143
220	0x3d41a7fe	0.04727935
221	0x3d1e5453	0.038654637
222	0x3ca1e400	0.01976204
223	0x3d346b3d	0.044047583
224	0x3d5b5419	0.053547
225	0x3d3d6ae3	0.046244513
226	0x3d8e4f4c	0.069487184
227	0x3d862983	0.065508865
228	0x3d2f9c1c	0.042873487
229	0x3d9360cf	0.07196199
230	0x3d7f4b6e	0.062327795
231	0x3d41bb81	0.04729796
232	0x3d8c369a	0.06846352
233	0x3dc1ea6f	0.09468543
234	0x3d4b0add	0.049570907
235	0x3d594f16	0.053053938
236	0x3d83cf76	0.064360544
237	0x3d64e200	0.055879593
238	0x3dac3df9	0.08410258
239	0x3d92d051	0.071686395
240	0x3d33258b	0.043736976
241	0x3d37239c	0.044711694
242	0x3d6319d2	0.055444546
243	0xbd9f52b8	-0.07779449
244	0xbd818690	-0.06324494
245	0xbddaf835	-0.10691873
246	0xbde60c36	-0.11232798
247	0xbdda8f4d	-0.10671864
248	0xbd94d209	-0.072666235
249	0xbdc3158c	-0.09525594
250	0xbdc8dcb2	-0.09807719
251	0xbdb8ce43	-0.09023716
252	0xbdae3fd6	-0.085082695
253	0xbd8936aa	-0.066998795
254	0xbd95f49b	-0.073220454
255	0xbd44ccf3	-0.048047017

core.features.layer0.norm.weight f4 [64]
0	0x3f333dca	0.7001616
1	0x3fbc28b6	1.4699924
2	0x3f86f191	1.054247
3	0x3f9fb016	1.2475612
4	0x3fcc44cd	1.5958496
5	0x3fe43530	1.7828732
6	0x3fc6bb79	1.5525962
7	0x3f34b50a	0.70588744
8	0x3ff9f256	1.952708
9	0x4012550b	2.2864406
10	0x3f8189a0	1.0120125
11	0x400b4d6e	2.176601
12	0x40371ea8	2.861246
13	0x3e74e60c	0.23915881
14	0x3faae729	1.3351794
15	0x3fda504b	1.7055753
16	0x3f957de8	1.1679049
17	0x3fd7d3c1	1.6861497
18	0x3f9197f9	1.1374503
19	0x3fa5e315	1.2959925
20	0x3f74088c	0.9532554
21	0x3f9c5379	1.2212974
22	0x3f8f25ff	1.118347
23	0x3efba647	0.49150297
24	0x3f0fde6c	0.56198764
25	0x3f9c84da	1.2228043
26	0x3fe29d29	1.7704211
27	0x400510d0	2.0791512
28	0x3f9f1667	1.2428712
29	0x3fac8c5f	1.3480338
30	0x3f886930	1.0657101
31	0x3fa15f92	1.2607291
32	0x3ed65189	0.4185908
33	0x3f919d0a	1.137605
34	0x3f2d54fa	0.6770779
35	0x3f59e0d4	0.85108685
36	0x3ecbdbdf	0.39816186
37	0x402716d8	2.6107693
38	0x3fe9fd7c	1.8280482
39	0x40412fe3	3.0185478
40	0x3fb73060	1.4311638
41	0x3f99ce30	1.2016048
42	0x3eb3b797	0.35101005
43	0x404a3aae	3.1598315
44	0x3f5705e1	0.83993345
45	0x3f894f98	1.0727415
46	0x4024eed6	2.5770774
47	0x3f93ff9a	1.1562378
48	0x3fa8d513	1.3190025
49	0x3f2f2333	0.68413085
50	0x3f93e1af	1.1553248
51	0x3fc1facc	1.5154662
52	0x3ff19884	1.8874669
53	0x3f9d08e4	1.2268338
54	0x3fa20d67	1.266034
55	0x400c5222	2.192513
56	0x3fc0a329	1.5049793
57	0x3f080025	0.5312522
58	0x3e88f661	0.26750472
59	0x3f9a02c9	1.20321
60	0x3f951c6d	1.16493
61	0x3f9a7294	1.2066216
62	0x3fad744e	1.3551118
63	0x3fde08a5	1.7346388

core.features.layer0.norm.bias f4 [64]
0	0x3e337793	0.17526083
1	0xbf6f8f12	-0.9357768
2	0xbfa05f7c	-1.252914
3	0x3e5c1d6f	0.21495603
4	0xbf2e6a72	-0.6813117
5	0xbf8a550d	-1.0807205
6	0xbe843115	-0.25818697
7	0xbdc3982c	-0.09550509
8	0xbe380f35	-0.17974551
9	0xbf32d7c4	-0.6986048
10	0xbec68ffa	-0.3878172
11	0xbf53f951	-0.828023
12	0xbf727dbb	-0.947231
13	0xbe898b1e	-0.2686395
14	0xbe26fadb	-0.16306631
15	0xbecb9534	-0.3976227
16	0xbd6cfc61	-0.057857875
17	0xbe8ff21c	-0.28114402
18	0xbe8f12a9	-0.27943924
19	0xbeb02fb3	-0.34411392
20	0xbe5a2304	-0.2130242
21	0xbe988c22	-0.29794413
22	0xbed7689f	-0.42072007
23	0xbe9961d3	-0.29957446
24	0xbe655579	-0.22395886
25	0xbd90b9df	-0.07066702
26	0x3ebabb58	0.36471057
27	0xbf2743cf	-0.6533784
28	0xbe593f3e	-0.21215531
29	0xbecadaa3	-0.39619932
30	0xbdf91938	-0.12163013
31	0xbebd30f9	-0.36951426
32	0x3e148ba1	0.14506389
33	0x3dc159a0	0.09440923
34	0xbd84ef62	-0.06490971
35	0xbd2e88eb	-0.042611044
36	0xbef14234	-0.4712082
37	0xbf49d24f	-0.7883653
38	0xbef87e02	-0.48533636
39	0xbf708a16	-0.939607
40	0xbed5545d	-0.41665927
41	0x3ddce193	0.10785212
42	0xbeb88b80	-0.3604393
43	0xbf744aa5	-0.954264
44	0xbd6a0a60	-0.0571388
45	0xbe8f90d0	-0.2804017
46	0xbf53f14f	-0.8279008
47	0x3e563496	0.20918497
48	0xbeb41a19	-0.3517616
49	0xbde62c13	-0.11238875
50	0xbe1b5953	-0.15170793
51	0xbe65e850	-0.22451901
52	0xbf07e569	-0.5308443
53	0xbebb9fc4	-0.3664533
54	0xbece055f	-0.40238473
55	0xbf54bd90	-0.8310175
56	0xbf5a1846	-0.8519329
57	0xbea2b1ca	-0.31776267
58	0xbd82e77e	-0.0639181
59	0x3e1901b8	0.14942062
60	0xbca76294	-0.020432748
61	0xbea58449	-0.32327488
62	0xbe7df16d	-0.24799128
63	0xbef2c73f	-0.47417638

core.features.layer0.norm.running_mean f4 [64]
0	0x40ad4829	5.4150586
1	0xc0905319	-4.5101438
2	0x404040ff	3.003967
3	0xc2437d44	-48.87233
4	0x3ff5a3f0	1.9190655
5	0xbf50b116	-0.8152021
6	0xc05e5d37	-3.4744394
7	0xc0b35cec	-5.605093
8	0x3ee6234c	0.44948804
9	0x3f345997	0.70449203
10	0x4123939f	10.22354
11	0xc10d24a2	-8.821444
12	0xc1625b38	-14.14727
13	0x3ff68ed7	1.9262341
14	0xc166d723	-14.427524
15	0x40dd32ac	6.9124355
16	0x4139d2a6	11.613928
17	0xc1fcd4e4	-31.60395
18	0xc147a4fd	-12.47778
19	0x40881482	4.2525034
20	0x40ac3263	5.3811507
21	0xc08362e5	-4.105822
22	0xbf948715	-1.1603724
23	0x4120dd38	10.0540085
24	0x3f912eab	1.1342367
25	0xc1ff213f	-31.891233
26	0x40949434	4.643091
27	0xc07eac8b	-3.9792812
28	0x3f3b1c14	0.7308972
29	0x40ec6591	7.3873982
30	0xbef52d67	-0.47886202
31	0xc1015e4c	-8.085522
32	0xc14d2d99	-12.823632
33	0x40e054b8	7.0103416
34	0x41103ec6	9.015326
35	0xc13c7bd5	-11.780232
36	0x41209b51	10.037919
37	0xc0fc8334	-7.891016
38	0x3ff68cc5	1.926171
39	0xc14d7071	-12.8399515
40	0xc1472928	-12.447548
41	0xc06d1746	-3.7045455
42	0x411f0175	9.937856
43	0xc188fe9f	-17.124327
44	0x40ae5e6c	5.449026
45	0x40797426	3.8977141
46	0xc08bbd04	-4.366823
47	0xc164b148	-14.293282
48	0x3ffc2a85	1.9700476
49	0x4121bb92	10.108294
50	0xc1349d9b	-11.288478
51	0xc0a95aee	-5.29235
52	0xc1192760	-9.572113
53	0xbfa09b18	-1.2547331
54	0x40a9df6c	5.308523
55	0xc11af829	-9.685586
56	0x40451e50	3.0799751
57	0x4107edb7	8.495536
58	0x41149d1d	9.288358
59	0xc20635eb	-33.552654
60	0x40320906	2.7818007
61	0xc0bcf47d	-5.9048448
62	0xc00aa9c7	-2.1666124
63	0xc18afd3c	-17.37365

core.features.layer0.norm.running_var f4 [64]
0	0x428d9359	70.78779
1	0x42d311ad	105.53452
2	0x4221e2f9	40.471653
3	0x440fe4f2	575.5773
4	0x42d5eac4	106.95853
5	0x4289b319	68.8498
6	0x43077f56	135.4974
7	0x421675e5	37.61513
8	0x430db360	141.70068
9	0x431a2cb9	154.1747
10	0x424e92ca	51.64335
11	0x444461ac	785.5261
12	0x44a334bb	1305.6478
13	0x422798af	41.899105
14	0x42f629c7	123.0816
15	0x4318ff4b	152.99724
16	0x42a43a97	82.11443
17	0x43ab3480	342.41016
18	0x42c04373	96.13174
19	0x420f04c6	35.75466
20	0x422266b9	40.600315
21	0x4297456d	75.6356
22	0x4227e57c	41.974106
23	0x420cf92d	35.243336
24	0x4267c18d	57.939014
25	0x438a8269	277.01883
26	0x42d01fdf	104.06225
27	0x42b46966	90.20586
28	0x42aca9b5	86.33146
29	0x429714ab	75.54037
30	0x4220e86c	40.226974
31	0x42053e50	33.310852
32	0x42c55ad9	98.67744
33	0x426024fe	56.036125
34	0x425a5ac2	54.58863
35	0x43082b8c	136.1701
36	0x42830d67	65.52618
37	0x448091e7	1028.5594
38	0x42e41df2	114.05849
39	0x45071257	2161.1462
40	0x428887e1	68.26539
41	0x42148b07	37.13577
42	0x425d9bfb	55.402325
43	0x452341b5	2612.1067
44	0x423a65ce	46.59942
45	0x43558c20	213.54736
46	0x4493b8b6	1181.7722
47	0x42aa3d4c	85.11972
48	0x4280f109	64.47077
49	0x424ebd9d	51.68517
50	0x429d3846	78.60991
51	0x425ce109	55.21976
52	0x43d73eb8	430.49
53	0x42473380	49.800293
54	0x42ac54b6	86.16545
55	0x4459abca	870.6842
56	0x42bcd156	94.40886
57	0x42808fdf	64.281
58	0x42256f6f	41.35882
59	0x43e36696	454.80145
60	0x4242288f	48.539608
61	0x42c88747	100.26421
62	0x426b25d6	58.78695
63	0x440c6edc	561.7322

core.features.layer1.ds_conv.in_depth_conv.weight f4 [64, 64, 1, 1]
0	0x3e3fe2df	0.18738888
1	0xbe484e64	-0.19561154
2	0x3d033636	0.03203412
3	0x3d669cab	0.056301754
4	0x3eac5a36	0.33662575
5	0x3f041ba2	0.51604664
6	0xbdb20b07	-0.086935095
7	0xbdbc4027	-0.091919236
8	0x3f0f80c1	0.5605584
9	0x3e1aa268	0.15101016
10	0x3cdaf0be	0.026726123
11	0x3e1b4a80	0.15165138
12	0xbec323ab	-0.3811315
13	0xbe1462e7	-0.14490853
14	0x3e91cc08	0.28475976
15	0x3eb6d9b7	0.35712978
16	0x3d7846ea	0.060614504
17	0x3c12f79e	0.008970169
18	0xbddc97a7	-0.10771113
19	0xbf5fbdb6	-0.8739885
20	0xbd52c864	-0.05146064
21	0x3f4c6489	0.79840904
22	0x3db644fe	0.08899878
23	0x3e1fca17	0.15604435
24	0x3d5b5545	0.053548116
25	0x3e06d6c5	0.13167866
26	0x3f6b12f1	0.9182578
27	0x3e8e151e	0.27750486
28	0xbe23d2f1	-0.15998437
29	0xbc35f251	-0.011105136
30	0xbf9a01e0	-1.2031822
31	0x3f831224	1.0239911
32	0xbe02bb36	-0.12766728
33	0xbf0f8dc6	-0.56075704
34	0xbe95c254	-0.29249823
35	0x3da5528c	0.08072385
36	0xbe5dcefa	-0.21660987
37	0x3dd7f979	0.1054563
38	0xbdb79d78	-0.08965582
39	0xbcae3329	-0.02126463
40	0x3ed51df3	0.41624412
41	0x3ca06cda	0.019583154
42	0xbe02ec24	-0.12785393
43	0xbe67200a	-0.22570816
44	0x3e901991	0.28144506
45	0x3e9e15fb	0.30876145
46	0x3f1a348f	0.6023645
47	0xbf0388a4	-0.5138037
48	0x3ebc85b5	0.3682076
49	0xbe23d9df	-0.1600108
50	0xbea408a8	-0.32037854
51	0x3e9eec6a	0.31039745
52	0xbd8e6947	-0.06953674
53	0x3d81a150	0.06329596
54	0x3e533941	0.2062731
55	0x3eebde51	0.4606805
56	0xbdda1500	-0.10648537
57	0x3eac1df8	0.33616614
58	0x3e2a24b4	0.16615564
59	0xbd38e0dd	-0.04513632
60	0xbf540b48	-0.82829714
61	0xbf110c97	-0.56659836
62	0xbf37dfb3	-0.7182571
63	0x3d5831bf	0.052781817
64	0x3d2b396b	0.041802805
65	0xbe762359	-0.24036922
66	0x3d8315af	0.0640062
67	0x3d59c41d	0.053165544
68	0xbe7654dc	-0.24055809
69	0x3e2a971d	0.16659208
70	0x3e4fb4d8	0.2028383
71	0x3dfb13fa	0.122596696
72	0xbed61827	-0.41815302
73	0x3df921d2	0.12164654
74	0xbe759871	-0.23983933
75	0x3e355db1	0.17711522
76	0x3e987b78	0.297817
77	0x3d200e0c	0.039075896
78	0xbe6eccf3	-0.2332037
79	0x3d6e7cd1	0.058224503
80	0x3ca89426	0.020578455
81	0xbd978cc9	-0.073998995
82	0x3d64cdc9	0.055860315
83	0x3d87d63a	0.06632657
84	0xbd118fda	-0.03553758
85	0xbe9a1872	-0.30096775
86	0x3dd34c99	0.10317344
87	0xbdcaacf2	-0.09896268
88	0xbe7b3188	-0.24530613
89	0x3e1b74a6	0.15181217
90	0x3e36b26b	0.17841499
91	0x3c89d860	0.016826808
92	0xbe2f16c7	-0.17098533
93	0xbd27a82f	-0.040931877
94	0xbc6a1ff3	-0.014289844
95	0xbc4bf45c	-0.0124483965
96	0x3b19a503	0.0023444302
97	0x3e04a721	0.1295438
98	0x3da41472	0.08011712
99	0x3d766343	0.060153257
100	0x3d956850	0.07295287
101	0x3f0c256a	0.5474459
102	0x3ed919c0	0.42402458
103	0x3e448be8	0.19193995
104	0x3ea717ed	0.3263544
105	0xbdfe9480	-0.12430668
106	0xbe06ceb8	-0.13164794
107	0x3da2a558	0.07941693
108	0x3e85a838	0.26104903
109	0xbd919568	-0.07108575
110	0x3c8f7568	0.017512038
111	0x3e4d29f8	0.20035541
112	0xbe18ec8e	-0.14933988
113	0x3c68e820	0.014215499
114	0x3ea588a4	0.3233081
115	0xbe7fe38c	-0.24989146
116	0x3d95539c	0.07291338
117	0xbd9cad36	-0.07650225
118	0x3e8d745c	0.27627838
119	0x3e1b29ec	0.1515271
120	0xbdfd9593	-0.12382045
121	0x3dfe5d41	0.124201305
122	0x3bb67401	0.005568028
123	0xbe1a790a	-0.15085235
124	0x3e68de9e	0.22741172
125	0xbd52b52f	-0.05144232
126	0x3d28335f	0.041064616
127	0x3e4cab0c	0.19987124
128	0xbe6c77f8	-0.2309264
129	0xbf193bd6	-0.5985693
130	0xbe06fe27	-0.13182889
131	0xbd9406a9	-0.07227833
132	0x3e77cc75	0.24199088
133	0x3efe3ef9	0.4965742
134	0xbe4da539	-0.20082559
135	0xbc54367f	-0.012952446
136	0x3da8fbc4	0.082511455
137	0x3e26b5e1	0.16280319
138	0x3ca32361	0.01991433
139	0xbdbf5fca	-0.09344442
140	0x3eaba2e0	0.335227
141	0xbb1a98f8	-0.0023589712
142	0x3f313f81	0.69237524
143	0x3ed94027	0.42431757
144	0xbdc60ae5	-0.09670047
145	0x3d761f95	0.060088713
146	0xbea07272	-0.31337315
147	0xbe1e1ff1	-0.15441872
148	0xbbe79466	-0.007067251
149	0x3ecfcee6	0.40587538
150	0xbcd8983a	-0.026439775
151	0xbdab4f1c	-0.08364698
152	0xbe63b4ee	-0.22236988
153	0xbd8505cb	-0.064952455
154	0x3eaa8361	0.3330336
155	0x3f075eb7	0.528789
156	0xbe989438	-0.29800582
157	0xbe5b1919	-0.21396293
158	0x3e757a86	0.2397252
159	0xbe8aa82f	-0.2708144
160	0xbdebf986	-0.11522202
161	0xbe86d6da	-0.26335794
162	0xbcc4c8ba	-0.024021495
163	0x3ce4b8ba	0.027920116
164	0xbdda869b	-0.10670205
165	0xbdaaa90d	-0.08333025
166	0xbd2869df	-0.04111659
167	0x3caace5a	0.02085035
168	0xbeb0a065	-0.3449737
169	0xbea89afa	-0.32930738
170	0xbd9a4917	-0.07533472
171	0x3e9085ee	0.2822718
172	0xbde81528	-0.1133216
173	0xbee8daa3	-0.45479307
174	0x3eb88d96	0.36045521
175	0xbdb140f9	-0.08654971
176	0xbe90e814	-0.28302062
177	0xbcab5bbe	-0.02091777
178	0x3d52ac45	0.05143382
179	0x3e558d8b	0.20854776
180	0x3d70743a	0.058704592
181	0x3d9a1d9d	0.075251795
182	0xbeddbaa7	-0.43306467
183	0x3df20eca	0.11819227
184	0xbdb78888	-0.08961588
185	0xbe85023e	-0.25978273
186	0xbdd746ec	-0.10511574
187	0x3e836f77	0.25670978
188	0xbe4a641a	-0.19764748
189	0x3e4800a6	0.19531497
190	0x3d48c216	0.04901322
191	0xbd853409	-0.065040655
192	0x3e1aab6d	0.15104456
193	0x3f56627a	0.83744013
194	0xbccbbaef	-0.02486941
195	0x3e73ea8a	0.23819938
196	0xbd3642dd	-0.04449736
197	0xbed0fe43	-0.40818986
198	0xbeb43a6a	-0.35200816
199	0x3e9504d1	0.29105237
200	0xbcccc112	-0.024994407
201	0xbeac246c	-0.33621538
202	0x3e733611	0.23751093
203	0xbe8435ca	-0.25822288
204	0xbe187287	-0.14887439
205	0xbc616d0e	-0.013758911
206	0x3ed7f844	0.421816
207	0x3ed2d960	0.4118147
208	0xbec4e2bd	-0.38454238
209	0x3e5d8f5c	0.21636719
210	0x3bcb9dc2	0.0062138746
211	0xbd41ec26	-0.04734435
212	0x3ea37af8	0.31929755
213	0x3ef82145	0.48462883
214	0xbe82feee	-0.2558512
215	0xbd883ed1	-0.06652606
216	0xbcf12460	-0.02943629
217	0x3eb12b6c	0.3460344
218	0xbf0b1d0c	-0.54341197
219	0xbd8755c7	-0.066081576
220	0xbd3ef7ff	-0.046623226
221	0xbbc2309d	-0.0059262053
222	0x3de7bffe	0.113159165
223	0x3c4791a2	0.012180718
224	0x3d5509cf	0.052011307
225	0xbca3b7a4	-0.019985028
226	0xbdae2cdc	-0.0850465
227	0x3edf2fb5	0.43591085
228	0xbd353dde	-0.044248454
229	0xbe1bf9c8	-0.15232003
230	0xbeb3f61e	-0.3514871
231	0x3e19616e	0.14978573
232	0xbe87131e	-0.26381773
233	0x3ef88f91	0.48547032
234	0xbe564c49	-0.20927538
235	0x3e1e1db1	0.15441014
236	0xbeca09fe	-0.39460748
237	0x3e4e2df7	0.20134722
238	0xbc2695ed	-0.010167581
239	0x3e3a1aba	0.18174258
240	0xbe7bb8c7	-0.24582206
241	0xbe096bc3	-0.13420014
242	0x3ebc7e25	0.3681499
243	0xbc1ddc36	-0.009635022
244	0xbe4a9d2a	-0.19786516
245	0x3ebf1231	0.37318566
246	0x3e04213a	0.129033
247	0xbbb81835	-0.00561812
248	0x3e9abc34	0.30221713
249	0xbe0618fe	-0.13095471
250	0xbdf0745f	-0.11740946
251	0xbdcae1c3	-0.09906342
252	0xbde08e95	-0.10964695
253	0x3db63a6e	0.08897863
254	0xbea7e334	-0.3279053
255	0xbd354969	-0.044259463

core.features.layer1.ds_conv.in_depth_conv.bias f4 [64]
0	0xba0c12f5	-0.0005343401
1	0x3d1f2988	0.038857967
2	0xbd992f00	-0.07479668
3	0x3e300a2c	0.1719138
4	0xbecc40dc	-0.39893234
5	0x3e2557f7	0.16146837
6	0x3e59d93e	0.21274278
7	0xbdc9f239	-0.098606534
8	0xbe3d157b	-0.18465225
9	0xbde4fe2b	-0.11181291
10	0x3d866241	0.06561709
11	0x3deb0fed	0.11477647
12	0x3de95777	0.11393636
13	0x3e19ea9c	0.15030903
14	0xbe1dd124	-0.15411812
15	0x3dbb6894	0.09150806
16	0xbe1e1080	-0.15435982
17	0xbdae9f92	-0.08526529
18	0x3d9bd5b1	0.07609118
19	0xbd6986d8	-0.057013363
20	0xbdfec325	-0.124395646
21	0xbd9ecdc7	-0.07754093
22	0xbdac082f	-0.083999984
23	0x3d723251	0.059130017
24	0xbcf6341e	-0.030054148
25	0x3d8e1ca6	0.06939058
26	0xbe61043f	-0.21974276
27	0x3dd42535	0.10358659
28	0x3e77486b	0.24148719
29	0x3e3725a1	0.17885448
30	0x3d4ec7ce	0.050483517
31	0x3e14de0f	0.14537834
32	0xbe368290	-0.17823243
33	0xbe23dbad	-0.16001768
34	0xbd8be359	-0.068304725
35	0x3f7f6fa2	0.99779713
36	0xbd175534	-0.03694649
37	0xbe8ce3ba	-0.27517492
38	0x3f0e2cc4	0.55537057
39	0x3ee1cda7	0.44102213
40	0x3d8c10b5	0.06839124
41	0xbe669472	-0.22517565
42	0x3d2d22de	0.04226958
43	0x3db395ae	0.087687835
44	0x3f0791e9	0.52957016
45	0xbe313450	-0.17305112
46	0x3c6ff8bd	0.014646706
47	0x3e39b867	0.1813675
48	0xbe8f6bc2	-0.280119
49	0x3e0e84ca	0.13917843
50	0x3e16b935	0.14719088
51	0x3e223b72	0.15842989
52	0x3a0e0239	0.00054172013
53	0xbdaea005	-0.08526615
54	0x3da3b875	0.07994167
55	0xbec392ea	-0.38198024
56	0xbe7a5c7f	-0.24449347
57	0xbf238443	-0.6387369
58	0xbe78e348	-0.24305451
59	0x3e086f8d	0.13323803
60	0xbe529045	-0.20562847
61	0x3ddf112a	0.10891946
62	0xbed7a5e8	-0.42118764
63	0xbdce6b87	-0.10079103

core.features.layer1.ds_conv.spatial_conv.weight f4 [64, 1, 7, 7]
0	0xbead01f3	-0.3379055
1	0xbe8764f5	-0.26444212
2	0x3ee66bf0	0.45004225
3	0x3f7c9f07	0.98680156
4	0x3da20d92	0.079127446
5	0xbed6e38d	-0.41970482
6	0xbf2e0654	-0.67978406
7	0xbdf502cd	-0.11963425
8	0xbe5a51e0	-0.21320295
9	0x3eaf66c3	0.34258088
10	0x3f6a064a	0.91415846
11	0x3e78e55a	0.2430624
12	0xbe350160	-0.17676306
13	0xbf343ace	-0.7040223
14	0x3dcc5e9b	0.09978982
15	0xbebb37cb	-0.36566004
16	0xbedb735a	-0.42861444
17	0x3dd2e3a8	0.10297328
18	0x3ce7a30a	0.028275985
19	0xbc82a6a9	-0.01594861
20	0xbee6b772	-0.45061833
21	0x3ebbaca9	0.36655167
22	0xbd4b1b23	-0.049586426
23	0xbed30f37	-0.41222546
24	0x3ca9304e	0.020652916
25	0x3df112fe	0.117712006
26	0x3e5fa002	0.21838382
27	0xbe4c2169	-0.1993462
28	0x3e03b244	0.12860972
29	0xbcc3fd77	-0.023924572
30	0xbe702525	-0.2345167
31	0x3da58a8b	0.080830656
32	0x3e90f439	0.28311327
33	0x3ea49849	0.32147434
34	0x3d9b1971	0.07573212
35	0x3d9c0f8c	0.07620153
36	0xbcddf793	-0.027095592
37	0xbe033591	-0.12813403
38	0x3d4fe7fb	0.050758343
39	0x3e14b411	0.14521815
40	0x3c8d9e40	0.017287374
41	0xbdcf5e7f	-0.101254456
42	0x3dd06f04	0.101774246
43	0xbbc9affe	-0.006155013
44	0xbdef0009	-0.116699286
45	0xbc44a672	-0.012002574
46	0x3e1dabef	0.15397619
47	0x3b84dd44	0.004054697
48	0xbe83bfbd	-0.25732222
49	0x3e02310d	0.12714024
50	0x3c9c4ca0	0.019079506
51	0xbd6098a3	-0.054833066
52	0xbdd58917	-0.104265384
53	0xbdba06a7	-0.090833
54	0xbe4bb9d3	-0.19895105
55	0xbe89bae0	-0.26900387
56	0x3e6bd94f	0.23032115
57	0x3d81dc95	0.06340901
58	0xbb533c00	-0.0032231808
59	0xbcf49f25	-0.029861042
60	0x3c968362	0.018373195
61	0xbd5b4a7f	-0.053537842
62	0xbe84baf9	-0.259239
63	0x3e7fd778	0.24984539
64	0x3e06623d	0.13123412
65	0x3d8ee828	0.06977874
66	0xbc6dfae1	-0.014525146
67	0x3db3caab	0.0877889
68	0x3d9a1e2d	0.07525287
69	0xbe00838d	-0.12550183
70	0x3e7f3fc8	0.24926674
71	0x3dea3278	0.114354074
72	0xbc7f7487	-0.015591747
73	0xbcb1a0a7	-0.02168305
74	0x3dc5abb8	0.096518934
75	0x3e20cac2	0.15702346
76	0x3d5dfd1d	0.054196466
77	0x3e1590fc	0.14606088
78	0x3e0229fa	0.12711325
79	0xbd164207	-0.036684062
80	0xbd455e6d	-0.048185755
81	0x3e09f979	0.13474073
82	0x3e4804bd	0.19533058
83	0x3e46b443	0.19404702
84	0x3d2c58c4	0.04207684
85	0x3dbfa097	0.09356802
86	0xbcba5588	-0.022745863
87	0xbe19752d	-0.14986105
88	0xbbf30d75	-0.0074173757
89	0x3d9e7dcf	0.0773884
90	0x3df9be7d	0.12194536
91	0x3de77312	0.11301245
92	0x3db6d253	0.08926835
93	0xbc6bf289	-0.014401087
94	0xbe491288	-0.19635975
95	0xbe35b678	-0.17745388
96	0xbe082794	-0.13296348
97	0xbde48658	-0.111584365
98	0xbd50df5e	-0.05099427
99	0x3d6aa17e	0.057282917
100	0xbdd689fb	-0.104755364
101	0xbe58a30d	-0.21155949
102	0xbd802365	-0.06256751
103	0x3d8ffe23	0.070308946
104	0x3e7e6fff	0.2484741
105	0xbdce9a16	-0.10087983
106	0x3de4520d	0.111484624
107	0x3deb8aa2	0.115010515
108	0x3be3cb10	0.006951697
109	0x3d003310	0.031298697
110	0xbc1d69c2	-0.009607734
111	0xbd172097	-0.036896314
112	0xbde320d5	-0.110902466
113	0x3d72f730	0.059317768
114	0x3e1bdce2	0.15220979
115	0x3c563b59	0.013075673
116	0xbd5f21e7	-0.05447569
117	0xbe126abc	-0.14298528
118	0xbe2a4d53	-0.1663106
119	0xbe90c84c	-0.28277814
120	0xbd5af709	-0.053458247
121	0x3e1e2e9c	0.15447468
122	0xbc946ab2	-0.018117283
123	0xbdcb50df	-0.09927534
124	0xbe470d87	-0.19438754
125	0xbe6e4574	-0.23268682
126	0xbf03ef4b	-0.5153701
127	0xbe30c7fa	-0.17263785
128	0xbccd6b26	-0.025075506
129	0xbc91f309	-0.017816084
130	0x3d412f1c	0.047164068
131	0xbd17375d	-0.036918033
132	0xbd993206	-0.07480244
133	0xbee483bd	-0.44631758
134	0xbe3e951a	-0.18611565
135	0x3c066c8f	0.008204593
136	0xbb2bef9a	-0.0026235343
137	0x3c5ea5ac	0.013589304
138	0x3cc1799a	0.023617554
139	0xbdbeb998	-0.09312743
140	0xbe6962b3	-0.22791557
141	0xbe040a80	-0.1289463
142	0xbd8140e8	-0.06311208
143	0x3d6a1723	0.05715097
144	0x3de86d6c	0.113489956
145	0x3e342607	0.17592631
146	0x3d3912e9	0.04518405
147	0xbe384062	-0.1799331
148	0xbb23f373	-0.0025016933
149	0x3d17203b	0.03689597
150	0x3cc01d2f	0.023451416
151	0xbcfd4df6	-0.030920964
152	0xbd74a5bd	-0.059728373
153	0x3b1d6b96	0.0024020425
154	0xbe9196b7	-0.284353
155	0xbe19d6d8	-0.15023363
156	0xbdb2af7a	-0.08724876
157	0xbd17f3be	-0.037097685
158	0xbd56cd0f	-0.052441653
159	0xbd942a31	-0.0723461
160	0xbce9fa32	-0.028561685
161	0xbef49334	-0.47768557
162	0xbe992419	-0.29910353
163	0xbe581781	-0.21102716
164	0xbd394109	-0.045228038
165	0x3c8e3c63	0.017362779
166	0xbd99cb4d	-0.0750948
167	0xbca6f72d	-0.020381534
168	0xbebd2393	-0.36941203
169	0xbe9883eb	-0.29788145
170	0xbdb5fb10	-0.08885777
171	0x3c7451dc	0.014912095
172	0xbc0fc39f	-0.008774667
173	0xbd5b7935	-0.05358239
174	0xbd3188ee	-0.043343477
175	0x3da8308e	0.08212386
176	0x3dfff5b0	0.12498033
177	0x3d952dad	0.072841026
178	0x3e144afc	0.1448173
179	0x3dac1b99	0.08403701
180	0x3c009393	0.007847684
181	0xbd05cb71	-0.03266472
182	0x3e1e0f32	0.15435484
183	0x3e21c90c	0.1579935
184	0x3e1ea851	0.15493895
185	0x3e18242e	0.14857551
186	0x3d3b82ef	0.045779165
187	0xbd6c9dbd	-0.05776762
188	0xbc8898a7	-0.016674353
189	0x3d1bf454	0.038074806
190	0x3e641928	0.22275221
191	0x3e74e744	0.23916346
192	0x3e90a9f3	0.2825466
193	0x3e12cded	0.14336367
194	0x3c7e4768	0.015519954
195	0x3dc4adc0	0.09603453
196	0xbe870c3a	-0.26376516
197	0xbe96cc60	-0.294528
198	0xbe72dbb5	-0.23716624
199	0xbec8525f	-0.39125344
200	0xbeb15123	-0.34632215
201	0xbe5e6b8b	-0.21720712
202	0xbdb24fcb	-0.087066256
203	0xbe046ef9	-0.12932958
204	0xbde30205	-0.110843696
205	0xbe30e7f8	-0.17275989
206	0xbe3d69a7	-0.18497334
207	0xbe44f7e5	-0.1923519
208	0xbe06212f	-0.13098596
209	0xbce2093d	-0.027592296
210	0x3d9ef3a5	0.07761315
211	0x3cca9c6d	0.024732793
212	0x3c69df30	0.014274403
213	0xbd8ddd39	-0.069269605
214	0xbd07001d	-0.032959092
215	0x3d1d099b	0.03833924
216	0xbcc059d7	-0.023480339
217	0x3d0b0b1c	0.03394614
218	0xbcc0abc9	-0.023519414
219	0xbc02503e	-0.007953702
220	0xbe08f0da	-0.13373128
221	0xbc3cf79a	-0.011533642
222	0x3b8597bc	0.004076926
223	0xbd0c1f16	-0.034209333
224	0x3d664454	0.056217507
225	0x3c279313	0.010227936
226	0xbc4841db	-0.012222732
227	0xbd2f3aa6	-0.04278054
228	0x3d538a6c	0.05164568
229	0x3e460f8d	0.1934187
230	0x3e0f2b74	0.1398142
231	0x3e33ae0f	0.17546867
232	0x3c29400c	0.010330211
233	0x3b9358e8	0.0044966824
234	0xbe00a599	-0.1256317
235	0x3b245623	0.0025075756
236	0x3e385106	0.17999658
237	0x3e21cfb1	0.15801884
238	0x3ee88339	0.45412615
239	0x3e562bda	0.20915166
240	0xbb795a92	-0.003804837
241	0xbe844be6	-0.25839156
242	0xbe2bea18	-0.16788518
243	0xbd8929d4	-0.06697431
244	0xbd8c0ef2	-0.06838788
245	0x3d3ae147	0.045624997
246	0xbdc63509	-0.096780844
247	0xbd682319	-0.056674097
248	0xbbad2b8e	-0.005284733
249	0xbd9761e5	-0.07391719
250	0xbc5c791c	-0.013456609
251	0xbd6600ba	-0.056153037
252	0x3d8a5f64	0.067564756
253	0xbd91b01c	-0.07113668
254	0xbd8ef9d3	-0.06981244
255	0xbd0427c9	-0.032264505

core.features.layer1.ds_conv.spatial_conv.bias f4 [64]
0	0xbdf9faa8	-0.12206012
1	0x3d6935a5	0.056935925
2	0xbda3b06b	-0.079926334
3	0xbdc165c3	-0.09443238
4	0x3d9c275b	0.07624694
5	0x3e0f92b9	0.14020814
6	0xbd2e784a	-0.042595185
7	0x3e0cc595	0.13747247
8	0x3c8fd187	0.017555965
9	0x3dc7a759	0.09748716
10	0x3da130f9	0.07870669
11	0xbdb4fd9d	-0.088374354
12	0x3d2d61bc	0.042329535
13	0xbe68d600	-0.22737885
14	0x3df31a48	0.11870247
15	0xbdb788b9	-0.08961625
16	0xbddbbdd8	-0.10729569
17	0x3d370208	0.04467967
18	0x3d908175	0.07055942
19	0xbe127220	-0.14301348
20	0xbda25a38	-0.07927364
21	0x3d97314e	0.07382451
22	0xbd77c21a	-0.060487844
23	0x3cce1ee3	0.025161212
24	0x3d8bb885	0.06822304
25	0x3e35b928	0.17746413
26	0xbe29d0aa	-0.16583505
27	0xbdcecb76	-0.10097401
28	0x3cdcb874	0.026943423
29	0xbd922da9	-0.07137615
30	0x3e12d703	0.14339833
31	0x3d7e381e	0.062065236
32	0xbdc9263b	-0.09821745
33	0x3d2cd0d1	0.04219133
34	0x3e7c67a8	0.24648917
35	0xbe9e3a6c	-0.30903947
36	0xbd78c60c	-0.060735747
37	0x3cb6589e	0.022259053
38	0xbd65af5b	-0.056075435
39	0x3e1405a9	0.14455284
40	0xbdde81c2	-0.10864593
41	0xbcfa44d1	-0.030550392
42	0xbd7abf83	-0.061217796
43	0xbe2266a1	-0.15859462
44	0x3e745225	0.2385946
45	0xbbc76d6d	-0.0060860426
46	0xbc9524b7	-0.018205984
47	0x3cdeac29	0.027181702
48	0x3ca1d47b	0.019754639
49	0xbc72585e	-0.014791576
50	0xbdc91d39	-0.09820027
51	0xbe974d2e	-0.2955107
52	0x3e038e12	0.12847164
53	0x3d505910	0.050866187
54	0xbdbce007	-0.09222417
55	0xbe14cc5f	-0.14531086
56	0xbc83d7fd	-0.016094202
57	0x3e081128	0.13287795
58	0xbd86f4cc	-0.0658966
59	0x3cb2d467	0.021829797
60	0x3e73dc9c	0.23814625
61	0x3df342ee	0.11878
62	0x3dd766b1	0.10517634
63	0x3db7591f	0.089525454

core.features.layer1.ds_conv.out_depth_conv.weight f4 [64, 64, 1, 1]
0	0xbec392bc	-0.38197887
1	0x3ece1452	0.40249878
2	0x3e7efe4b	0.24901693
3	0x3ee28ac3	0.44246492
4	0x3ebebf56	0.37255353
5	0xbdaef0a1	-0.0854199
6	0xbdfce2cc	-0.123479456
7	0xbf00e2c4	-0.50346017
8	0xbe96d840	-0.2946186
9	0xbd2fc791	-0.04291493
10	0x3e046a7f	0.1293125
11	0xbec9e7c5	-0.3943464
12	0xbf3612a7	-0.7112221
13	0xbdb5b874	-0.08873072
14	0x3e48197b	0.1954097
15	0x3eb5a918	0.3548057
16	0xbcbd7da9	-0.023131208
17	0xbe5794f6	-0.21052918
18	0x3f05c06e	0.5224675
19	0xbe037431	-0.12837292
20	0x3ea0c20b	0.31398043
21	0xbb917231	-0.0044386615
22	0xbd987256	-0.07443683
23	0xbdb84d0c	-0.089990705
24	0x3ef69d13	0.48166713
25	0xbccadbde	-0.024763044
26	0xbed55c95	-0.41672197
27	0x3e6bc612	0.23024777
28	0xbdf2c6f0	-0.118543506
29	0xbe992c48	-0.29916596
30	0x3cf48d67	0.029852582
31	0x3db7d067	0.089752965
32	0xbcfe48a5	-0.031040499
33	0xbd974939	-0.07387013
34	0x3d26dd3a	0.04073832
35	0xbea13704	-0.31487286
36	0xbe076c51	-0.13224913
37	0x3ccb72e9	0.024835067
38	0xbe5d7206	-0.21625528
39	0x3c5e202d	0.013557476
40	0x3e4f8c6f	0.20268415
41	0xbe66401c	-0.22485393
42	0x3e47f23b	0.19525997
43	0x3e0e4b03	0.13895802
44	0xbee06924	-0.43830216
45	0x3e460fbc	0.1934194
46	0x3e065bf4	0.13121015
47	0xbcee4a5a	-0.029088188
48	0x3eadbd63	0.33933553
49	0xbc0bfad7	-0.008543692
50	0xbe08d133	-0.13361053
51	0x3e8c07a4	0.2734958
52	0xbd40d188	-0.047074825
53	0xbd63ac71	-0.055584375
54	0x3f33d5f1	0.70248324
55	0xbe276abb	-0.16349308
56	0x3cd65861	0.02616519
57	0x3edd6faf	0.4324927
58	0x3f005297	0.5012602
59	0xbd0957ad	-0.03353088
60	0x3cc33257	0.023827715
61	0xbd5fae89	-0.05460981
62	0x3e32eb7c	0.17472643
63	0xbf12a144	-0.5727732
64	0x3ea526ab	0.32256064
65	0xbe7c3e7c	-0.24633211
66	0xbe89dd8d	-0.26926842
67	0x3e81a826	0.253236
68	0x3dbd4dae	0.09243332
69	0xbdbbed88	-0.09176165
70	0xbd0849d4	-0.033273533
71	0xbf603158	-0.8757529
72	0x3e2ed648	0.1707393
73	0x3eefd288	0.4684031
74	0xbe8eba3c	-0.2787646
75	0x3db2d2ae	0.0873159
76	0xbe965527	-0.2936184
77	0xbd9c36da	-0.076276496
78	0x3dbe4be2	0.09291817
79	0xbe8fbc24	-0.28073227
80	0x3e7765f8	0.24159992
81	0xbe8e12da	-0.27748758
82	0xbd282e74	-0.041059926
83	0x3e16d24e	0.14728662
84	0x3f0e50a3	0.5559179
85	0xbe75800b	-0.23974626
86	0x3c7f116d	0.0155681195
87	0x3e3a4b53	0.18192796
88	0x3d885e7c	0.066586465
89	0x3e4c8bc6	0.19975194
90	0xbe06a89d	-0.13150258
91	0xbd992ad9	-0.07478876
92	0x3d975942	0.073900715
93	0xbf06f894	-0.5272305
94	0x3c873605	0.01650525
95	0x3ee4dcec	0.446998
96	0x3eac689b	0.33673558
97	0x3e122e88	0.14275563
98	0x3f40c08a	0.7529379
99	0xbd436da4	-0.047711983
100	0x3ebaaaf0	0.3645854
101	0x3e497f04	0.19677359
102	0x3e86ba3e	0.26313967
103	0xbb97c894	-0.004632065
104	0xbd9f3985	-0.07774643
105	0xbe5881b9	-0.21143235
106	0xbea60122	-0.3242274
107	0x3e4a7fad	0.19775267
108	0x3d2ffc3b	0.042965155
109	0xbe5cd071	-0.21563889
110	0x3f9d50d4	1.2290292
111	0xbd8aaf92	-0.06771769
112	0x3d26faa2	0.040766366
113	0x3eabe761	0.33574966
114	0x3eea9c92	0.4582258
115	0xbed1ffe5	-0.41015545
116	0x3da4864c	0.080334276
117	0x3e375c42	0.17906287
118	0x3df7fd50	0.121088624
119	0x3d0e2786	0.03470566
120	0xbeda3206	-0.4261629
121	0xbe5ec633	-0.21755295
122	0xbeb88733	-0.3604065
123	0xbe838d7e	-0.25693887
124	0xbe072f1c	-0.13201565
125	0x3e3f7580	0.18697166
126	0x3e9e46c2	0.3091336
127	0xbe1bf1b5	-0.15228923
128	0xbea7c149	-0.32764652
129	0xbd048be8	-0.032359987
130	0x3e6fb859	0.23410167
131	0xbeaf9dcf	-0.34300086
132	0x3e8545d1	0.26029828
133	0x3deaba4a	0.11461313
134	0x3ddcf16b	0.10788234
135	0x3ce8153a	0.028330434
136	0x3f012496	0.5044645
137	0xbf10b409	-0.5652471
138	0xbe1cb605	-0.1530381
139	0x3e2d929f	0.16950463
140	0x3cd7f370	0.026361197
141	0x3dd5852b	0.104257904
142	0x3ebaa5d5	0.36454645
143	0x3ec9f343	0.39443406
144	0x3e0ccafd	0.13749309
145	0x3ea71e4e	0.32640308
146	0x3f4a2c59	0.7897392
147	0xbcf539c5	-0.029934773
148	0x3d1c680e	0.03818517
149	0x3e140aeb	0.1445729
150	0xbeab91c0	-0.33509636
151	0xbc17e032	-0.009269761
152	0x3eb0384c	0.3441795
153	0x3e7ac73b	0.24490063
154	0x3dad842b	0.08472475
155	0xbdc99aa7	-0.09843951
156	0xbd32aba8	-0.043620735
157	0xbea15c11	-0.31515554
158	0xbde0ed73	-0.1098279
159	0x3db46944	0.0880914
160	0x3f050f55	0.5197652
161	0xbd7c4810	-0.06159216
162	0x3e97a59b	0.29618534
163	0xbe18f0ff	-0.14935683
164	0x3dd7fa95	0.105458416
165	0xbe7c9f3a	-0.24670115
166	0xbf0065f4	-0.5015557
167	0x3ef6d95b	0.48212704
168	0x3b19e645	0.0023483199
169	0x3e42d9f1	0.1902845
170	0x3ee376f3	0.4442669
171	0x3d276426	0.040866993
172	0x3e154303	0.14576344
173	0x3deb0b6a	0.114767864
174	0xbe9b7910	-0.303658
175	0xbe3d2b4d	-0.18473549
176	0x3e045e8a	0.12926689
177	0x3d57775e	0.05260407
178	0x3d70be8b	0.058775466
179	0x3d4b5bed	0.049648214
180	0xbf0af9a1	-0.54287153
181	0x3e33d4ca	0.17561641
182	0xbe7c0829	-0.24612488
183	0x3e8ab203	0.27088937
184	0x3ea09ac8	0.3136809
185	0x3ce6b3d1	0.028161915
186	0x3c0bef52	0.008540945
187	0xbdf3d854	-0.11906496
188	0x3f0e8fda	0.5568825
189	0x3dab4cb3	0.083642386
190	0x3e55f3e4	0.20893818
191	0xbe147824	-0.14498955
192	0xbe1379ed	-0.1440198
193	0xbd8b297c	-0.06795022
194	0x3d91776b	0.07102855
195	0x3d6c4b92	0.057689257
196	0x3dac43f9	0.08411402
197	0xbc1bd1ec	-0.0095104985
198	0xbc402715	-0.011728068
199	0xbdd9474c	-0.10609302
200	0x3ed57989	0.41694286
201	0xbebb8dcf	-0.3663163
202	0xbf3c7dce	-0.7362946
203	0xbe1b5195	-0.1516784
204	0x3e2d060e	0.16896841
205	0x3e783b8c	0.24241465
206	0x3df18196	0.11792295
207	0xbda85827	-0.08219939
208	0xbe2b6703	-0.16738515
209	0x3dd6d0e3	0.10489061
210	0x3e33ec9f	0.17570733
211	0x3d4ad4e3	0.04951943
212	0xbf0c8e30	-0.5490446
213	0x3d0843c9	0.03326777
214	0x3dcf479b	0.101210795
215	0xbed1976c	-0.40935838
216	0xbdc68d39	-0.09694905
217	0xbcd26143	-0.025681144
218	0x3e30edd0	0.17278218
219	0xbd060ace	-0.032725148
220	0xbe0af104	-0.13568503
221	0xbd067cf1	-0.032833997
222	0xbdc9d465	-0.09854964
223	0x3e88b964	0.26703942
224	0x3e65a718	0.22427022
225	0x3b76f570	0.0037682913
226	0x3db5eacf	0.08882677
227	0x3e3b842f	0.18312143
228	0x3ec0cce1	0.3765631
229	0xbdba7ffc	-0.09106442
230	0x3e182cb6	0.14860806
231	0x3e91dc21	0.28488258
232	0xbef051d8	-0.46937442
233	0x3e24940e	0.16072103
234	0x3dc7dcfe	0.09758948
235	0x3defb78a	0.11704929
236	0xbe7fb1f7	-0.24970232
237	0xbebfb262	-0.37440783
238	0x3db1b60d	0.086773016
239	0x3ebbb21c	0.36659324
240	0x3e17047b	0.14747803
241	0x3e2d4652	0.16921356
242	0x3f076267	0.52884525
243	0x3f3d9a55	0.74063617
244	0xbea753fa	-0.32681257
245	0xbc8a028e	-0.016846921
246	0xbdacb65b	-0.08433219
247	0x3e5cd656	0.21566138
248	0x3d839498	0.064248264
249	0xbdb769b4	-0.08955708
250	0xbeb33ca2	-0.35007197
251	0x3ea3df44	0.32006276
252	0x3dbc63bf	0.091987126
253	0x3e7dfe8e	0.24804136
254	0x3e1200cd	0.14258118
255	0xbb6a8e5c	-0.003579042

core.features.layer1.ds_conv.out_depth_conv.bias f4 [64]
0	0xbc07dce5	-0.008292411
1	0xbda0eca1	-0.078576334
2	0x3cedc4d9	0.029024528
3	0xbd6b2fc1	-0.05741859
4	0x3da7f324	0.08200672
5	0x3d49d9ef	0.049280103
6	0xbdd0014b	-0.101564966
7	0x3d61b207	0.05510142
8	0x3de34252	0.11096634
9	0x3ca20042	0.019775514
10	0x3dee519c	0.116366595
11	0x3d13e397	0.03610572
12	0x3da498dc	0.08036968
13	0xbdf2d722	-0.118574396
14	0x3bdf5d66	0.006816554
15	0xbd72dfc6	-0.05929544
16	0x3d905fe1	0.070495375
17	0xbd05a8b0	-0.032631576
18	0x3d8b80d4	0.068116814
19	0x3e96398e	0.29340786
20	0xbda38ff4	-0.07986441
21	0x3d59b7da	0.05315385
22	0xbd4b8ce5	-0.049694914
23	0x3d292d2b	0.04130284
24	0x3dbbe5a3	0.09174659
25	0xbc870ad9	-0.016484665
26	0xbd0f1cd8	-0.034939617
27	0x3db3e253	0.08783402
28	0x3d5e8c27	0.05433288
29	0xbdca0612	-0.09864439
30	0x3da342c8	0.07971722
31	0xbe2e5cb8	-0.17027557
32	0x3e1908c6	0.14944753
33	0x3bbb331e	0.0057128808
34	0xbd7b4dfe	-0.061353676
35	0x3d9470a2	0.072480455
36	0xbcee0f4d	-0.02906003
37	0x3d6525f5	0.0559444
38	0x3dced94d	0.101000406
39	0xbd16dc11	-0.036830965
40	0x3d83c04b	0.06433161
41	0xbdbe13cb	-0.09281119
42	0xbbc2d97b	-0.005946336
43	0x3bdf3537	0.0068117636
44	0xbd2496b2	-0.040182777
45	0x3dd169b5	0.1022524
46	0x3e1431aa	0.1447207
47	0xbdf24d0b	-0.11831101
48	0x3d0c09b3	0.034188937
49	0x3dd9acbc	0.106286496
50	0xbd11a7e3	-0.0355605
51	0xbd73c8ee	-0.059517793
52	0xbe0a9e1f	-0.13536881
53	0xbd887e9a	-0.06664772
54	0xbbd819f4	-0.0065948907
55	0x3c502d9e	0.0127061885
56	0xbda51b10	-0.080618024
57	0x3de44fbb	0.1114802
58	0xbd622a86	-0.055216335
59	0xbdb43c26	-0.08800535
60	0xbd2c9403	-0.042133342
61	0xbd2f72a0	-0.042833924
62	0xbd9e02d9	-0.07715387
63	0x3e923333	0.28554687

core.features.layer1.norm.weight f4 [64]
0	0x3f9e7cfc	1.2381892
1	0x3fbc1d8b	1.4696516
2	0x3f89703d	1.0737377
3	0x3fac74f5	1.3473192
4	0x3fb98ff8	1.4497061
5	0x3fc65757	1.5495404
6	0x3fb16877	1.3860005
7	0x3fb7d7b5	1.4362704
8	0x3fa1f7e6	1.2653778
9	0x3f9317e2	1.1491663
10	0x3f637d57	0.8886313
11	0x3f91c20b	1.1387342
12	0x3fd206df	1.6408347
13	0x3fb53fb3	1.4160064
14	0x3fab75e5	1.3395354
15	0x3fa34cc0	1.2757797
16	0x4004dfc7	2.0761583
17	0x3fac94d1	1.3482915
18	0x3fab10bc	1.3364482
19	0x4026c23b	2.605605
20	0x3f9a227d	1.2041775
21	0x3ffc1517	1.9693936
22	0x3f7f1721	0.99644667
23	0x3f696e3b	0.91183823
24	0x3f8046c6	1.0021598
25	0x3f340f71	0.7033606
26	0x3fa17fba	1.2617104
27	0x3ff9c841	1.9514238
28	0x3fcf294c	1.6184478
29	0x3fb648c9	1.4240962
30	0x3fb310c4	1.3989491
31	0x3fce5e69	1.6122562
32	0x3fa41d68	1.2821474
33	0x3faf53c7	1.3697442
34	0x3fbc43d0	1.4708195
35	0x3fb2d77e	1.3972013
36	0x3fea06d0	1.8283329
37	0x40064ece	2.0985599
38	0x3fb40b78	1.4066
39	0x3fb24235	1.3926455
40	0x3f8164d2	1.0108893
41	0x3f717787	0.9432301
42	0x3fd2fd3e	1.6483533
43	0x3fbc5fb4	1.4716706
44	0x3fd4b388	1.6617289
45	0x3fdcc95c	1.724895
46	0x3fc86643	1.5656208
47	0x3fc68018	1.5507841
48	0x3fb16805	1.3859869
49	0x3f917c03	1.136597
50	0x3f90c632	1.1310484
51	0x3f9c697b	1.221969
52	0x3f49f4af	0.7888898
53	0x3fa3939c	1.2779422
54	0x3fca1d7a	1.5790246
55	0x3fbf036c	1.4922919
56	0x3fb81af5	1.4383227
57	0x3f909bd6	1.1297557
58	0x4023d0c3	2.5596168
59	0x3f976fb0	1.1830959
60	0x3f90fe64	1.1327634
61	0x3f8ccc7f	1.0999907
62	0x3fe39926	1.7781112
63	0x3fdceeb7	1.726035

core.features.layer1.norm.bias f4 [64]
0	0xbeaad249	-0.3336356
1	0xbe9ad9d5	-0.30244318
2	0xbc5d039a	-0.013489628
3	0xbe321d3c	-0.17393965
4	0xbf1e6c39	-0.61883885
5	0xbf097166	-0.5368866
6	0xbed24c47	-0.4107382
7	0xbf1a70c3	-0.6032831
8	0xbf4e8bb3	-0.80681914
9	0xbede451b	-0.43412098
10	0xbdae3280	-0.08505726
11	0xbe950a83	-0.29109582
12	0xbf502c1f	-0.81317323
13	0xbe7b4bed	-0.24540682
14	0xbed38c6d	-0.41318074
15	0xbe5c10b7	-0.21490751
16	0xbf20d66d	-0.6282719
17	0xbe637835	-0.22213824
18	0xbc88f9f5	-0.016720751
19	0xbf4f686e	-0.8101872
20	0xbda7fb4a	-0.082022265
21	0xbf4893e3	-0.7835066
22	0xbd2f689a	-0.042824365
23	0xbe594ed7	-0.21221481
24	0xbe2d5c54	-0.16929752
25	0xbe32807f	-0.1743183
26	0xbedf6dd1	-0.4363847
27	0xbf3e88e1	-0.7442761
28	0xbe7d930c	-0.24763125
29	0xbeedf46c	-0.46475542
30	0xbdf3ec38	-0.119102895
31	0xbeb110cd	-0.3458313
32	0xbeb36d19	-0.35044172
33	0xbdb30d42	-0.08742763
34	0xbf1273e8	-0.5720811
35	0xbebca1b6	-0.36842126
36	0xbf42425c	-0.75882506
37	0xbf23af2c	-0.63939166
38	0xbef214f0	-0.472816
39	0xbbeaab78	-0.007161554
40	0xbecaffd7	-0.39648315
41	0xbe832778	-0.2561605
42	0xbe9d0c20	-0.30673313
43	0xbf0cd192	-0.5500728
44	0xbee059c1	-0.43818477
45	0x3e224010	0.1584475
46	0xbec65427	-0.38736078
47	0xbe9bd168	-0.30433202
48	0x3d1b030d	0.037844706
49	0xbefb803e	-0.4912128
50	0xbebc0f47	-0.36730406
51	0xbcc52a30	-0.024067968
52	0xbe024394	-0.12721092
53	0xbf1a13ab	-0.6018626
54	0xbf31eb68	-0.69499826
55	0xbdc51af5	-0.09624282
56	0xbe390f72	-0.18072298
57	0xbd231094	-0.039810732
58	0xbf18625f	-0.595251
59	0xbeb5bf44	-0.35497487
60	0xbe1b19d8	-0.15146577
61	0x3b962822	0.004582421
62	0xbf872a5e	-1.0559804
63	0xbee24a7c	-0.44197452

core.features.layer1.norm.running_mean f4 [64]
0	0xc07990a2	-3.8994527
1	0x3f21f28d	0.6326073
2	0xbfb65979	-1.4246055
3	0x3f797070	0.9743719
4	0x3f07ed98	0.53096914
5	0xbf889b3c	-1.0672374
6	0xbeb57f0b	-0.3544849
7	0xc0004d23	-2.004708
8	0xbf8a4818	-1.0803251
9	0xc089619b	-4.2931647
10	0x40633bc7	3.5505235
11	0xbfd572e7	-1.667569
12	0xc10ec755	-8.923665
13	0xc09e108d	-4.9395204
14	0xc0250e3f	-2.5789945
15	0xc06a9b56	-3.665731
16	0xbf85d77a	-1.0456383
17	0xc0679eb5	-3.6190617
18	0xc076bc22	-3.8552327
19	0x3e4fe206	0.20301065
20	0xc08d2b3e	-4.4115286
21	0x3f35a8e3	0.70960826
22	0x4041e7ef	3.029781
23	0xbe341a64	-0.17588192
24	0x410e3687	8.888312
25	0x4009a171	2.1504786
26	0xc077e01d	-3.8730538
27	0x3f41ace6	0.7565445
28	0xc0012ad0	-2.018238
29	0xc03a98ce	-2.9155765
30	0xc080a626	-4.020282
31	0xc006731e	-2.1007762
32	0x4090611c	4.511854
33	0x4132238d	11.133679
34	0x3fd6982c	1.6765189
35	0x3ed264f7	0.41092655
36	0xbf843e7e	-1.0331571
37	0xbf0eb8a8	-0.55750513
38	0x3ebe590e	0.37177318
39	0xc05b3ea8	-3.4256992
40	0xc062da2d	-3.5445664
41	0x3fb831e2	1.4390223
42	0xbedef9e7	-0.43550035
43	0xc05858a8	-3.3804111
44	0xc0ab5208	-5.3537636
45	0xc0a5ebea	-5.185048
46	0xc0747bbe	-3.8200526
47	0x3f8eb08e	1.114763
48	0xc0627705	-3.5385144
49	0xc03576fa	-2.8353868
50	0xc090646f	-4.51226
51	0x40783202	3.8780522
52	0x40b0baf0	5.5228195
53	0xc09f4588	-4.9772377
54	0x402dae67	2.7137697
55	0xbf8c3455	-1.095347
56	0xc044a5e7	-3.0726259
57	0xc080aff8	-4.0214806
58	0xbf48e8f5	-0.78480464
59	0xbf127e8a	-0.57224333
60	0xc0ed6cf2	-7.419549
61	0xbff55014	-1.9165063
62	0xc0b4370a	-5.6317186
63	0x3f6d7a07	0.92764324

core.features.layer1.norm.running_var f4 [64]
0	0x435c65bc	220.3974
1	0x43a5319f	330.38766
2	0x4351895f	209.5366
3	0x43cd0a25	410.07925
4	0x4396fed6	301.9909
5	0x43cf080c	414.06287
6	0x43b0f3b8	353.90405
7	0x43b49edd	361.24112
8	0x43863aa6	268.4582
9	0x436e1276	238.07211
10	0x431b31d2	155.19461
11	0x4386c63e	269.54877
12	0x4387816e	271.01117
13	0x43b28afc	357.08582
14	0x43d2de8f	421.73874
15	0x43aa0812	340.06305
16	0x44c97599	1611.6749
17	0x439e5269	316.64383
18	0x4363f52a	227.95767
19	0x44fb2945	2009.2897
20	0x43cfcb74	415.58948
21	0x4411ffa2	583.99426
22	0x4346dd6b	198.86491
23	0x435659ce	214.3508
24	0x435d2010	221.12524
25	0x4335d041	181.81349
26	0x43b6dc6c	365.72205
27	0x4436a154	730.52075
28	0x43c40689	392.05106
29	0x43b0e739	353.80643
30	0x441cfbab	627.9323
31	0x44086c19	545.689
32	0x436381ef	227.50755
33	0x43a544a8	330.53638
34	0x43a56cba	330.84943
35	0x43824dcf	260.60788
36	0x444cb8f7	818.8901
37	0x4453e377	847.55414
38	0x43bb912a	375.1341
39	0x4387d76b	271.68295
40	0x4378947b	248.58
41	0x432916c4	169.08893
42	0x43cfba69	415.45633
43	0x43879368	271.1516
44	0x4384e1ad	265.7631
45	0x43c6c32d	397.5248
46	0x43481d57	200.11461
47	0x439e8246	317.01776
48	0x43c35e7f	390.73825
49	0x43bd9d10	379.22705
50	0x43462cef	198.17552
51	0x43861849	268.18973
52	0x4346ef6b	198.93523
53	0x4403047f	524.07025
54	0x43c13911	386.44583
55	0x4340bd56	192.7396
56	0x437f69d3	255.41338
57	0x43524eee	210.30832
58	0x44d09d71	1668.92
59	0x43c5966d	395.1752
60	0x432b02d7	171.0111
61	0x435e834e	222.51291
62	0x43cae5ff	405.79684
63	0x442e9e42	698.4728
