notebooks/model_tutorial/model_checkpoints/IM_p_ln_model.pth (torch, 915759 bytes, 39 tensors)

core.features.layer0.conv.weight f4 [64, 4, 9, 9]
0	0x3eda5cb5	0.42648855
1	0x3f90276f	1.1262034
2	0x3f9c724d	1.2222382
3	0x3f12ba25	0.57315284
4	0x3eca5438	0.3951738
5	0x3e3bfe70	0.18358779
6	0x3d9c0109	0.07617385
7	0x3d83c34b	0.064337336
8	0x3e11bf9d	0.14233251
9	0xbe32c25f	-0.17456959
10	0x3e7b5989	0.24545874
11	0x3ee6e101	0.4509354
12	0x3ea4dc21	0.32199195
13	0x3e64ea70	0.22355056
14	0x3d8a6e36	0.06759302
15	0x3bb4d4c3	0.0055185272
16	0x3dda664f	0.10664045
17	0x3ecb07a0	0.39654255
18	0xbea4e292	-0.3220411
19	0xbde2d265	-0.11075286
20	0xbc40768b	-0.011747013
21	0x3cebbedf	0.028777538
22	0xbe310cd6	-0.17290053
23	0xbe122237	-0.14270864
24	0xbd5c5175	-0.05378862
25	0xbd9b9dce	-0.07598458
26	0x3e9ca17e	0.3059196
27	0xbeea9762	-0.4581862
28	0xbe23e33b	-0.1600465
29	0xbe51b155	-0.20477803
30	0xbe13234d	-0.14368935
31	0xbe49b510	-0.19697976
32	0xbdf550de	-0.11978315
33	0xbd2cf329	-0.042224083
34	0xbcd83ad3	-0.026395237
35	0x3e3fab3a	0.18717661
36	0xbe5fbebe	-0.21850106
37	0xbb339271	-0.0027400518
38	0xbe00aa87	-0.12565051
39	0xbe3df9b7	-0.1855229
40	0xbdf575b2	-0.11985339
41	0xbdc49663	-0.095989965
42	0xbd3f6c1d	-0.046733964
43	0x3b87deb4	0.0041464213
44	0x3e185a68	0.14878237
45	0xbe36b151	-0.17841078
46	0xbd803495	-0.06260029
47	0xbe8303b9	-0.25588778
48	0xbe9fbb83	-0.31197748
49	0xbe02f8e2	-0.12790254
50	0xbe4b9e11	-0.19884516
51	0xbd8689a3	-0.06569221
52	0x3ba16cf0	0.0049263164
53	0xbb132a6f	-0.0022455712
54	0xbe1c613a	-0.15271464
55	0xbe1bc02a	-0.15210024
56	0xbe70ffce	-0.23535082
57	0x3e1e032a	0.15430894
58	0x3eba0e8b	0.3633922
59	0x3dcf2186	0.10113816
60	0x3e3db021	0.18524219
61	0xbbd722bf	-0.0065654214
62	0xbc6451ec	-0.013935547
63	0xbd6ea0da	-0.05825887
64	0xbe8082e6	-0.25099868
65	0xbedcfe95	-0.4316298
66	0xbcf44748	-0.029819146
67	0xbd60a878	-0.054848164
68	0xbca7c873	-0.020481324
69	0x3e0a70c4	0.13519579
70	0xbdfd240a	-0.123603895
71	0xbd28817b	-0.041139107
72	0xbe532063	-0.20617823
73	0xbef9c685	-0.4878427
74	0xbf1b6472	-0.6070014
75	0xbe48720a	-0.19574752
76	0xbe9451f3	-0.28968772
77	0xbdeb2772	-0.11482133
78	0xbd810782	-0.0630026
79	0xbe7d1cd5	-0.2471803
80	0x3b7b2366	0.003832066
81	0x3d829b3f	0.06377267
82	0x3d9d1475	0.076699175
83	0x3d8d62a2	0.06903578
84	0x3d1f7ea4	0.038939133
85	0x3d11f09e	0.03562986
86	0x3d2422b8	0.040072173
87	0x3ceba64e	0.028765824
88	0x3d340c7a	0.04395721
89	0x3d14ebff	0.036357876
90	0x3d865ecf	0.06561052
91	0x3d34767a	0.0440583
92	0x3d5eb1c1	0.054368738
93	0x3d123766	0.035697363
94	0x3c8cd7b6	0.017192703
95	0x3ce16ac9	0.02751674
96	0x3cdf7221	0.0272761
97	0x3c8b3227	0.016991688
98	0x3d7b67c9	0.061378274
99	0x3d72be77	0.059263673
100	0x3d18f4a5	0.037342686
101	0x3cf03026	0.029319834
102	0x3d6a0839	0.057136748
103	0x3d28b4bc	0.041187987
104	0x3cdf6188	0.027268186
105	0x3cc33bf9	0.023832308
106	0x3d1d176a	0.038352408
107	0x3cfae3de	0.030626234
108	0x3d428046	0.047485612
109	0x3d416b0e	0.047221236
110	0x3c9a2056	0.018814247
111	0x3d52ed46	0.051495813
112	0x3d5266e2	0.051367648
113	0x3d1a4eed	0.037672926
114	0x3d3f63ce	0.04672604
115	0x3d71163b	0.05885909
116	0x3d2ae22c	0.0417196
117	0x3d124de2	0.035718806
118	0x3d0bbcc3	0.034115564
119	0x3d46f7b1	0.04857606
120	0x3cceb7bf	0.025234101
121	0x3cc1939c	0.023629956
122	0x3d4d177c	0.050071225
123	0x3d46638e	0.048434786
124	0x3cf7fe9c	0.030272774
125	0x3d23e91a	0.040017225
126	0x3d94142a	0.072304085
127	0x3d4c6456	0.049900375
128	0x3d580d86	0.052747272
129	0x3d058cf4	0.032605127
130	0x3d159b2e	0.036524944
131	0x3d9f32d0	0.077733636
132	0x3d641681	0.055685524
133	0x3d0c73b4	0.03429003
134	0x3d209ea6	0.0392138
135	0x3d66d004	0.056350723
136	0x3d402fc2	0.046920545
137	0x3d43e572	0.047826238
138	0x3d493333	0.049121093
139	0x3d740c2a	0.059581913
140	0x3d634fbf	0.055495974
141	0x3d4edd89	0.05050424
142	0x3d97e6ff	0.07417106
143	0x3d5c993f	0.053857084
144	0x3d134160	0.03595102
145	0x3d67ffea	0.056640543
146	0x3d0172d2	0.03160364
147	0x3d31403e	0.043274157
148	0x3d2fd517	0.042927828
149	0x3d492a48	0.04911259
150	0x3d4bed7c	0.04978703
151	0x3d986ef2	0.07443036
152	0x3d3deb24	0.046366826
153	0x3cce315d	0.025170023
154	0x3d72be2b	0.05926339
155	0x3d1a9715	0.03774174
156	0x3d54663b	0.051855307
157	0x3d4fb380	0.050708294
158	0x3d7e7c79	0.062130425
159	0x3d5694c3	0.052387964
160	0x3d276a44	0.040872827
161	0x3cea1543	0.028574592
162	0xbcf3c124	-0.029755183
163	0xbd246de4	-0.040143862
164	0xbd5e2583	-0.054234993
165	0xbcd8a6d6	-0.026446741
166	0xbcae8117	-0.02130179
167	0xbc18c0b9	-0.009323292
168	0xbc9d4157	-0.019196196
169	0xbd5a368b	-0.053274672
170	0xbda1ea8e	-0.07906066
171	0xbd37839b	-0.044803243
172	0xbd3d20ac	-0.046173736
173	0xbd50c6a9	-0.050970707
174	0xbd1935a3	-0.037404668
175	0xbcc7580b	-0.024333974
176	0xbd0af929	-0.033929024
177	0xbd6a1deb	-0.05715744
178	0xbda4fd59	-0.08056135
179	0xbd5d245d	-0.053989757
180	0xbc1d563d	-0.00960308
181	0xbcd0398f	-0.025418071
182	0xbd8c6749	-0.068556376
183	0xbd43ee86	-0.047834896
184	0xbd55dd0a	-0.052212752
185	0xbd4cae60	-0.049970984
186	0xbdc77a5b	-0.09740134
187	0xbd89de25	-0.06731824
188	0xbd860d4e	-0.065455064
189	0xbcf1ae38	-0.02950202
190	0xbd6e21cc	-0.0581377
191	0xbd6a654e	-0.057225518
192	0xbd19560c	-0.037435576
193	0xbd046051	-0.032318417
194	0xbd0b074e	-0.033942513
195	0xbd876b0f	-0.06612217
196	0xbd538b92	-0.051646776
197	0xbd94b381	-0.072608
198	0xbd146548	-0.0362294
199	0xbd1763d1	-0.036960427
200	0xbcc1c529	-0.023653584
201	0xbd47fbba	-0.04882405
202	0xbd8f758e	-0.07004844
203	0xbd17a0ef	-0.037018713
204	0xbd6a450a	-0.057194747
205	0xbc1d7c8c	-0.009612214
206	0xbd715ea2	-0.05892814
207	0xbd61523d	-0.05501007
208	0xbd487134	-0.048936084
209	0xbcc1c083	-0.023651367
210	0xbd2973ab	-0.041370075
211	0xbd95a69d	-0.073071696
212	0xbd7d8fa8	-0.06190458
213	0xbd35f690	-0.044424593
214	0xbd0bbe46	-0.034117006
215	0xbd79091e	-0.06079971
216	0xbd5ff983	-0.054681312
217	0xbd45fcd2	-0.04833681
218	0xbd41f34f	-0.047351178
219	0xbcd4b13d	-0.02596342
220	0xbd30f8b4	-0.04320593
221	0xbd976945	-0.073931254
222	0xbd5fe0a6	-0.0546576
223	0xbd172efd	-0.036910046
224	0xbd5ff137	-0.0546734
225	0xbd789fc1	-0.06069923
226	0xbd8c222a	-0.06842454
227	0xbd335647	-0.043783452
228	0xbd1e86c3	-0.038702738
229	0xbd02bb93	-0.031917166
230	0xbd3322dc	-0.043734416
231	0xbcd468ef	-0.025928942
232	0xbcac53f8	-0.021036133
233	0xbd1f04d2	-0.038822956
234	0xbce65d04	-0.028120525
235	0xbd711fed	-0.058868337
236	0xbd41589a	-0.047203638
237	0xbd39d152	-0.04536564
238	0xbd0f2c64	-0.034954444
239	0xbd0304d2	-0.03198702
240	0xbd19bceb	-0.03753368
241	0xbd1ff060	-0.0390476
242	0xbd863188	-0.06552416
243	0xbcb9392e	-0.022610273
244	0xbc1a5676	-0.009420028
245	0xbc91243d	-0.017717475
246	0xbc4cda70	-0.012503251
247	0xbca6c4a2	-0.020357434
248	0xbd88ac86	-0.06673531
249	0xbcf32db6	-0.029684883
250	0xbcff25c2	-0.031145934
251	0xbd4e4cf3	-0.050366353
252	0xbc91bf82	-0.017791513
253	0xbca838cd	-0.020534897
254	0xbd1d4bbc	-0.038402304
255	0xbcb487da	-0.022037435

core.features.layer0.norm.weight f4 [64]
0	0x3f551276	0.83231294
1	0x3f5565e9	0.8335863
2	0x3f583539	0.8445621
3	0x3f5ab66f	0.8543462
4	0x3f60b55b	0.87776726
5	0x3fc27b31	1.5193845
6	0x3f73fee5	0.95310813
7	0x3fb530ee	1.4155557
8	0x3f501272	0.81278145
9	0x3f400baf	0.7501783
10	0x3f194437	0.5986971
11	0x3f992caa	1.1966755
12	0x3ff82483	1.9386142
13	0x3f72e932	0.9488708
14	0x3f594e91	0.8488551
15	0x3f8b3f29	1.087865
16	0x40140a75	2.3131382
17	0x3f71d6a1	0.9446812
18	0x3f7d7e0a	0.99020445
19	0x3f16795d	0.58778936
20	0x3f796663	0.97421855
21	0x3f6dea3b	0.9293553
22	0x3f8357d2	1.0261176
23	0x3f80ceb4	1.0063081
24	0x3fc3cf54	1.5297647
25	0x3f7a9e14	0.9789746
26	0x3f8e4d4c	1.1117339
27	0x3f48b463	0.7840025
28	0x3f447957	0.7674765
29	0x3f47a207	0.7798161
30	0x3f688ced	0.90840036
31	0x3fa75940	1.3074112
32	0x3f10a238	0.56497526
33	0x3f573ba5	0.84075385
34	0x3f68ae0d	0.9089058
35	0x3f795d0d	0.9740761
36	0x3f496adb	0.78678674
37	0x3f788a89	0.9708639
38	0x3f654e36	0.89572465
39	0x3f4f3b19	0.8094955
40	0x3f4bfc06	0.7968143
41	0x3f5007f2	0.81262124
42	0x3f73fa8e	0.9530419
43	0x3f9dc2b9	1.232505
44	0x3f5d6aac	0.86490893
45	0x3f721288	0.94559526
46	0x3f433304	0.7624972
47	0x3f5f35d9	0.8719154
48	0x3f35d476	0.71027315
49	0x3f4a44f4	0.79011464
50	0x3f918b81	1.1370698
51	0x3f425e2b	0.7592494
52	0x3f7ae3bb	0.9800374
53	0x3f788311	0.9707499
54	0x3f29c21d	0.6631182
55	0x3f38b0aa	0.7214457
56	0x3fd039d4	1.6267648
57	0x3f20e993	0.62856406
58	0x3f699985	0.9124988
59	0x3f3b8e84	0.73264337
60	0x3f642d8e	0.8913201
61	0x3f3c54ae	0.7356671
62	0x3f787191	0.9704829
63	0x3f91ce08	1.1391001

core.features.layer0.norm.bias f4 [64]
0	0x3d3b1a42	0.04567934
1	0xbcf44f79	-0.029823052
2	0xbe0ff692	-0.14058903
3	0xbe01a035	-0.1265877
4	0xbbe0ea01	-0.006863833
5	0x3d522497	0.051304426
6	0xbd86fc28	-0.06591064
7	0x3dfbf172	0.123019114
8	0xbdfe6ed1	-0.1242348
9	0xbeab3364	-0.33437645
10	0xbd998a7a	-0.074971154
11	0xbe0fcc45	-0.14042766
12	0xbcfdc153	-0.030975973
13	0x3e50a2c3	0.20374589
14	0xbe88e786	-0.26739138
15	0x3d36e575	0.04465242
16	0xbc779973	-0.015112269
17	0xbe0edbca	-0.1395103
18	0x3ca39d63	0.019972509
19	0x3eb584cf	0.35452887
20	0x3e10ec8b	0.14152734
21	0x3e5ab685	0.21358688
22	0xbe0db0fc	-0.13837045
23	0xbc188b6a	-0.009310583
24	0x3e172db7	0.14763533
25	0xbd50c896	-0.050972544
26	0xbd85c60e	-0.065319166
27	0x3e13228c	0.14368647
28	0xbe463618	-0.19356573
29	0xbd8bf24a	-0.06833322
30	0x3db88440	0.090096
31	0x3e2bcac1	0.16776563
32	0x3d9fa6d3	0.07795491
33	0xbd83b709	-0.064313956
34	0x3dd3f7af	0.10349976
35	0x3b25a95f	0.0025277955
36	0xbd8d098b	-0.06886586
37	0x3d94dc9a	0.07268639
38	0x3c70c12a	0.014694491
39	0xbdb3ad43	-0.087732814
40	0x3e907800	0.28216553
41	0x3de7a412	0.11310591
42	0x3e348860	0.17630148
43	0x3da2910d	0.079378225
44	0x3d9614fa	0.0732822
45	0x3dafa86a	0.08577044
46	0xbdbbe3e9	-0.0917433
47	0xbe343892	-0.17599705
48	0x3caacd3b	0.020849815
49	0xbdda8bc5	-0.1067119
50	0xbe12c79f	-0.14333962
51	0x3b47f42e	0.0030510533
52	0x3c54d42e	0.012990041
53	0x3d2bf029	0.04197708
54	0xbd60c2f6	-0.05487343
55	0xbda6c13d	-0.08142326
56	0xbd8bdbae	-0.0682901
57	0x3e09563e	0.13411805
58	0xbe81a54d	-0.25321427
59	0xbdb05b00	-0.08611107
60	0xbd6bca06	-0.05756571
61	0x3dbd1ec8	0.09234387
62	0xbd5efda4	-0.05444111
63	0x3df7b866	0.12095718

core.features.layer0.norm.running_mean f4 [64]
0	0x40a51573	5.1588683
1	0xc09d4182	-4.9142466
2	0x4166a032	14.41411
3	0x4195288b	18.644796
4	0xc0a020e4	-5.004015
5	0x3e57179b	0.21005099
6	0xc097fe8d	-4.749823
7	0x40344159	2.8164885
8	0x41a04ec3	20.038458
9	0x4129972a	10.599405
10	0x413c215e	11.758146
11	0x403392da	2.805838
12	0x3f99db82	1.2020113
13	0xc13de495	-11.868306
14	0xc19228ec	-18.269981
15	0x4083171c	4.096571
16	0xc049560b	-3.1458766
17	0x4024bf7a	2.5741868
18	0xc0c3a127	-6.113422
19	0x3f3fca30	0.7491789
20	0x41a381af	20.438322
21	0xc1664b7f	-14.393432
22	0x418ae73c	17.362907
23	0x41046422	8.2744465
24	0xbdf4c446	-0.11951499
25	0x40c6dc30	6.2143784
26	0xc013ca3b	-2.3092182
27	0xc0d72663	-6.723436
28	0xc1159d6b	-9.350932
29	0xc1ad2d76	-21.647198
30	0xc1108893	-9.033343
31	0x40b06185	5.5119042
32	0x4089bbe3	4.3041854
33	0xc101c970	-8.111679
34	0xc1053110	-8.324478
35	0x404ea422	3.2287679
36	0x412b4386	10.703985
37	0x4021ece7	2.5300844
38	0xc0923cb6	-4.569911
39	0x414fcd49	12.987618
40	0xc11f1da3	-9.944736
41	0xbe81d545	-0.25358024
42	0x418d2b13	17.646032
43	0xbf4af6e6	-0.7928299
44	0x4185543c	16.66613
45	0x40c7a6ca	6.23911
46	0xc11e634a	-9.8992405
47	0x41448d8e	12.284559
48	0xc19521d1	-18.641512
49	0xbf1f8739	-0.6231571
50	0x40a13711	5.037972
51	0x3f3b0a8f	0.73062986
52	0x401c1dbc	2.4393148
53	0x40c6cf14	6.212778
54	0xc1517b89	-13.09266
55	0x409218e7	4.56554
56	0xbece5eda	-0.4030674
57	0xc12d2ee6	-10.82395
58	0x3e3f33d3	0.18672113
59	0x4091a1a2	4.5509806
60	0xc11dc3db	-9.860316
61	0xc13b4cdc	-11.7062645
62	0x40ad72f3	5.420282
63	0xc05a6537	-3.4124277

core.features.layer0.norm.running_var f4 [64]
0	0x41d85b61	27.044619
1	0x41e2dd58	28.358078
2	0x42db5ef7	109.68548
3	0x42cfa96d	103.83091
4	0x424ae7c3	50.72633
5	0x4206b0ec	33.672775
6	0x422deaae	43.47918
7	0x422a069c	42.506454
8	0x42c33bb8	97.61664
9	0x42a63ab3	83.11465
10	0x42371c5b	45.77769
11	0x42190df6	38.263634
12	0x4274559b	61.0836
13	0x428a3bcb	69.11678
14	0x434790c0	199.56543
15	0x41d4d085	26.601816
16	0x425e1a34	55.52559
17	0x440ba019	558.5015
18	0x4354935b	212.5756
19	0x4350d580	208.83398
20	0x42ce891e	103.26781
21	0x42aa770b	85.232506
22	0x42ddb81b	110.85958
23	0x42555541	53.333256
24	0x427f70e7	63.860256
25	0x4238dbb5	46.214558
26	0x41e7400d	28.906275
27	0x4231e4af	44.473324
28	0x426172ea	56.36222
29	0x42fae859	125.453804
30	0x42621c59	56.527683
31	0x4220c059	40.18784
32	0x424f38be	51.805412
33	0x42d0efb5	104.46818
34	0x427f9f93	63.905834
35	0x42158768	37.382233
36	0x42815e99	64.68476
37	0x42878bb3	67.77285
38	0x41dba4f3	27.455542
39	0x42ad467a	86.63765
40	0x427715cc	61.771286
41	0x43086a51	136.4153
42	0x42bf00f3	95.501854
43	0x41c3179e	24.386532
44	0x42d0194b	104.0494
45	0x41fa1262	31.258976
46	0x42740fb6	61.015343
47	0x429976ca	76.73201
48	0x42e0b627	112.35577
49	0x41cc99b0	25.575043
50	0x43e892c4	465.1466
51	0x421ca1f1	39.158146
52	0x43cb7f9d	406.99698
53	0x421c0152	39.00129
54	0x42af5fd3	87.68716
55	0x42fc4560	126.1355
56	0x42481e9b	50.02989
57	0x4306450e	134.26974
58	0x41c83f7f	25.031004
59	0x426281e4	56.626846
60	0x4230377e	44.05419
61	0x42897f0b	68.74813
62	0x426e0f31	59.514835
63	0x42945e22	74.18385

core.features.layer1.ds_conv.in_depth_conv.weight f4 [64, 64, 1, 1]
0	0x3e503386	0.20332155
1	0xbe8f2e8a	-0.27965194
2	0x3ce0c22c	0.027436338
3	0xbb35dc33	-0.0027749657
4	0xbe3f9ecb	-0.18712918
5	0xbe097b7d	-0.13426013
6	0xbd9d23ec	-0.07672867
7	0xbe27ac03	-0.16374211
8	0x3cd5d407	0.02610208
9	0xbdac0a02	-0.08400346
10	0x3dbf1e4a	0.09331949
11	0x3e51d3ac	0.20490903
12	0x3e9e90c5	0.30969825
13	0xbd48fa04	-0.04906656
14	0xbdbbc3ec	-0.091682285
15	0x3e760d57	0.24028526
16	0xbe625c33	-0.22105484
17	0x3e2e783a	0.1703805
18	0xbd9f2103	-0.07769968
19	0x3d38384e	0.04497557
20	0x3ce4a8ba	0.027912486
21	0xbe08afbc	-0.13348287
22	0x3e4f28b1	0.20230366
23	0x3d91ccab	0.071191154
24	0xbe7bef66	-0.24603042
25	0x3e57663f	0.21035098
26	0xbd45c973	-0.04828782
27	0xbd6b78ac	-0.05748813
28	0xbe925004	-0.28576672
29	0xbe20bf91	-0.15698077
30	0xbd0f1ede	-0.034941547
31	0xbc688f68	-0.014194347
32	0xbe67c61e	-0.2263417
33	0x3c27da49	0.010244914
34	0xbdf70cfb	-0.12063023
35	0x3e8a74cb	0.2704223
36	0xbe5eca11	-0.2175677
37	0xbd423f1d	-0.04742347
38	0xbe577dd3	-0.21044092
39	0x3d2d82d9	0.042361114
40	0xbd311bb6	-0.043239318
41	0x3eb73d95	0.3578917
42	0x3d073987	0.033013847
43	0x3d9f3d13	0.07775321
44	0x3e18c33a	0.14918223
45	0x3e12edc7	0.14348517
46	0x3dcd0bbf	0.10012006
47	0x3d871aab	0.065968834
48	0x3dbf5f5b	0.093443595
49	0x3d229e21	0.039701585
50	0xbdad30b8	-0.08456558
51	0x3e82655f	0.25467965
52	0x3d668b2e	0.056285076
53	0x3dcfbc47	0.10143333
54	0x3e8b5068	0.27209783
55	0x3d71c162	0.059022315
56	0xbb207882	-0.002448589
57	0xbd1ab2ae	-0.03776806
58	0xbea9b388	-0.33144784
59	0x3e182482	0.14857677
60	0xbdef4825	-0.11683682
61	0xbe4792b4	-0.19489557
62	0x3e63444b	0.2219402
63	0x3dff4e5b	0.12466117
64	0x3cc77366	0.024347018
65	0xbe66d47d	-0.22541995
66	0xbde96c63	-0.11397626
67	0x3c3c1545	0.01147968
68	0xbe8fade6	-0.2806236
69	0x3e93aa5f	0.2884092
70	0x3d869ef6	0.06573288
71	0xbdbff2bf	-0.09372472
72	0xbca59e48	-0.020217076
73	0xbe22f5d2	-0.15914086
74	0x3d52f5b9	0.05150387
75	0x3d5dcd3a	0.054150797
76	0x3df27373	0.118384264
77	0xbde08a1d	-0.10963843
78	0xbe6f772a	-0.23385301
79	0xbce75b47	-0.028241767
80	0x3f0aef67	0.5427155
81	0x3c2b67b0	0.010461733
82	0xbcf1630b	-0.029466173
83	0xbdd7ee36	-0.10543482
84	0xbd05a997	-0.032632437
85	0x3eb02d2d	0.34409466
86	0xbd3f1179	-0.046647523
87	0x3dd2fefd	0.103025414
88	0xbe6b5ecf	-0.22985385
89	0xbe238b5c	-0.1597113
90	0xbc996a94	-0.018727578
91	0xbda688cd	-0.081315614
92	0xbe56cd39	-0.20976724
93	0x3dfae3d8	0.12250489
94	0xbda526fd	-0.08064077
95	0x3d8ea655	0.06965319
96	0x3d89c503	0.0672703
97	0x3e3247e9	0.17410244
98	0xbe524ec7	-0.20537864
99	0xbe805bcd	-0.25070038
100	0x3dca6fa1	0.09884573
101	0x3e828cf3	0.2549816
102	0x3c8a2ff6	0.016868573
103	0xbe6e886b	-0.23294227
104	0x3d253002	0.040328987
105	0x3d0e8458	0.03479418
106	0x3d09361c	0.03349887
107	0x3e87f7f0	0.2655635
108	0x3e2b9f48	0.1675998
109	0x3e3bba3f	0.18332766
110	0xbe6daf7a	-0.2321147
111	0xbec33ac9	-0.38130787
112	0xbdc2c80b	-0.095108114
113	0x3d2135ae	0.039357834
114	0xbd0540b3	-0.032532405
115	0x3e5eb164	0.21747357
116	0x3de0167c	0.109417886
117	0x3e236278	0.15955532
118	0xbd88716d	-0.06662259
119	0x3db36d6a	0.087611035
120	0x3d8ad1b6	0.067782804
121	0x3d63461b	0.05548678
122	0x3e96d547	0.29459593
123	0x3de02ca2	0.10946013
124	0xbe1bf49e	-0.15230033
125	0xbcae447a	-0.021272887
126	0xbdd404bc	-0.103524655
127	0x3c6bbf0b	0.01438881
128	0x3d0c7e9c	0.03430043
129	0xbe526c5e	-0.20549151
130	0x3bdd078c	0.0067452844
131	0x3df8e3fc	0.121528596
132	0x3db76e44	0.089565784
133	0x3dfbac36	0.12288706
134	0x3d9bcdab	0.076075874
135	0xbf05d91e	-0.5228442
136	0x3d8be188	0.06830126
137	0xbe31c26a	-0.1735932
138	0x3d00e787	0.0314708
139	0xbdcb8e19	-0.09939212
140	0xbe99e875	-0.30060163
141	0xbd2d6992	-0.042337008
142	0xbd50df56	-0.05099424
143	0xbce219c9	-0.027600186
144	0x3e344a40	0.17606449
145	0xbe21f6a1	-0.15816738
146	0x3e008238	0.12549675
147	0xbd9e9ccc	-0.077447504
148	0xbd1a63cf	-0.03769284
149	0xbe55e3e2	-0.20887712
150	0x3cf57860	0.029964626
151	0xbde7ec5b	-0.11324378
152	0xbefe7afe	-0.4970321
153	0xbdc7a3f5	-0.09748069
154	0xbd18cb19	-0.037303064
155	0xbdae0616	-0.084972546
156	0x3e104504	0.14088827
157	0xbe2d27fd	-0.16909786
158	0xbe1911a7	-0.1494814
159	0xbe17b57d	-0.14815326
160	0x3da026ce	0.078199014
161	0x3e491ef9	0.19640721
162	0x3de95075	0.11392299
163	0x3dc7601c	0.09735128
164	0x3e5174f4	0.2045477
165	0xbe9c0422	-0.30471903
166	0x3d137610	0.036001265
167	0xbde52ac5	-0.11189798
168	0xbc141949	-0.009039232
169	0xbe80fa9c	-0.251912
170	0xbc8cff07	-0.01721145
171	0xbd325839	-0.043541167
172	0xbde80b6c	-0.113303035
173	0x3c587486	0.013211375
174	0x3db88a7d	0.090107895
175	0x3985a210	0.00025488483
176	0xbca963ed	-0.020677531
177	0x3ce59d0f	0.028028993
178	0x3e02351f	0.12715577
179	0xbe4e1c87	-0.2012807
180	0x3e9424bc	0.28934276
181	0xbe24b2de	-0.16083857
182	0x3b30911e	0.0026941965
183	0x3e865e2a	0.26243716
184	0xbd991e03	-0.074764274
185	0xbe53defc	-0.2069053
186	0x3e63cb67	0.2224556
187	0x3ea0d330	0.31411123
188	0xbd1592e9	-0.036517058
189	0xbe1e3dfa	-0.1545333
190	0x3e259501	0.16170122
191	0x3d18f6f0	0.037344873
192	0x3d8b5fc1	0.06805373
193	0xbd340e4d	-0.04395895
194	0x3df3f055	0.11911074
195	0xbc122506	-0.00891996
196	0x3dc35a14	0.095386654
197	0x3e37ee55	0.1796201
198	0x3d174e59	0.036939953
199	0x3e40b157	0.1881765
200	0xbe653ada	-0.22385731
201	0x3d8ad5e4	0.06779078
202	0x3d375dec	0.044767305
203	0x3e45aa29	0.19303192
204	0x3e444db7	0.19170271
205	0x3ebe50c8	0.37171006
206	0x3dc2036d	0.0947331
207	0xbe4f2bae	-0.20231506
208	0xbe468450	-0.1938641
209	0x3d95e342	0.073187366
210	0xbe115d76	-0.14195809
211	0xbeb6b2de	-0.3568334
212	0xbe989b83	-0.29806146
213	0xbd914cf3	-0.07094755
214	0xbe5e2c80	-0.21696663
215	0xbdc66ab7	-0.09688323
216	0xbdf9c349	-0.12195451
217	0xbc6fd2e1	-0.01463768
218	0xbd43c83f	-0.04779839
219	0x3da6aeed	0.08138833
220	0x3e1b072d	0.15139456
221	0x3d6f6768	0.058448225
222	0x3ef8a4e0	0.4856329
223	0xbe08bd1e	-0.13353392
224	0xbd7dd723	-0.06197275
225	0x3d73cebf	0.05952334
226	0x3d7d7ffc	0.061889634
227	0x3e254bfd	0.16142268
228	0x3d6fcfc0	0.058547735
229	0xbe945d6a	-0.2897752
230	0xbd957c28	-0.072990716
231	0xbe985d08	-0.29758477
232	0xbd568ceb	-0.052380484
233	0xbdc7994c	-0.09746036
234	0xbe9af14a	-0.30262214
235	0xbde79190	-0.11307061
236	0xbebc16d2	-0.3673616
237	0xbe9385a5	-0.288129
238	0x3e8c3f75	0.27392164
239	0x3e88cf59	0.26720694
240	0x3eae4c16	0.34042424
241	0x3ca1c573	0.019747471
242	0xbd77f794	-0.060538843
243	0x3d95b9a6	0.073108
244	0x3da9c8cf	0.08290254
245	0x3d2cc097	0.042175855
246	0x3ede3569	0.43400124
247	0x3d5161df	0.051118728
248	0x3e95f1e8	0.29286122
249	0xbdcd7397	-0.10031813
250	0x3d7ab6b7	0.061209407
251	0xbe143a6d	-0.14475413
252	0xbcb514f7	-0.022104723
253	0xbd44be56	-0.04803308
254	0x3e2b992e	0.16757652
255	0xbe7e6080	-0.248415

core.features.layer1.ds_conv.in_depth_conv.bias f4 [64]
0	0x3e0839d6	0.13303313
1	0x3ed1dc69	0.40988472
2	0xbdec2a82	-0.11531545
3	0xbe14a006	-0.14514169
4	0x3e659e86	0.22423753
5	0xbc46a856	-0.012125095
6	0x3b9b4fe2	0.0047397474
7	0x3eaad26b	0.3336366
8	0x3dc56881	0.09639073
9	0x3d44f0b7	0.048081126
10	0x3ec0c92b	0.3765348
11	0x3d0d3d24	0.034482136
12	0xbd2db83c	-0.042412028
13	0x3d44c72a	0.0480415
14	0xbd9fb57e	-0.07798289
15	0x3dbd54ff	0.09244727
16	0x3ac4f1f9	0.0015025727
17	0x3d1b1f62	0.037871726
18	0xbd92187f	-0.071335785
19	0xbdf37a84	-0.118886024
20	0x3dcdd5da	0.100505546
21	0xbf5843b2	-0.84478295
22	0xbd88a766	-0.06672554
23	0xbecbd55d	-0.3981122
24	0x3d902b20	0.070394754
25	0xbe3b9345	-0.18317898
26	0xbda4d683	-0.08048727
27	0x3e2985db	0.16554968
28	0x3deb74f1	0.11496914
29	0xbe17aa19	-0.14810981
30	0x3c4bd999	0.012442016
31	0xbde95229	-0.11392624
32	0xbdff4124	-0.124635965
33	0xbdb51485	-0.088418044
34	0x3c5273fe	0.0128450375
35	0xba8a07da	-0.0010530904
36	0xbded0568	-0.11573297
37	0x3c8ecd2d	0.01743182
38	0x3d18453c	0.037175402
39	0x3d4a9a9e	0.04946386
40	0xbdb8f87b	-0.09031769
41	0xbd802458	-0.06256932
42	0xbdc30b2c	-0.09523615
43	0xbdd4257c	-0.10358712
44	0xbd57cd0b	-0.05268578
45	0x3d50a672	0.050939985
46	0x3d7dc75a	0.061957695
47	0x3d73cae0	0.05951965
48	0x3e68c88c	0.22732753
49	0xbe0e8ee4	-0.13921696
50	0xbbf14f07	-0.007364157
51	0x3df01120	0.11722016
52	0xbdf1b1c5	-0.11801485
53	0x3d7db24d	0.06193762
54	0x3dcbe669	0.099560566
55	0xbd3af2b4	-0.045641616
56	0xbd2f15a2	-0.04274524
57	0xbd5ee526	-0.05441775
58	0x3e18f339	0.14936532
59	0xbdeb0287	-0.114750914
60	0x3e09e677	0.13466822
61	0x3de3e585	0.11127762
62	0x3e0e4d25	0.13896616
63	0x3be2c432	0.006920361

core.features.layer1.ds_conv.spatial_conv.weight f4 [64, 1, 7, 7]
0	0x3c8003f2	0.015626881
1	0xbd1c31db	-0.038133483
2	0xbdbb8d95	-0.09157864
3	0xbcf70065	-0.030151555
4	0x3c754c0b	0.014971743
5	0xbcb033a0	-0.021508992
6	0xbd317d5d	-0.043332446
7	0x3d4d5b59	0.050135944
8	0xbcbe7d7e	-0.023253199
9	0xbd8cc83f	-0.068741314
10	0xbd3a4ab5	-0.045481402
11	0xbd44c005	-0.048034687
12	0xbd617695	-0.05504473
13	0xbe150f26	-0.1455656
14	0x3d04f15a	0.032456733
15	0xbca25e4a	-0.019820351
16	0xbd3ccb05	-0.046092052
17	0xbd68b069	-0.056808863
18	0xbd260d79	-0.040540192
19	0xbd86a9d3	-0.0657536
20	0xbd3fa907	-0.046792056
21	0x3cf35062	0.029701415
22	0x3d70c4ab	0.058781307
23	0xbc5ec7df	-0.013597458
24	0xbde634ae	-0.112405166
25	0xbcf1b938	-0.029507264
26	0xbccd6a94	-0.025075234
27	0x3ca7eca0	0.020498574
28	0x3d624ff1	0.05525202
29	0x3cf5a58b	0.029986164
30	0x3ce96dc4	0.028494723
31	0x3c7779d9	0.015104734
32	0x3cdba163	0.026810354
33	0x3d1ea1fb	0.038728695
34	0x3d0ca6df	0.03433883
35	0x3d039655	0.03212579
36	0x3d0d8407	0.03454974
37	0x3d4921ff	0.049104687
38	0x3d4504af	0.04810017
39	0x3c626dc2	0.013820114
40	0x3bb14eb8	0.0054109953
41	0xbce14562	-0.027498905
42	0xbc83ab23	-0.016072815
43	0xbcd3dc9b	-0.025862029
44	0xbc5979da	-0.013273681
45	0x3d00cdfd	0.031446446
46	0xbcbbf3d1	-0.02294341
47	0x3c93664a	0.017993111
48	0xbd1515da	-0.036397792
49	0xbcd7c500	-0.026339054
50	0xbda0e07e	-0.078553185
51	0xbd4d8098	-0.050171465
52	0xbe14d2ba	-0.14533511
53	0xbda07016	-0.07833879
54	0xbe678694	-0.22609931
55	0xbe5943bc	-0.21217245
56	0x3db524e1	0.08844925
57	0xbd7e11b1	-0.06202859
58	0x3dcfc7d7	0.10145538
59	0xbd20f57c	-0.039296612
60	0xbd68cd1f	-0.056836244
61	0xbe1a7140	-0.15082264
62	0xbe1430df	-0.14471768
63	0x3d2fe445	0.042942304
64	0x3ce332e1	0.027734222
65	0x3e08074d	0.13284035
66	0x3c76a7d5	0.015054663
67	0x3d908f56	0.07058589
68	0x3c895b85	0.016767273
69	0x3b2ba182	0.0026188795
70	0x3d64aa85	0.055826683
71	0x3d087f26	0.033324383
72	0x3d39054c	0.045171067
73	0x3d6b3c82	0.05743075
74	0x3dae07e1	0.084975965
75	0x3dbcec81	0.09224797
76	0x3d313efd	0.04327296
77	0x3cfd32df	0.030908046
78	0x3db6dcd5	0.08928839
79	0x3ceb0aa1	0.028691592
80	0x3cfb73a0	0.030694783
81	0x3cfb9098	0.030708596
82	0x3da91e3e	0.08257721
83	0x3d6cefe6	0.057845972
84	0x3dae6c1d	0.08516715
85	0xbb892754	-0.0041855965
86	0xbc57a9de	-0.013163058
87	0x3d4c97fa	0.049949624
88	0x3d9f1e7d	0.07769487
89	0x3ddc9131	0.107698806
90	0xbc2836bb	-0.010266955
91	0x3db882f7	0.090093546
92	0x3dacc557	0.08436077
93	0x3e0355a0	0.12825632
94	0x3dd9ff83	0.10644438
95	0x3e4c33ee	0.19941685
96	0x3e248b2d	0.16068716
97	0x3d21b745	0.03948142
98	0x3d050871	0.032478753
99	0x3d97d83a	0.07414289
100	0x3d8d7cde	0.06908582
101	0x3dfd094e	0.1235529
102	0x3d47cbbf	0.04877829
103	0x3dac56d9	0.084150024
104	0x3d045cd9	0.03231511
105	0x3d793b9a	0.060847856
106	0x3d000d0f	0.031262454
107	0x3d107e16	0.035276495
108	0x3d0bae5f	0.03410184
109	0x3d32b386	0.04362824
110	0x3cf53e0c	0.029936813
111	0x3ce607ac	0.02807983
112	0x3d417f11	0.04724032
113	0x3d810362	0.06299473
114	0x3d4b0c37	0.049572196
115	0x3d8f2d71	0.06991089
116	0x3c767c79	0.015044325
117	0x3c341858	0.010992132
118	0x3d13f6a6	0.036123894
119	0x3d8d24be	0.06891774
120	0x3d892125	0.06695775
121	0x3d35b94d	0.04436617
122	0x3c82c3ef	0.015962569
123	0x3cd8d56f	0.02646896
124	0x3d010a53	0.031503987
125	0x3c170ad6	0.009218892
126	0x3da69e13	0.08135619
127	0x3d2d26b8	0.042273253
128	0x3cf724c9	0.030168908
129	0x3d2e8a23	0.042612206
130	0x3c33b935	0.01096945
131	0x3c5d1418	0.01349356
132	0x3b552bd9	0.0032527356
133	0x3d99801a	0.074951366
134	0x3d59b62e	0.053152256
135	0x3d8b337d	0.0679693
136	0x3dadff64	0.084959775
137	0x3d91a376	0.07111256
138	0x3c641096	0.01391997
139	0x3d4b9601	0.0497036
140	0x3d7a3eb3	0.06109495
141	0x3d7eeba2	0.062236436
142	0x3cdb469b	0.026767066
143	0x3b9fc6a2	0.004875974
144	0x3d367fd8	0.044555515
145	0x3d2f8a4f	0.04285651
146	0x3d094447	0.03351238
147	0xbc8773db	-0.016534736
148	0xbd7caf2b	-0.06169049
149	0x3d9d69ce	0.07686196
150	0x3d1ca5d5	0.038244087
151	0x3df72c5e	0.12069009
152	0x3e24f6ae	0.16109726
153	0x3dafdf49	0.0858751
154	0xbca16533	-0.019701576
155	0xbdd948d6	-0.106095955
156	0x3dc50b9f	0.09621357
157	0xbd24d03e	-0.040237658
158	0xbb0e1b0e	-0.0021683606
159	0x3da7a300	0.08185387
160	0x3da5b37c	0.080908746
161	0xbd0d80b3	-0.034546565
162	0xbdca695f	-0.09883379
163	0xbd2beaad	-0.04197185
164	0xbdfd0e20	-0.1235621
165	0xbdc85438	-0.097816885
166	0x3d8239d5	0.06358687
167	0x3d561a33	0.05227108
168	0xbdcb355b	-0.09922286
169	0xbe448962	-0.19193032
170	0xbd0d067b	-0.03443001
171	0xbdeecdf0	-0.11660373
172	0x3c31cca9	0.010852017
173	0x3c0fe230	0.008781955
174	0x3dd0a40c	0.101875395
175	0xbe27af80	-0.16375542
176	0xbe3a9143	-0.18219475
177	0x3d40a14d	0.04702883
178	0x3c19e079	0.009391897
179	0x3e126b86	0.1429883
180	0x3e269b95	0.16270287
181	0x3e10e740	0.14150715
182	0xbdf6a15c	-0.120424956
183	0xbe1940ce	-0.14966127
184	0x3d9c6ca8	0.07637912
185	0xbc0a9def	-0.008460506
186	0xbdcbda39	-0.09953732
187	0xbd89ed1e	-0.0673468
188	0xbcdcaf8a	-0.026939172
189	0xbeab4a61	-0.33455184
190	0xbe8e06a9	-0.27739456
191	0xbe1a5531	-0.1507156
192	0xbe120be7	-0.14262353
193	0xbe2ab5b8	-0.16670883
194	0xbe888857	-0.2666652
195	0xbe7d280d	-0.2472231
196	0xbc3a1a29	-0.011358776
197	0xbebd02cb	-0.36916193
198	0xbeda4f53	-0.42638645
199	0xbe5487fb	-0.20754997
200	0xbe5b4e84	-0.2141667
201	0xbe6bb579	-0.23018445
202	0xbdd036e3	-0.10166719
203	0x3e606201	0.21912386
204	0xbe14d9c7	-0.145362
205	0xbd7e2868	-0.062050253
206	0x3e31dca9	0.17369331
207	0x3dcdd819	0.10050983
208	0x3e03ea75	0.12882407
209	0x3e7ec1d3	0.24878626
210	0x3e57f7f2	0.21090677
211	0xbcd68669	-0.026187139
212	0xbc31a314	-0.0108421035
213	0x3e36b616	0.17842898
214	0x3dc226d3	0.094800614
215	0x3db126c6	0.086499736
216	0x3e6608a2	0.2246423
217	0x3e403f26	0.18774089
218	0x3d9fffbd	0.0781245
219	0x3d22432e	0.03961485
220	0x3e308cce	0.17241213
221	0x3da17d3d	0.078852154
222	0x3d89cd1c	0.06728575
223	0x3e36182b	0.17782657
224	0x3dc5355a	0.09629317
225	0xbbc47fd6	-0.0059966845
226	0xbdca862b	-0.09888872
227	0x3db00168	0.08594018
228	0x3d13cf69	0.036086474
229	0xbcef5639	-0.029215919
230	0x3d7e768f	0.062124785
231	0x3e1f4034	0.15551835
232	0x3cd0d0b4	0.025490142
233	0x3c599a0a	0.013281355
234	0x3da0efe6	0.07858257
235	0x3d89c85e	0.0672767
236	0x3cb9c99f	0.022679148
237	0x3b6cc39c	0.0036127334
238	0x3e8e0918	0.27741313
239	0x3e2ba9bd	0.16763969
240	0x3e0eab3a	0.13932505
241	0x3e38da53	0.18052034
242	0x3e20c00e	0.15698263
243	0x3e465093	0.19366674
244	0x3da421d5	0.080142654
245	0xbd7e46ac	-0.062079117
246	0xbc06c505	-0.008225684
247	0x3e87428f	0.26417968
248	0x3e66758d	0.2250578
249	0x3d8c776c	0.068587154
250	0xbda1e78a	-0.07905491
251	0xbddd32d2	-0.10800709
252	0x3d9eeda3	0.07760169
253	0x3e1e604e	0.15466425
254	0x3e8b4308	0.27199578
255	0x3e465eb0	0.19372058

core.features.layer1.ds_conv.spatial_conv.bias f4 [64]
0	0x3ce9e966	0.028553676
1	0xbd9079b0	-0.0705446
2	0x3cf3eecd	0.029776955
3	0xbd8fa664	-0.07014158
4	0x3bc5a67c	0.0060318094
5	0x3d8f8be6	0.070091054
6	0x3db009f3	0.08595648
7	0xbdd8c6f0	-0.10584819
8	0xbb43e534	-0.0029891254
9	0x3da81ea1	0.08208967
10	0x3d427b23	0.047480714
11	0x3dad2b83	0.08455565
12	0x3d8cfca6	0.06884126
13	0x3e0293d1	0.127517
14	0xbd5dfbe2	-0.054195292
15	0x3d25e532	0.04050178
16	0x3dc02af3	0.09383192
17	0xbd9255d6	-0.07145278
18	0xbd88b459	-0.066750236
19	0xbc807f42	-0.015685681
20	0x3b08ec16	0.0020892671
21	0xbd8b468e	-0.068005666
22	0x3d7b137d	0.061297882
23	0x3db16e7d	0.08663652
24	0xbd88487d	-0.06654451
25	0x3d69e15f	0.057099696
26	0x3d227f58	0.039672226
27	0x3ca63175	0.020287255
28	0xbbbb0a70	-0.0057080314
29	0xbcad598a	-0.02116086
30	0x3db79d7c	0.08965585
31	0xbbaa3ef1	-0.0051954915
32	0x3d23c042	0.039978273
33	0x3d554b59	0.05207381
34	0xbddfb6d2	-0.10923542
35	0xbcab5f46	-0.020919453
36	0xbd6c65f4	-0.057714418
37	0x3d54797c	0.05187367
38	0x3c2a057a	0.010377282
39	0x3d325174	0.04353471
40	0xbd126a18	-0.03574571
41	0xbc953495	-0.01821355
42	0xbd21b581	-0.039479736
43	0xbc86fff9	-0.01647948
44	0x3deee24f	0.11664259
45	0xbcb841f6	-0.02249239
46	0x3c93e092	0.01805142
47	0xb7d0b9ce	-2.4882054e-05
48	0x3d746280	0.05966425
49	0x3dc225e3	0.094798826
50	0x3e28bf5f	0.16479252
51	0x3de0a5a9	0.10969097
52	0x3b4881f4	0.0030595036
53	0x3ddb196c	0.10698208
54	0xbd77cbd0	-0.060497105
55	0x3d883fe3	0.066528104
56	0xbd8871bf	-0.0666232
57	0xbc2553d6	-0.010090789
58	0xbdcbe8d6	-0.09956519
59	0x3db44d13	0.08803763
60	0x3d333af6	0.0437574
61	0x3d98d309	0.07462127
62	0xbdb1bdfe	-0.08678816
63	0x3d90944d	0.07059536

core.features.layer1.ds_conv.out_depth_conv.weight f4 [64, 64, 1, 1]
0	0xbe1d529a	-0.15363541
1	0x3d8f352c	0.069925636
2	0x3bbdcebb	0.0057924665
3	0x3d98aee6	0.07455234
4	0x3c45b4c1	0.012067021
5	0xbec2f8d5	-0.3808047
6	0x3d34ffc7	0.04418924
7	0x3ed180b3	0.40918502
8	0x3c3d822b	0.011566679
9	0xbcf1accf	-0.029501347
10	0xbf43b0d6	-0.76441705
11	0xbec70572	-0.38871342
12	0xbe37d6ca	-0.1795303
13	0xbe0f2443	-0.13978676
14	0x3ea9b4d7	0.33145782
15	0x3ebc9b02	0.36837012
16	0x3dd9f7a3	0.10642936
17	0xbef86110	-0.48511553
18	0xbe1500d1	-0.14551093
19	0x3dc3960f	0.09550106
20	0xbe3e32ce	-0.18574068
21	0xbf6f2808	-0.9342046
22	0xbdbec31b	-0.09314557
23	0x3d102c0a	0.03519825
24	0x3e2a0fa3	0.16607527
25	0x3d4879c5	0.048944253
26	0xbf50f0cf	-0.81617445
27	0xbd0f2130	-0.03494376
28	0xbd2c91fc	-0.04213141
29	0x3f1ccf1c	0.61253524
30	0x3f0dc0f2	0.55372536
31	0x3e8bf3bc	0.27334392
32	0x3ea6b679	0.3256109
33	0x3ec92429	0.392854
34	0xbe3b0e4e	-0.18267176
35	0xbdf6ec05	-0.12056736
36	0xbdc5edc6	-0.09664492
37	0x3e80e207	0.25172445
38	0x3e0b8e42	0.13628486
39	0x3d62e2b9	0.055392
40	0x3e7cae2f	0.24675821
41	0xbe46318b	-0.19354837
42	0xbe0b3401	-0.13594057
43	0xbe1faa92	-0.15592411
44	0x3df439f7	0.119251184
45	0x3d8b4639	0.06800503
46	0x3f06687e	0.5250319
47	0xbdec5d09	-0.115411825
48	0xbdaba368	-0.08380777
49	0x3dd5e25f	0.104435675
50	0x3db92f16	0.09042184
51	0x3e9c06bf	0.30473897
52	0x3d16d48a	0.036823787
53	0xbe600353	-0.21876268
54	0x3dac8f6f	0.08425795
55	0x3de7f97f	0.113268845
56	0xbeb6abba	-0.35677892
57	0x3e5d142d	0.21589728
58	0x3d524cd4	0.0513428
59	0xbe1c9978	-0.15292919
60	0xbcbef52b	-0.023310265
61	0xbea16be9	-0.3152764
62	0x3ee987f4	0.45611537
63	0xbe61ca4e	-0.2204983
64	0x3d8e04db	0.0693452
65	0x3e54e7a0	0.20791483
66	0x3e3cce34	0.18438035
67	0x3e18ddd7	0.14928375
68	0xbe96d4a3	-0.29459104
69	0xbd8c9c7a	-0.06865783
70	0xbeb2f708	-0.34954095
71	0x3e743340	0.23847675
72	0x3e825414	0.25454772
73	0xbe8fbd4e	-0.28074116
74	0x3e0cdce9	0.13756146
75	0xbdef29df	-0.11677908
76	0xbe44ee93	-0.19231634
77	0x3d6e0542	0.058110483
78	0x3e3a54fd	0.18196483
79	0xbf222215	-0.63333255
80	0xbdb68a02	-0.08913042
81	0xbe6a8350	-0.22901654
82	0x3e192194	0.14954215
83	0x3d8df7c7	0.069320254
84	0xbe6e7e71	-0.23290421
85	0x3ef6db07	0.4821398
86	0xbd5d5730	-0.054038227
87	0x3f0d64a6	0.552317
88	0x3b1bac7a	0.0023753927
89	0x3e4e2a3f	0.20133303
90	0xbe07f379	-0.13276471
91	0xbd6fabab	-0.058513325
92	0x3ec270c9	0.37976673
93	0x3f239053	0.63892096
94	0x3e6a2545	0.2286578
95	0xbe058982	-0.13040736
96	0x3f06774a	0.5252577
97	0xbf21a358	-0.6313987
98	0xbb5a65ee	-0.0033324915
99	0xbbd302a2	-0.006439523
100	0x3e31a15f	0.17346714
101	0x3b4a28f5	0.0030847166
102	0xbe1662a4	-0.14686066
103	0xbea040f5	-0.31299558
104	0xbc7f3caf	-0.015578433
105	0x3ce7c05c	0.028289966
106	0xbd8726cb	-0.06599196
107	0xbcc1a624	-0.023638792
108	0xbd549a49	-0.05190495
109	0xbd3dbdad	-0.046323467
110	0xbd515fff	-0.05111694
111	0xbdefe01b	-0.117126666
112	0x3e949f14	0.29027617
113	0xbf26c57f	-0.65145105
114	0xbeab6426	-0.33474845
115	0xbe50aa00	-0.2037735
116	0x3c66c865	0.014085864
117	0x3e06aac0	0.13151073
118	0x3e837b9f	0.25680253
119	0x3ef22495	0.47293535
120	0xbd9bb010	-0.07601941
121	0x3d527d84	0.051389232
122	0x3f278777	0.6544108
123	0x3d214926	0.0393764
124	0xbe043921	-0.12912418
125	0x3d1d80fd	0.03845309
126	0x3e7c6e53	0.2465146
127	0x3d85921f	0.06522011
128	0x3d127938	0.035760134
129	0x3e8d8d83	0.27647027
130	0xbe3e393c	-0.1857652
131	0x3ef30f30	0.47472525
132	0xbea8a4e4	-0.32938302
133	0x3e609ef1	0.21935631
134	0x3dc29fbe	0.09503125
135	0x3ea3299e	0.3186769
136	0xbd86278a	-0.0655051
137	0x3eefe6f3	0.46855888
138	0x3ee03583	0.43790826
139	0xbe9ceca9	-0.30649307
140	0x3d59eb07	0.053202655
141	0x3ef1c6df	0.4722204
142	0x3dd198ba	0.102342084
143	0x3eac8d2f	0.33701465
144	0xbd979ece	-0.074033365
145	0x3e205c9c	0.15660328
146	0x3eb3126b	0.3497499
147	0xbe9c24e3	-0.30496892
148	0xbe485e23	-0.1956716
149	0xbef41021	-0.47668555
150	0x3d6879b4	0.05675669
151	0x3caad5f6	0.020853978
152	0x3d5218dd	0.051293243
153	0x3df2f6e1	0.11863495
154	0x3c56ff28	0.013122357
155	0x3e62ca63	0.22147517
156	0xbef86ea1	-0.48521903
157	0xbae10a21	-0.0017169156
158	0xbea73295	-0.3265578
159	0x3e3bcc9e	0.18339774
160	0x3e725b5a	0.2366766
161	0x3cbb9b45	0.022901187
162	0xbd1b461d	-0.037908662
163	0xbda87303	-0.08225062
164	0xbe0e7ab6	-0.13913998
165	0xbd9e30f9	-0.077241845
166	0x3e854c7f	0.26034924
167	0x3ca22a92	0.01979569
168	0x3dd7254e	0.10505162
169	0xbc5a5b13	-0.013327378
170	0x3e278666	0.16359863
171	0x3dc05b3e	0.09392403
172	0x3d9c6b94	0.076377064
173	0xbe973324	-0.29531205
174	0x3e0a36b5	0.13497432
175	0x3e1a4d3a	0.15068522
176	0x3e9f801d	0.3115243
177	0x3e9da47d	0.30789557
178	0x3e5d1089	0.21588339
179	0xbddbb7ed	-0.107284404
180	0x3e360526	0.17775401
181	0x3cd2877d	0.025699371
182	0x3daf58cb	0.08561858
183	0xbe4708df	-0.19436978
184	0xbf00b25b	-0.5027215
185	0xbd6683cf	-0.056278046
186	0x3e16054b	0.14650457
187	0x3d87b857	0.06626957
188	0x3c076ab3	0.008265185
189	0xbe9716ba	-0.29509526
190	0xbe339e38	-0.17540824
191	0x3e831fa7	0.25610086
192	0xbd1e1ea0	-0.038603425
193	0x3dc69ae8	0.09697515
194	0xbe6932b2	-0.22773245
195	0x3e449910	0.19199014
196	0xbe2ce760	-0.16885138
197	0x3e327e4b	0.1743099
198	0xbdd2360b	-0.10264214
199	0x3ea2eeb6	0.31822747
200	0xbf1b11c2	-0.6057397
201	0xbd8de9ff	-0.06929397
202	0x3f07e2c9	0.5308042
203	0x3f12a500	0.5728302
204	0xbeb50523	-0.35355482
205	0x3e62cad7	0.2214769
206	0x3e0a11a6	0.13483295
207	0xbc43b6e7	-0.011945463
208	0xbdcde08a	-0.10052593
209	0xbde1873f	-0.11012124
210	0xbdd828d9	-0.10554666
211	0x3d655f80	0.05599928
212	0xbd2a3638	-0.041555613
213	0xbef518af	-0.47870395
214	0xbe531cc8	-0.20616448
215	0xbd48ea43	-0.049051534
216	0xbcaaa8fa	-0.020832527
217	0xbda33078	-0.07968229
218	0xbdb0a0c3	-0.08624413
219	0x3e13d528	0.14436781
220	0xbdfe3050	-0.12411559
221	0xbee83f83	-0.45360956
222	0x3d9d1721	0.07670427
223	0x3ebd9e84	0.37035
224	0x3da7a85e	0.0818641
225	0xbba94153	-0.005165258
226	0xbdddb337	-0.10825198
227	0x3d7a2b59	0.061076496
228	0x3db2c209	0.087284155
229	0xbd2078b4	-0.03917761
230	0x3f587cd4	0.8456547
231	0xbe1b1e72	-0.15148333
232	0xbd3d0c5c	-0.046154365
233	0x3c985868	0.018596843
234	0xbd0295c5	-0.031881113
235	0x3c15bad8	0.009138785
236	0xbe9cad31	-0.30600885
237	0xbe8a5550	-0.27018213
238	0x3e6cd529	0.23128189
239	0x3c03fe11	0.00805618
240	0x3e835c9b	0.2565659
241	0x3d902df6	0.07040016
242	0x3dbe3940	0.09288263
243	0xbe6cc0d2	-0.2312043
244	0x3dae9a46	0.08525519
245	0xbe50ad48	-0.20378602
246	0x3dc0eb46	0.09419875
247	0x3e3fcc8d	0.18730374
248	0xbe63cbf0	-0.22245765
249	0xbb83a570	-0.0040175244
250	0x3d5a46b9	0.053290103
251	0x3dbbc480	0.09168339
252	0xbe2955ab	-0.16536586
253	0xbefa79ff	-0.489212
254	0x3e1246ec	0.14284867
255	0xbc9123f0	-0.017717332

core.features.layer1.ds_conv.out_depth_conv.bias f4 [64]
0	0xbcedf264	-0.029046245
1	0xbdada069	-0.084778614
2	0x3d67f6e1	0.056631926
3	0xbd669895	-0.056297857
4	0x3d900267	0.07031708
5	0xbddef4f8	-0.10886568
6	0x3db2e283	0.0873461
7	0xbd98a857	-0.07453983
8	0xbd80f91f	-0.06297516
9	0x3da520cb	0.080628954
10	0x3e05e580	0.13075829
11	0xbd47e328	-0.048800617
12	0xbd32feeb	-0.04370014
13	0x3d0a7b78	0.033809155
14	0xbd861a20	-0.06547952
15	0x3b4603e0	0.0030214712
16	0xbcd699ce	-0.026196387
17	0x3d1e2fb9	0.03861973
18	0xbcf49e62	-0.029860679
19	0xbc92e808	-0.017932907
20	0xbb987450	-0.0046525374
21	0xbcbe4056	-0.023224037
22	0x3d454824	0.0481645
23	0xbd8b36d7	-0.06797569
24	0x3c66b5f1	0.014081464
25	0xbda948ae	-0.08265816
26	0xbd859af4	-0.065236956
27	0x3e47180c	0.19442767
28	0x3d3387bd	0.043830622
29	0x3d2b646d	0.04184382
30	0x3cb9c360	0.02267617
31	0xbcaab2fa	-0.020837296
32	0x3ccf7d3b	0.02532827
33	0xbb22b87d	-0.0024829202
34	0x3dea15be	0.11429928
35	0xbdb193bb	-0.086707555
36	0x3bd55e27	0.006511468
37	0xbd7597e2	-0.0599593
38	0x3d80cd03	0.06289103
39	0x3cbaadd5	0.022787968
40	0xbd3fe8a9	-0.04685274
41	0xbc7cabe9	-0.015421846
42	0x3e62c361	0.22144844
43	0xbd63b3f4	-0.05559154
44	0xbd035e37	-0.032072272
45	0x3d208547	0.039189603
46	0x3c39763f	0.011319696
47	0xbb2763fc	-0.0025541773
48	0xbcbb8945	-0.022892604
49	0xbdb23f32	-0.0870346
50	0x3d80bf29	0.06286461
51	0xbd332087	-0.043732192
52	0xbd942147	-0.0723291
53	0xbd671a4b	-0.05642156
54	0x3d996a06	0.074909255
55	0x3de80807	0.11329656
56	0xbaeebf6c	-0.0018215007
57	0xbc79fac8	-0.015257545
58	0x3c68f6e3	0.014219019
59	0x3e274f5d	0.16338868
60	0x3cb91720	0.022594035
61	0xbd4a8aab	-0.04944865
62	0xbcd285d5	-0.025698582
63	0x3da1a3fa	0.07892604

core.features.layer1.norm.weight f4 [64]
0	0x3f9fa20a	1.2471325
1	0x3f9fb86c	1.2478156
2	0x3f83e62c	1.0304618
3	0x3f632fe3	0.88744944
4	0x3f75220f	0.95755094
5	0x3f3e7ba2	0.744074
6	0x3f32d5ff	0.6985778
7	0x3eef5796	0.4674651
8	0x3f3f3ed5	0.7470525
9	0x3f2a4e9e	0.6652621
10	0x3f6964e7	0.9116959
11	0x3f26c119	0.65138394
12	0x3f190207	0.5976872
13	0x3f663f13	0.89939994
14	0x3f6f4551	0.93465143
15	0x3f8076f0	1.0036297
16	0x3f2a2971	0.66469485
17	0x3f3d8613	0.74032706
18	0x3f804d09	1.0023509
19	0x3f361a1b	0.71133584
20	0x3f81032f	1.0079097
21	0x3f54ab5f	0.8307399
22	0x3f825b30	1.0184078
23	0x3f6bc217	0.9209303
24	0x3f38af07	0.7214207
25	0x3f673988	0.9032216
26	0x3f8322a5	1.0244948
27	0x3f037dc5	0.51363784
28	0x3f671f31	0.9028197
29	0x3f7f40ee	0.9970845
30	0x3f88766b	1.0661138
31	0x3f672f41	0.9030648
32	0x3f4a3fb5	0.7900346
33	0x3f1b6ba9	0.6071115
34	0x3f37d2f6	0.71806276
35	0x3f091ae1	0.5355664
36	0x3f46a0a6	0.7758888
37	0x3f755dd8	0.9584632
38	0x3f3bc8fe	0.73353565
39	0x3f64f6ad	0.894389
40	0x3fa2285b	1.2668566
41	0x3f3a7785	0.7283862
42	0x3f37c477	0.71784157
43	0x3fb16dc2	1.386162
44	0x3f0f90aa	0.56080115
45	0x3f0273a2	0.5095769
46	0x3f3146a1	0.69248396
47	0x3f5fe91c	0.8746507
48	0x3f442bb7	0.76629204
49	0x3f8bb543	1.0914692
50	0x3f9d9cb1	1.2313443
51	0x3f4a012f	0.78908056
52	0x3f585086	0.8449787
53	0x3f606150	0.8764849
54	0x3f85173f	1.0397719
55	0x3f7def24	0.99193025
56	0x3f57ea6e	0.84342086
57	0x3f59baa0	0.8505039
58	0x3f69a80f	0.9127206
59	0x3f2a5d45	0.6654857
60	0x3f0f664f	0.56015486
61	0x3f6510db	0.89478844
62	0x3f909338	1.1294928
63	0x3f9160eb	1.1357702

core.features.layer1.norm.bias f4 [64]
0	0xbdc47dfd	-0.09594343
1	0x3e835162	0.25648028
2	0xbd845212	-0.06460966
3	0x3edc9616	0.43083256
4	0xbda4f5c3	-0.08054688
5	0x3ebf9f53	0.37426242
6	0xbeda0b03	-0.42586526
7	0x3ef0dabe	0.47041887
8	0x3b9ab5f2	0.0047213966
9	0xbe81f681	-0.2538338
10	0xbec33c98	-0.38132167
11	0x3e0b873b	0.13625805
12	0x3e646a74	0.22306234
13	0xbe3f078b	-0.18655221
14	0x3d455922	0.048180707
15	0x3e4e128c	0.20124263
16	0x3e07e684	0.13271528
17	0xbf259453	-0.6467945
18	0xbe525d40	-0.20543385
19	0x3f36f8b8	0.71473265
20	0xbded114a	-0.11575563
21	0xbe8fcced	-0.28086033
22	0xbe4d74d3	-0.20064096
23	0xbc806339	-0.015672313
24	0xbeb9334d	-0.36171952
25	0x3f22af97	0.6354918
26	0x3e189915	0.14902146
27	0xbf7bc4d7	-0.9834723
28	0x3ee23537	0.44181225
29	0xbd698231	-0.057008926
30	0xbe0b6b77	-0.13615213
31	0xbe97fbef	-0.29684398
32	0x3efc76b3	0.4930931
33	0xbead72ef	-0.3387675
34	0xbf27bd94	-0.6552365
35	0x3f3e2572	0.74275887
36	0x3df74327	0.12073355
37	0xbefb239e	-0.4905061
38	0xbedd8aa4	-0.43269837
39	0xbd93711d	-0.07199309
40	0x3e4926ea	0.19643751
41	0xbdf4913e	-0.11941765
42	0xbe92d1b5	-0.2867562
43	0xbddd0d7e	-0.10793589
44	0xbe50cedb	-0.20391409
45	0xbeaba3d8	-0.3352344
46	0xbe8c3484	-0.27383816
47	0xbe964739	-0.29351214
48	0x3e8e6e55	0.27818552
49	0x3ededc29	0.43527344
50	0x3c0c5de3	0.008567306
51	0xbea50cbc	-0.32236278
52	0x3e668b56	0.2251409
53	0xbee814c7	-0.45328352
54	0xbeadaf0a	-0.33922607
55	0xbee5b211	-0.44862416
56	0xbe8b7aac	-0.2724203
57	0xbf113793	-0.56725425
58	0xbe1af01e	-0.1513066
59	0xbe946149	-0.28980473
60	0x3eed78bb	0.46381173
61	0x3d860afa	0.06545062
62	0xbea76a99	-0.32698515
63	0x3d29c7dc	0.041450366

core.features.layer1.norm.running_mean f4 [64]
0	0xbfe22473	-1.7667373
1	0xbfba643d	-1.456184
2	0xbf8f9b76	-1.1219318
3	0xbf4e7109	-0.8064123
4	0xc0052f03	-2.0809944
5	0x3fb9afc8	1.4506769
6	0xbf4a5674	-0.79038167
7	0x3f5573c6	0.8337978
8	0x3eeb6508	0.45975518
9	0xbeb01d97	-0.34397575
10	0x3f43ec12	0.7653209
11	0x3eeeb13b	0.4661959
12	0x3ff3bdd8	1.9042311
13	0xbf885565	-1.065106
14	0x400658ea	2.099177
15	0x3e1299dc	0.14316505
16	0xbc38688f	-0.011255397
17	0x40240917	2.5630548
18	0x3f00bd25	0.5028861
19	0xc01f8cb9	-2.492964
20	0xbef189ba	-0.4717539
21	0x3f1f824d	0.623082
22	0x400a4b51	2.160847
23	0x402c3522	2.690743
24	0x3f9f9e88	1.2470255
25	0xc026f02d	-2.6084092
26	0x3f9489b3	1.1604522
27	0xbf9c5309	-1.221284
28	0xbfb9af50	-1.4506626
29	0x3f312ae8	0.69206095
30	0xbe63a479	-0.2223071
31	0xbf707036	-0.9392122
32	0xbef77227	-0.4832928
33	0x3ffe7d11	1.9881917
34	0x401be2aa	2.4357095
35	0xbfe7acbf	-1.8099593
36	0xbfbf35ee	-1.4938333
37	0xbec98fe9	-0.39367607
38	0x3f72912d	0.9475277
39	0xbf9c9134	-1.2231812
40	0xbeeda5fd	-0.46415702
41	0xbf2ef959	-0.68349224
42	0x40621452	3.5324903
43	0x3f6321d0	0.8872347
44	0xbf1396be	-0.5765189
45	0x401514e0	2.329399
46	0xbf20a7fd	-0.6275633
47	0xbf80065d	-1.0001942
48	0xc01217a9	-2.282694
49	0xc027ab7b	-2.6198413
50	0xbfedcbf6	-1.8577869
51	0xbeeaf06a	-0.45886546
52	0x3f891f34	1.0712647
53	0x3fbc00dc	1.4687762
54	0xbf0435d9	-0.51644665
55	0xbf85aa9e	-1.0442693
56	0xbf96808a	-1.1757977
57	0xbdbfbe6e	-0.093624935
58	0x3fa19f65	1.2626768
59	0x3f00a871	0.5025702
60	0xbf89541d	-1.0728794
61	0x3f713bac	0.9423168
62	0x401a0f34	2.407178
63	0xbfb44d47	-1.4086083

core.features.layer1.norm.running_var f4 [64]
0	0x43afff9d	351.99698
1	0x43ba8d9f	373.1064
2	0x4415ce5c	599.22437
3	0x44a1ed63	1295.4183
4	0x4411beba	582.9801
5	0x43f7e2c3	495.77158
6	0x445b3256	876.7865
7	0x4406d9ff	539.4062
8	0x43f24077	484.50363
9	0x446d6a75	949.6634
10	0x43bb5446	374.6584
11	0x447fe66c	1023.60034
12	0x43b55156	362.63544
13	0x44040d5b	528.2087
14	0x446fe626	959.59607
15	0x4479fe53	999.9738
16	0x442e4690	697.10254
17	0x44ad646e	1387.1384
18	0x441b4a68	621.1626
19	0x4418fdc1	611.9649
20	0x43ae0af9	348.08572
21	0x44115004	581.25024
22	0x43bcc1a6	377.51288
23	0x44377fe0	733.99805
24	0x441ed14f	635.27045
25	0x4478b6d4	994.8567
26	0x440fa655	574.59894
27	0x44215f5d	645.49005
28	0x4444877e	786.11707
29	0x438cae5d	281.3622
30	0x436d0149	237.00502
31	0x446a6b91	937.6807
32	0x441e4cbc	633.199
33	0x43f09103	481.1329
34	0x4451f2f2	839.796
35	0x44833320	1049.5977
36	0x4424dbc3	659.4338
37	0x438fc4b5	287.53677
38	0x43a01b47	320.2131
39	0x442e3a1c	696.90796
40	0x440227d8	520.62256
41	0x442f4857	701.1303
42	0x44882030	1089.0059
43	0x443f353f	764.832
44	0x44669dc2	922.46497
45	0x43ab6b47	342.8381
46	0x4414bc83	594.9455
47	0x44b9b251	1485.5724
48	0x448b1708	1112.7197
49	0x43f9dce7	499.7258
50	0x443bc9c4	751.1526
51	0x44847ef0	1059.9668
52	0x44117299	581.7906
53	0x43a8385f	336.4404
54	0x450bdce2	2237.8052
55	0x44918d5f	1164.4178
56	0x44001b98	512.43115
57	0x440b230d	556.54767
58	0x43f144a1	482.53616
59	0x43bb3c0e	374.46918
60	0x43f041a9	480.51297
61	0x43f3d4f9	487.66385
62	0x4428a84d	674.6297
63	0x441775e3	605.842
