notebooks/model_tutorial/model_checkpoints/IM_sota_model.pth (torch, 902206 bytes, 43 tensors)

core.features.layer0.conv.weight f4 [64, 1, 9, 9]
00000000: f822 21bf c8ce f7be a233 873f 5be1 293e
00000010: 06f4 83be e9c4 173b b4fb 973d e025 043d
00000020: be9d 86bd 2df0 27bf d113 8a3e f45d 2c3f
00000030: 3c28 7fbe ee7a ccbe 4342 8b3e db4c d3bd
00000040: dcdb 55bd dd0e 733d 0899 c8bd 606a 273e
00000050: 93ee 283e 4bb5 53be bd83 103d c21c 0c3e
00000060: 841e ffbd 8ba7 703d fb7c 813d b3ae 553e
00000070: 9f1a 86bd a43b 94bd 5ad1 6a3d 261a b83d
00000080: 95c6 6e3c fe05 3b3d 0ed4 853c 0bd2 2b3b
00000090: 7118 38bc fc05 a93d af08 cabd 93d8 b43d
000000a0: 76a4 cdbd c5d1 c33d c342 ddbc 3f41 33be
000000b0: 7ca5 a8bc fba6 09bd db2f b3bd 2fc8 b93b
000000c0: 732e 043d 03a0 22bd 6af8 b13d 11d3 85bd
000000d0: de61 e8bc c242 8dbc f58c 193d a5c3 46be
000000e0: a118 fe3d e56f b2bd 30a4 ffbc 1948 a53d
000000f0: 1aa2 cc3d 7077 c7bc a3e1 0dbd 3543 0d3b
00000100: a3e0 f8bc 17be 003e 3d29 8abd 6e5a 92bd
00000110: 551b 9abc 3fca bb3b 927e b63a 9c1d a83d
00000120: 054a c53d b861 0f3e a015 203c 7ba3 983c
00000130: 0a36 3e3d d427 eabd 78ce 3e39 7b3f 573c
00000140: 3e03 26bd a721 643d 7efe c03d 6130 36bc
00000150: 8fa3 89bd 0eae a7bc 6b43 21ba 65e9 823b
00000160: 573a 8c3c baae 6a3d 8768 87bd 3bae 90bd
00000170: dc99 78bd e6b7 7cbd 950f 163d ca3c 3b3c
00000180: 503c e0bc 8693 03bd e3d1 e53c 02e5 8cbd
00000190: c83f e8bd f78a 82bd 96a4 133e 5ace 483e
000001a0: d0a0 ac3d 5fe0 40ba eb31 babd dd34 f0bd
000001b0: fff2 83bd 09cf 6ebc 605d 0f3e 106f 823e
000001c0: 6f0c 1b3e 8b61 a43d c717 193d 0fba abbd
000001d0: 1690 16be 1242 2bbc bcce 1a3d db7a f63d
000001e0: 9c61 ec3d 8b85 5d3c 6848 c0bc 143a 403d
000001f0: 5f7f 89bc 1233 b9bd 2b22 cebc cff7 8ebd
00000200: 93dd 933d 8881 ab3d 8de1 2ebc 6c9c bbbc
00000210: 9581 e33b 1a5b 28bd 42c7 00be af83 bdbd
00000220: c7f0 1fbe 1154 203c b0fd 373e e11e a53c
00000230: 2b45 483d 968a 8d3d 90cc 0fbe c6a7 06be
00000240: b933 36be 1fb3 f3bd 1298 ecbc d31f ba3d
00000250: e17d 8a3d 997c 5fbc 52a8 8f3b 5f70 21be
00000260: 5414 41be b5b7 98bd 3dc4 cdbd 5f7e 9f3c
00000270: ac77 0d3e 6553 ec3d 9f7f 25bc 05bb aabd
00000280: 383b 25be 8426 29be f010 f53d 96f3 a83e
00000290: 39c5 403e 0571 39bd 44aa c3bd a291 b8bd
000002a0: f761 26be a76d 9fbc 550c 87bd 8fcf a8bc
000002b0: 56e9 bc3c 2de2 563c c9fe 72be dc97 aabe
000002c0: 17f7 3ebe 5f98 2fbe c0da 823c 4e39 f33c
000002d0: 414d 1d3d f12e d53d 3f31 813e 7ef1 f63d
000002e0: 7bd7 033d 056f 133d 66ff b43d d627 b63d
000002f0: d10e 663d c446 b73b aca4 083e a294 d33d
00000300: 9ede c13d 50d1 b93d 7528 b53d a0d7 1c3e
00000310: 5e00 403d ec6b 9e3d bee2 2abd 8e83 82bc
00000320: 1472 27bd 5a2a 223c ad97 6a3d fcca d13c
00000330: 7c0d 563c bded 06be c5e8 48bb d7a9 25be
00000340: 8887 afbd 894b b1bd 6084 ac3c 2888 f83d
00000350: 891c bfbd 318d afbd 58b2 a2bd afd0 2c3d
00000360: 19e9 0bbe 5f20 12be fce3 02be 349f 593d
00000370: a1df 123e e33e 9c3d ecbc aa3d 44b6 b03d
00000380: 18f7 d23b 95cb cfbd be30 54bd 1801 25bd
00000390: 5d35 243d a641 613d 62c7 313e ebb4 6a3e
000003a0: 3ae3 c83d 8c8d 5c3d 0ac3 52be 07c6 66bb
000003b0: b8f8 d33c 934b 403d df3c 333d dfa3 4a3e
000003c0: 180b 533e 883b ce3d cfdf b83d 98c1 8c3d
000003d0: 3158 83bd e4fa c3bb b91c b03d 7ec5 583d
000003e0: 57bb e4bc 19b3 b6bd 4911 afbc 483e 103e
000003f0: 12f3 0d3c e04c f6bd 6852 6bbd 04ca 043d
-0.62943983 -0.4839995 1.0562632 0.16589873 -0.25772113 0.002315814 0.074210554 0.032262683
-0.06573056 -0.65600854 0.26968244 0.6733086 -0.24917692 -0.39937538 0.2719899 -0.103173934
-0.052211627 0.059340347 -0.097948134 0.16349173 0.16497259 -0.20674627 0.035281885 0.13682845
-0.12456992 0.05875353 0.06322666 0.20867424 -0.06548046 -0.07237938 0.05732856 0.089893624
0.014573713 0.04566001 0.016336467 0.0026217725 -0.011236296 0.082530946 -0.098649375 0.08830371
-0.10041134 0.09561495 -0.027009374 -0.17505358 -0.020586722 -0.03360651 -0.08749362 0.0056696157
0.03227086 -0.03970338 0.08689959 -0.06534398 -0.02836698 -0.017243747 0.037487943 -0.1941057
0.12407041 -0.087127484 -0.03120622 0.08070392 0.09991856 -0.024348944 -0.034639012 0.002155495
-0.030380553 0.12572514 -0.06746147 -0.07146154 -0.018811861 0.0057308967 0.0013923219 0.082087725
0.09633259 0.1400212 0.009770781 0.018632641 0.046438254 -0.11433378 0.00018196728 0.0131376935
-0.040530436 0.055696156 0.094235405 -0.011119933 -0.067206495 -0.020468738 -0.00061517087 0.003995108
0.017117662 0.05729554 -0.06611734 -0.07064482 -0.060693607 -0.061698817 0.036635954 0.011428067
-0.02737251 -0.03212311 0.028054183 -0.06879617 -0.1134029 -0.06374162 0.14418253 0.19609967
0.0842911 -0.00073576526 -0.09091552 -0.11728833 -0.06442832 -0.014575728 0.14000463 0.2547536
0.15141462 0.08026417 0.03737619 -0.08385097 -0.14703402 -0.010452764 0.037794814 0.120351516
0.11542055 0.013520609 -0.023472026 0.046930388 -0.016784368 -0.09042944 -0.025162777 -0.069808595
0.07219996 0.083743155 -0.010673893 -0.022901736 0.0069429376 -0.041102506 -0.12576011 -0.09253632
-0.15619193 0.009785668 0.17967868 0.020156326 0.04889409 0.06911199 -0.14042878 -0.13149938
-0.17793168 -0.11899399 -0.028881107 0.09088101 0.06762291 -0.013640546 0.004384079 -0.15765522
-0.18855411 -0.07456914 -0.10047195 0.019469438 0.13815182 0.11539344 -0.010101228 -0.083364524
-0.16135871 -0.16518599 0.11966121 0.3299834 0.18825234 -0.0452738 -0.0955396 -0.09012152
-0.16248308 -0.019461466 -0.06594149 -0.020606784 0.023060482 0.013115448 -0.23730005 -0.33318985
-0.18648945 -0.17147969 0.015973449 0.029690411 0.038403753 0.10409344 0.25232884 0.1205778
0.03218792 0.03599455 0.08837776 0.08894317 0.056166474 0.0055931527 0.13344067 0.10331084
0.09466289 0.09073126 0.08845607 0.1531663 0.04687535 0.07735428 -0.041720144 -0.01593187
-0.040880278 0.009897793 0.057273556 0.025609486 0.013064738 -0.13176627 -0.003065632 -0.1617807
-0.085707724 -0.08656985 0.021059215 0.12135345 -0.093316145 -0.08571852 -0.079441726 0.042191204
-0.13663138 -0.14270161 -0.12782282 0.053130344 0.1434312 0.07629182 0.08336815 0.086285144
0.0064381473 -0.10146252 -0.051804297 -0.040284246 0.040089954 0.054994248 0.17361215 0.22920577
0.09808965 0.053845927 -0.20582214 -0.0035213248 0.025875434 0.046947073 0.043759223 0.19789074
0.206097 0.100699484 0.09027063 0.068728626 -0.064133056 -0.005980836 0.085992284 0.05292272
-0.027921362 -0.08920879 -0.021370547 0.14086258 0.0086639095 -0.120263815 -0.057451636 0.03241922

core.features.layer0.norm.weight f4 [64]
00000000: 7f22 1940 97aa 833f c386 8f3f 3e84 903f
00000010: 419b 9a3f 54be 7f3f dc20 aa3f d50f 663f
00000020: ed88 983f ef77 593f db6b bc3f 118c 803f
00000030: eff3 6f3f 629b 7d3f 205f 973f 379d 903f
00000040: 4f66 c13f c984 863f e53d 9e3f 9686 e63f
00000050: aa0e 963f 7056 b03f 1892 a73f 3ca0 9f3f
00000060: fdbb 993f eeec 603f 9900 753f 5165 4c3f
00000070: 3161 773f b7be b63f 6c92 cb3f 94a6 913f
00000080: d16a 623f e91f 8d3f 1eb1 823f 944f dc3f
00000090: a162 bd3f a097 0940 f80a c03f a4fd 883f
000000a0: b090 443f d647 a93f b846 e43f 033d 9f3f
000000b0: fa61 563f 2098 f43f d164 5440 542a 893f
000000c0: 81b4 623f cb52 9b3f a274 ae3f 229b 823f
000000d0: b300 d43f 86f0 913f 151d 5440 1bff ca3f
000000e0: 269a 763f d3be 0b40 77c2 9a3f 0fec ad3f
000000f0: 48e7 f33f 1b9a d93f 2cf8 b73f 5cde 8b3f
2.3927305 1.0286435 1.1213001 1.1290357 1.207863 0.9989979 1.3291278 0.8986791
1.1916786 0.8494863 1.4720415 1.0042745 0.9373159 0.9906522 1.1825905 1.1297978
1.5109347 1.0509273 1.2362639 1.8009822 1.1723225 1.3776379 1.3091459 1.2470775
1.2010494 0.87861526 0.95704037 0.79842097 0.9663268 1.4276952 1.590406 1.1378961
0.8844424 1.1025363 1.0210302 1.7211785 1.4795724 2.1498795 1.5003347 1.0702405
0.76783276 1.3225048 1.7834082 1.2440494 0.8374325 1.9108925 3.3186533 1.0716043
0.8855668 1.2134641 1.3629344 1.0203593 1.6562713 1.1401527 3.314275 1.5859102
0.9632896 2.183522 1.2090596 1.3587664 1.9054956 1.7000154 1.4372611 1.0927234

core.features.layer0.norm.bias f4 [64]
00000000: d5b6 62bf 431d 29be e00c d6be 8f18 99be
00000010: 0aec 4bbf 3555 12bf 3cba 7bbe 6566 2dbe
00000020: 8279 62be d53b bcbe a4ee 09bf bd98 41be
00000030: 7c70 0ebe eb31 81be 2491 24bf d88e ffbd
00000040: 1400 bebe 2ea4 97be c931 9bbe eb32 fabe
00000050: 5f99 e7be 05bc 41bf c242 8abe 6201 98be
00000060: 0df8 60be f9a8 32bf 07c4 0bbe 3eeb 2abe
00000070: 7a98 bcbe e6c9 8dbe 6594 3fbf 424a babe
00000080: 0470 31be 6646 15bf 4e5a 33bd a999 a9be
00000090: 7721 03bf 0d19 11bf d37f c1be 2c49 9bbe
000000a0: b96d 94be 8115 9abe b7a8 47bf 5acc 5bbe
000000b0: 20b9 a0be 6e20 18bf d2f2 8cbf c505 1bbe
000000c0: 0ef5 03bc ae1c 50be f566 44be c4e8 32be
000000d0: 6504 9abe a599 84be 5db1 9fbf 78a5 3abe
000000e0: c6e3 6fbe a4b4 03bf 4aac fdbe e23b 9bbe
000000f0: 911d 12bf 8139 49bf 0c72 0bbe a590 19be
-0.8856023 -0.16515069 -0.41806698 -0.2990155 -0.7965704 -0.57161266 -0.24582762 -0.16933592
-0.22116664 -0.36764398 -0.5387976 -0.18905921 -0.13910097 -0.25233397 -0.64283967 -0.12478417
-0.37109435 -0.29617447 -0.3031142 -0.48866972 -0.452342 -0.7567752 -0.27004057 -0.29688555
-0.21969624 -0.6978908 -0.13648997 -0.166913 -0.3683508 -0.276931 -0.7483581 -0.3638478
-0.17327887 -0.58310544 -0.043787293 -0.33125046 -0.5122294 -0.5667885 -0.37792835 -0.30329263
-0.28989962 -0.3009453 -0.77991813 -0.21464673 -0.3139124 -0.59424484 -1.1011603 -0.1513892
-0.008054031 -0.2032344 -0.191799 -0.17471606 -0.30081478 -0.2589847 -1.2476002 -0.18227184
-0.23426732 -0.5144751 -0.4954551 -0.30319124 -0.57076365 -0.7860337 -0.13617724 -0.14996584

core.features.layer0.norm.running_mean f4 [64]
00000000: 02c2 233c 77b0 f23c 955d 6a3b 88f6 213d
00000010: fb8d ad3b ad0a 3c3c 04ae 0cbb ddfa 06bd
00000020: 9b6e c8bc aba1 a53c 3634 ca3c 588a 8e3c
00000030: 7efb 9dbc d1cc f13b 5410 58bc 36db 223b
00000040: a014 843a b28b 463b ccb1 9d3c cb8b 70bc
00000050: bad3 a7bb 587a 9e3c 1440 f13c e95b 623c
00000060: 69b9 0e3c 402b 8e3c b95a 18bd e9a9 8db9
00000070: b70c bbbb e54c 27bc a914 c43c b1dc a63c
00000080: af79 a53b cdac 223d 19b1 96b7 fbe6 6cbc
00000090: 522e 1cbc 2632 c03c 3609 a6ba eaad ae3c
000000a0: aedc dfb9 789a c0bc ce90 1d3d 48ff aabc
000000b0: f113 90bb a84c 243c b877 b33a 8297 053d
000000c0: 1803 0cbb 8811 3cbc 043a b3bc f2cb 34bd
000000d0: ef60 983a 4c1e 46bb 0d10 60bc 8d6c ecba
000000e0: 82a1 f53b bc2e 74bc 13c7 823c f51f 11bd
000000f0: c883 91bc 571d 083c 01f2 a3bc 5a00 c5ba
0.009994986 0.02962516 0.0035761346 0.03954175 0.0052964664 0.011477155 -0.0021466026 -0.032954086
-0.024466803 0.02021869 0.0246831 0.017399952 -0.01928496 0.0073791523 -0.013187487 0.0024849898
0.0010076948 0.0030295667 0.01924982 -0.014681767 -0.0051216753 0.019345447 0.0294495 0.013815858
0.008711197 0.017354608 -0.037195895 -0.0002702021 -0.005708303 -0.010211204 0.023935633 0.020368906
0.005049906 0.039715577 -1.7963861e-05 -0.014459367 -0.009532528 0.023461413 -0.001266754 0.021323163
-0.00042698294 -0.023511156 0.038468175 -0.02087368 -0.0043969085 0.010028042 0.0013692295 0.032615192
-0.0021364149 -0.011478789 -0.02187825 -0.04413981 0.0011625568 -0.003023046 -0.013675702 -0.0018037722
0.00749606 -0.0149037205 0.015964067 -0.035430867 -0.017763034 0.008307776 -0.020012857 -0.0015030012

core.features.layer0.norm.running_var f4 [64]
00000000: 86b3 3b40 29a4 1640 7fd6 1340 8b83 0440
00000010: 0dbc f93f 9e59 a13f c8f9 7e40 c9dd ef3f
00000020: d1af f53f a119 2540 cea1 7a40 1601 e83f
00000030: e9c2 c53f e061 9f3f 7077 903f 8e9d 1040
00000040: f659 d73f 9798 f03f 8351 5640 e05d 0040
00000050: b57b 1740 716e 0d40 747d 0040 49f5 2940
00000060: e383 0c40 0fed 2040 8c5e 1b40 cf8d 0d40
00000070: da58 3840 b677 0940 91c6 1940 0f67 5040
00000080: 11a1 ca3f 084c 2f40 d8dd b13f bebe 0a40
00000090: 55f7 2140 8b05 5740 c7ca 0840 d40e 1b40
000000a0: 9f00 b93f a665 1540 1612 3f40 5a69 2440
000000b0: 2ad0 e43f 0177 e53f c791 1e40 2df0 0640
000000c0: 9e08 3540 3c9e 1f40 83dc 6640 5d95 2f40
000000d0: 568c 3340 9af6 1540 4375 dd3f c81c 0140
000000e0: 76be e73f ea1e 0f40 e4be 0240 7129 2040
000000f0: 806a dd3f a822 4940 1195 0040 3e30 3f40
2.9328322 2.3537695 2.3099668 2.0705287 1.9510514 1.2605474 3.9839954 1.8739558
1.919428 2.5796893 3.9161258 1.8125331 1.5450107 1.2451744 1.128645 2.2596164
1.6824329 1.8796567 3.348725 2.0057297 2.3669255 2.2098658 2.007657 2.655596
2.1955497 2.514469 2.4276457 2.2117803 2.880423 2.1479316 2.4027445 3.2562902
1.5830404 2.7390156 1.3895826 2.167892 2.530721 3.3597133 2.1373765 2.42278
1.4453315 2.3343291 2.9854789 2.5689301 1.7876027 1.7926942 2.4776475 2.1084092
2.828651 2.4940329 3.607209 2.7434914 2.8054404 2.3431764 1.730141 2.0173817
1.8104999 2.2362618 2.042901 2.5025294 1.7298126 3.1427402 2.0090983 2.9873195

core.features.layer1.ds_conv.in_depth_conv.weight f4 [64, 64, 1, 1]
00000000: 3e9a cc3d f276 fb3d 8078 f83d e0c0 1c3d
00000010: 345b 983e bb34 623e bc64 983e b866 003e
00000020: 1598 a2be f23d 173d 4afd e93c c130 083d
00000030: bb6b 64bd 87a0 3e3e 0b67 8c3e 81c4 713c
00000040: cc7f 5cbe 705b 23be a773 8c3b 4da4 8a3e
00000050: 542f d0be 615f 9f3e 56e2 bc3e 5c0c 053d
00000060: 3eb1 d63c b100 aa3e 4507 303e 24c5 e0bd
00000070: bd1f ef3b 07de 133e b592 64be 2e90 4fbe
00000080: 149d 793e 4457 123e 0295 29be 1aeb 2abd
00000090: 6b14 0a3f 7467 383e c614 6dbe 4f6e 5d3e
000000a0: 9cf5 f43d 4022 a23e 9ec6 4a3e 0b09 e93c
000000b0: 20bf 83bd 7964 87bd d7f5 443e ca6e 6bbd
000000c0: ff95 c1bd 29e1 f03d 04e6 b8bd 9272 803e
000000d0: 7d94 2cbe 4967 583e fabf a6bd 23b3 a23e
000000e0: 2d46 53be 6709 41be 3d3c 8a3e af59 09be
000000f0: b476 8dbe bb03 b9bc 228a 1fbe 015a c73d
00000100: 7590 5cbd 8c71 a33d a96d 0a3e cdfb 33be
00000110: 0c29 babc 287b 3fbe 3c77 3a3e 6f89 553e
00000120: e2fe 423d 6889 d9be 7f6c 383e c508 c3be
00000130: 18e7 853e 6a5a 1bbd c9f5 27be 84e9 90bc
00000140: 5bea b23d 1212 8dbe 28cc ba3e a965 26bf
00000150: 456c 993e 3c0f 903b 3375 45be 334a 843d
00000160: 1aee 1cbe 18b5 3abd e81b dc3c 6a77 783a
00000170: 02ef 50be a61a 413e c58e 393e 03b4 743e
00000180: 0aeb d53c 723f 06be 0dec a43d f7ea 823e
00000190: b4fc a93b f077 a03e 69df 8d3c 850c 22be
000001a0: 4a63 fa3d 81d3 aabe 0a4d 693e ce84 3ebe
000001b0: 5f40 363e e83a 06bd 74d7 9dbd fa16 8cbe
000001c0: d2f6 6a3d f853 673e f98e ffbd 1573 d4bc
000001d0: 815e 393c facd 913e 937a 8ebe d515 16bc
000001e0: ed23 89be dd50 49bf 1f6d 6abe ea31 abbd
000001f0: 9a53 efbd c0b2 f5bd f271 183f 2ff9 9c3d
00000200: ed64 7cbe e87c f3bd ea72 61bd 997a 47bd
00000210: 9138 31be 8346 283e ff16 42be 6b31 853e
00000220: 18d1 d2bd 4372 b23e 640d 9d3e c8a6 a9be
00000230: e17f 0cbe 1152 1e3e a432 463d 156c d9be
00000240: 1666 a2be d917 9c3e 149a 7c3d 6dfb b9be
00000250: d29c 14be 14b8 7b3e 108c dc3d a2a8 10be
00000260: 630b 90be 8abe 913e ad20 c4bd 42f7 42be
00000270: 17d0 e8be 7e30 debd 489b bf3e 8c07 113e
00000280: 1633 903d 1e52 f53d 596e 85bd 30e3 28be
00000290: b049 a13d 1763 05bf df7f 18bf 47c1 523e
000002a0: 89a3 163d 4c64 613e f149 eebb a74c d7be
000002b0: 7f18 a7be 0891 863d 8d71 f8be 02da 0ebe
000002c0: bc92 7ebd fccd 9dbe 1232 64be f9b8 a33c
000002d0: ba30 cebe 1a23 1a3e 07ee b83e 8ea4 c1be
000002e0: 32ff febd ac10 183e e8f0 15bd 6be7 8bbe
000002f0: 9052 fbbc df86 70bd 7de7 a2be b62c 5ebd
00000300: a7ae 9a3e 7080 ecbd 2eb7 9d3e 9c46 063e
00000310: cac5 083f 0380 3c3d 4428 833e 96af 0d3e
00000320: 1aa1 9c3e fc87 073e 3091 253e 96d3 843e
00000330: 85f8 21be 2a43 3c3e d63e a3be 84ea b4bd
00000340: 6341 8f3d 24fd 263e 2502 05bd 5a94 603d
00000350: dbc5 dfbd 7db8 b03e 25ab 87be 96f7 a63c
00000360: 577a 2abe 168d bfbd d415 aabd 5718 8f3e
00000370: c4a6 703d d286 4cbc 12d7 bc3e 00dc 03be
00000380: 6d21 a5be aeaa 873e f186 c13d b35b babe
00000390: 1663 813d c2c8 a93c 24c1 103f 7a56 7b3e
000003a0: f57b 23be 9031 9ebe 470c edbe 976e aebd
000003b0: d3fd 253d 933c a9bc 6bf6 3d3e 4c47 b83d
000003c0: 618f d73d 9794 94bd 3f0a 94bd 330b e63d
000003d0: c8f5 383e 1a75 f5be cc8d 3f3e 9df5 2b3e
000003e0: 0ff0 d13c 3d86 36be 94a9 8c3c c642 9a3e
000003f0: f90a 583e eb3a 08bd 21d7 bb3d ab8c 213e
0.09990357 0.122785464 0.121323586 0.038269877 0.29757082 0.22090428 0.29764354 0.12539184
-0.31756654 0.03692431 0.02856316 0.03324962 -0.055766802 0.18615924 0.27422366 0.014756323
-0.21533126 -0.1595285 0.004286248 0.27078477 -0.40661108 0.31127456 0.3689143 0.03248249
0.026207563 0.33203653 0.17190273 -0.109751016 0.0072974847 0.14440165 -0.2232159 -0.20269844
0.24376327 0.14291102 -0.16560748 -0.041728117 0.53937405 0.18008214 -0.23152456 0.2162411
0.11960909 0.31666756 0.19802329 0.028446695 -0.064329386 -0.066109605 0.19234405 -0.057478704
-0.094524376 0.11761696 -0.09028247 0.2508741 -0.16853519 0.2113315 -0.081420854 0.31777295
-0.20632239 -0.18851243 0.26999083 -0.13413118 -0.27629626 -0.022584787 -0.15580037 0.09733964
-0.053848702 0.07980642 0.13518395 -0.17576523 -0.02272465 -0.18699324 0.18209547 0.20853208
0.047606356 -0.42487645 0.18010138 -0.38092628 0.26152873 -0.037928022 -0.16402353 -0.017689474
0.08736106 -0.2755285 0.36483884 -0.6499887 0.29965416 0.0043963473 -0.19282989 0.06459465
-0.15325204 -0.04558286 0.026868775 0.00094782433 -0.20403674 0.18857822 0.18120869 0.23896794
0.026113052 -0.1311014 0.080528356 0.2556989 0.0051875953 0.31341505 0.017318444 -0.15825088
0.12225969 -0.3336449 0.22783294 -0.18605348 0.17797993 -0.03277102 -0.0770711 -0.2736128
0.057364292 0.22590625 -0.12478442 -0.025933782 0.011314035 0.2847746 -0.27827892 -0.009160479
-0.26785222 -0.7863901 -0.22893189 -0.0835913 -0.116858676 -0.119969845 0.59548867 0.076647155
-0.24647875 -0.11889058 -0.05504123 -0.048700903 -0.17306735 0.16433148 -0.18954085 0.26014265
-0.10293788 0.348528 0.3067428 -0.33135056 -0.13720657 0.15460993 0.04838814 -0.42465273
-0.3171851 0.30486944 0.061670378 -0.36324635 -0.14512947 0.24581939 0.10768902 -0.14126828
-0.28133687 0.28465682 -0.09576545 -0.19039634 -0.4547126 -0.10849093 0.37423158 0.14163035
0.07040994 0.11978553 -0.06515188 -0.16492915 0.07875383 -0.52104324 -0.59570116 0.20581542
0.036777053 0.22010916 -0.007271998 -0.4205067 -0.32635877 0.06570631 -0.48524132 -0.13950351
-0.062151656 -0.30821216 -0.22284725 0.019985663 -0.4027155 0.15052453 0.361191 -0.37820858
-0.124510184 0.1485011 -0.0366067 -0.27324995 -0.030679017 -0.058722373 -0.31817237 -0.05424186
0.30211374 -0.11547935 0.30803818 0.13112873 0.534268 0.04602052 0.25616658 0.13836512
0.3059166 0.13235468 0.16168666 0.25942677 -0.15817459 0.18384996 -0.31883878 -0.08833793
0.069948934 0.16307503 -0.03247275 0.05482898 -0.1092641 0.34515753 -0.2649776 0.02038173
-0.16648231 -0.09353082 -0.08304945 0.27948257 0.05875279 -0.012483316 0.36882836 -0.12876892
-0.32252064 0.26497406 0.09449566 -0.36398086 0.06317727 0.020725612 0.5654471 0.24544707
-0.15965255 -0.30897188 -0.4629843 -0.08517187 0.04052527 -0.020658767 0.18551032 0.08997974
0.10525394 -0.07254904 -0.07228517 0.11232605 0.18062508 -0.47940904 0.18706435 0.16792913
0.025627164 -0.17824645 0.017170705 0.3012907 0.21097936 -0.033259314 0.09171892 0.15776317

core.features.layer1.ds_conv.in_depth_conv.bias f4 [64]
00000000: 1160 013d 6b0a 2ebd 713b 46be 6fc9 cfba
00000010: 29a7 eebd 486e 99bb 968e 0bbe 338f a63d
00000020: c13c 8e3e 0577 81bb 89c1 de3c 9f80 c7bb
00000030: 1434 ac3d 7099 ecbd f2bd b43d 1ff3 91bd
00000040: b60a 6cbd 34de 60bd 062f d63c 452a 45be
00000050: b627 513e 3565 b8bc aa3d 0a3d 4990 8cbe
00000060: 37c0 903c d9bd cc3d 8b9d 973d 59e9 d13c
00000070: 8967 9e3e 3ed2 ae3d 41f7 0b3e ea9b b1bd
00000080: 9748 67bd 110b 9f3e ae7d 01bd 54c9 a33d
00000090: 64c3 3dbe c47f c3bd 2514 943d b9a9 e93b
000000a0: 2dd8 debc c239 61bd 4696 dfbd d5ce d53c
000000b0: b18b fa38 b31b 67bd 7f2f 3abe 13be 083e
000000c0: c50c 65bc 4417 823d 9e53 653e 4005 b53d
000000d0: 6d00 4dbe 2b2e b7bd a6e7 51bc d487 3ebe
000000e0: 72d0 d0bc 3f11 abbd 28b3 b03d d652 153d
000000f0: 1b67 5ebe d929 96bc db39 423e 060d e53c
0.031585757 -0.042490404 -0.19358613 -0.0015852879 -0.11652977 -0.004682336 -0.13628611 0.08132782
0.27780727 -0.003950956 0.027191894 -0.006088331 0.084083706 -0.115527034 0.08825292 -0.0712645
-0.057627402 -0.05489941 0.02614547 -0.19254406 0.20425305 -0.022509197 0.033750214 -0.2745383
0.01766978 0.09997148 0.07403096 0.025623964 0.30938366 0.08536194 0.13668539 -0.08672316
-0.05646571 0.3106313 -0.031613998 0.07997385 -0.18531567 -0.09545854 0.07230405 0.007130828
-0.02720269 -0.054986723 -0.10917334 0.026099602 0.000119469485 -0.0564229 -0.18182181 0.13353758
-0.013980095 0.06352094 0.22395179 0.08838892 -0.20019694 -0.08944353 -0.012811577 -0.18606502
-0.02549002 -0.08352899 0.08627921 0.03645595 -0.21719019 -0.018330501 0.18967383 0.027960312

core.features.layer1.ds_conv.spatial_conv.weight f4 [64, 1, 7, 7]
00000000: e4d9 0a3e a914 15bd 5ca4 6fbe 9521 a0be
00000010: 3f39 23be e2eb d7bd 11d9 693e d226 483e
00000020: ea4b 613e f34d 123e 96a8 0abe f52e d6bd
00000030: f247 40bd cf7c 1e3e fd26 c23d 2d47 633e
00000040: 1f12 f13d e78f 59bc 300a 9dbd c36e 57bd
00000050: cb17 e13c c7bc b63d d7ac 263e 2db9 c53d
00000060: a69e 963c 337b 64bd 5608 2fbe fcee c9bd
00000070: 6fe0 933d f473 cd3d 2c79 653d 39c8 3bbc
00000080: 167e 293c d255 14bd 433e b2bd 5c42 4cbd
00000090: 1531 c33c 0569 1d3d c615 bfbc 51a3 24bc
000000a0: 37ff 8ebd 8b57 19be bf91 4bbd aab6 44bd
000000b0: d5e8 3c3d 933d 59bd 6da8 a23c 1099 cfbc
000000c0: 6321 61be a05f 07be 9c2b 39bd a62a 323d
000000d0: 0f50 073e 4489 1f3e 286c 703e 3df1 7e3d
000000e0: 4981 3d3e c915 0d3e e45f 773e 1604 68bc
000000f0: 189d 21bd c208 9ebd ec84 78bd 06bd f13d
00000100: 26cd 5e3e a283 763e 5036 1d3e 771a a1bd
00000110: 9d0d 2bbe eeb0 58be 8ceb db3d 87ff 453e
00000120: f316 0b3e 91c3 763e 9912 ce3d 9843 fdbd
00000130: a611 b3be 1132 67bc 2684 1f3d 0da3 1b3d
00000140: c39c e43c b25b cb3c c532 4abd 7e6f 07be
00000150: 4964 54be 1522 66bd a910 6b3d 3451 d13d
00000160: 067a 4d3e de32 833e f4c3 0d3e 2a74 e9bd
00000170: 990f 13be f060 4abe 8ece 26be e6b5 a23d
00000180: 90fc 503e 1b67 083e cecc 773e d09c 813e
00000190: 7aa5 a7bc 82bd b5bd 38cb 83bd a9fd 903d
000001a0: ae67 9c3e bad4 733e e2f9 763d fac3 b3bc
000001b0: f656 e9bd 6f78 92bd aec0 9e3d 062a 843e
000001c0: ec9f 293e e086 f13d 11f2 82bd 8290 c4bd
000001d0: ff02 bdbd 8662 003d 13f7 5a3e efb1 a43d
000001e0: 1767 32bd 5972 40be b818 59be e1d0 6bbe
000001f0: 8c6b f7bd e0e8 f73d 6358 5d3e b21a 373e
00000200: 8d0b bc3d 6867 22be 94a9 11be b598 4cbd
00000210: 643f 7f3d 24fc 8a3c 3160 663d 1984 8b3d
00000220: 6d80 913a a274 df3b b87e 953d 56ea b93d
00000230: 484d 3d3c b6a1 503c a41b de3d face d93c
00000240: ff8f dc3d 10dd 1b3e 6eb3 cd3d 01d4 abbd
00000250: 2da5 6fbc a6d8 bebc 4d7e 953c 47d8 043b
00000260: 9543 1c3c 854e 093e a573 c6bc dd62 ce3b
00000270: 1bde 52bd ac6c 3a3c 93ac d53d 66c0 e13d
00000280: b82b 9a3d 55e2 0dbc 87bb 443b b6b8 00bd
00000290: 3e83 babd 10ad f73d 453b dd3d 3f24 103e
000002a0: 96d6 7dbe fd38 14be 09b7 19be 040d c8bd
000002b0: 1093 0cbd 5932 b3bd 94f2 7ebb abe9 17be
000002c0: c757 4bbc e571 663c 9e0c d33d 3577 333d
000002d0: b07e 8d3d 2643 d23d a23c 97bc 3033 d5bc
000002e0: fed9 c83d 9037 303d 4849 093e cb7c a33d
000002f0: 989a f53d ce2d 6abe d6df 5ebe ac2c 1fbe
00000300: 6c7b 76bd 4132 53bc 7ca5 11bc 89d0 913d
00000310: ca99 243d 8b86 993d 2a1e c13d 5c55 3c3d
00000320: 104e e5bd 6cf5 10be 14ee 83be a8e7 c33d
00000330: 4b0c 303e 254a 143e f1be 2b3d ebdd dabd
00000340: 6003 83be 2340 0abe 423a 633e 8a4d 793e
00000350: 5455 653e 3399 1c3e 71f4 003d 9cd6 40bd
00000360: 6504 70bd 747f 133e 7d14 3e3e 842b 2f3e
00000370: 706b 5b3e e5e9 f33d bfc0 b63c deec 4d3d
00000380: ed8f 4ebe 5192 16bd dcbf 5fbd e27f 1fbd
00000390: 7e01 29be e2c9 a3bd 8795 bebc 1095 3dbd
000003a0: 1dde c43c a597 ec3d f641 ab3d b74b c83d
000003b0: 94eb 993c 1837 f73c 71b1 263e 5294 a83d
000003c0: beea bb3d 1dba f03d 46c2 0abd 9724 63bc
000003d0: fd4c 6a3d 6faa a2bc 5e42 41bd 6d3c 203d
000003e0: f492 013d 353e ae3c 256a 913d 03af b93d
000003f0: d02a 7a3d 444c 6f3d f5a1 c23c b90e c33b
0.13559681 -0.036396656 -0.23402542 -0.3127562 -0.15939806 -0.10543038 0.2283671 0.19546059
0.22001615 0.14287548 -0.13540873 -0.10458175 -0.046943612 0.15477298 0.09480093 0.2219512
0.117710344 -0.013278938 -0.07667959 -0.052595865 0.027477166 0.08922725 0.1627687 0.0965446
0.018386196 -0.055781554 -0.17093024 -0.09860036 0.07220542 0.10031882 0.05602376 -0.011461311
0.010345003 -0.036214657 -0.08703282 -0.049867973 0.023827115 0.038430233 -0.023325812 -0.010048703
-0.06982272 -0.14974801 -0.04969954 -0.048025765 0.046120483 -0.053037237 0.019855702 -0.02534154
-0.21985392 -0.13220072 -0.045207605 0.043497704 0.13214134 0.15579706 0.23478758 0.06224178
0.1850635 0.13777842 0.24157673 -0.01416113 -0.039456457 -0.07716514 -0.06067364 0.118036315
0.21757945 0.24073651 0.1535275 -0.07866376 -0.16704412 -0.21161243 0.107382864 0.19335757
0.13582973 0.2409804 0.10062141 -0.12366408 -0.34974402 -0.014111058 0.038944386 0.037997294
0.027906781 0.024823997 -0.049364824 -0.13226125 -0.20741381 -0.056184847 0.057388935 0.102205664
0.2006608 0.25624746 0.13844281 -0.1139911 -0.14361419 -0.19763541 -0.16289732 0.079448506
0.20408845 0.13320582 0.2419922 0.2531495 -0.020464648 -0.08874036 -0.06435245 0.07079632
0.3054785 0.23811617 0.0602969 -0.021944035 -0.113935396 -0.07151877 0.077515945 0.2581331
0.16564912 0.117933035 -0.06393827 -0.09597875 -0.09229087 0.03134396 0.21383314 0.08041751
-0.043555345 -0.1879362 -0.21200836 -0.230289 -0.1208106 0.12104964 0.21615748 0.17881277
0.09181891 -0.15859759 -0.14224845 -0.04995032 0.062316313 0.016965933 0.05624408 0.06812305
0.0011100896 0.0068193236 0.0729956 0.09077899 0.01155407 0.012733867 0.10845116 0.026587952
0.107696526 0.15221047 0.10043989 -0.08390046 -0.014626783 -0.023296665 0.018248701 0.0020270513
0.009537597 0.13408859 -0.024225065 0.0062984065 -0.051481348 0.011378448 0.104333065 0.11023025
0.0752787 -0.008659919 0.0030019002 -0.031426154 -0.09107064 0.12093556 0.108023204 0.14076327
-0.2478889 -0.14474864 -0.15011229 -0.097681075 -0.034319937 -0.087498374 -0.0038901912 -0.14835231
-0.0124110645 0.0140652405 0.10305141 0.043814857 0.06908929 0.10266714 -0.01846153 -0.026025385
0.09807204 0.04302174 0.13406861 0.07982787 0.11992377 -0.22869036 -0.21765074 -0.15544385
-0.060176298 -0.012890399 -0.008889552 0.07119853 0.040185727 0.07496365 0.094295815 0.045979843
-0.1119653 -0.14156121 -0.25767577 0.09565669 0.1719219 0.14481409 0.041930143 -0.10686859
-0.25588512 -0.13501029 0.22190192 0.24345985 0.22395831 0.15292816 0.031483117 -0.047079667
-0.05859794 0.14404088 0.18562503 0.17106444 0.21427703 0.11909846 0.022308705 0.050274722
-0.20172091 -0.036760632 -0.05462633 -0.038940318 -0.16504475 -0.079974905 -0.02326466 -0.046284735
0.024031693 0.115523614 0.083621904 0.097800665 0.01878909 0.030177638 0.16278626 0.08231415
0.09175633 0.11754248 -0.03387668 -0.013863704 0.057202328 -0.01985666 -0.047182433 0.039120127
0.031634286 0.021269897 0.071003236 0.09066584 0.061075985 0.058422342 0.023758868 0.005952683

core.features.layer1.ds_conv.spatial_conv.bias f4 [64]
00000000: 8bea 763d ae20 56bd d711 403d 9666 573d
00000010: 980b 4a3d a3bf 82bb df4a 1abe 84ce c63d
00000020: 843e 803d ac38 763d 0d54 4dbd eeb6 4ebd
00000030: d3a6 9c3d 29c8 c2bc 6bef f2bd 395c 10bd
00000040: da2d 393c d0aa 9c3c 6a92 7c3c 4864 f9bc
00000050: ba80 f0bd 6882 a6b9 c300 c4bc 9d75 42be
00000060: 4ac0 d93d 5680 223d 1e0b 96bd b682 c3bd
00000070: a3bd 603d 6304 b9bd 8531 4bbd 096e ed3a
00000080: 8cff 9abd 524b 843d 0b17 873d a9f9 b2bd
00000090: d46b d8bd e979 953d 45f5 80bd 69d3 653d
000000a0: a515 573c b43b 76bd db0b 29be 5af9 c43d
000000b0: 480a 84bc a855 623d ce1d 203e ffe7 bbbd
000000c0: ef0e bf3b 5d88 17bd 9015 cdbd 5669 80bd
000000d0: 157f 9dbd 620a b33d 6bcf 793d 0612 323d
000000e0: cb2c 43bd 9b29 d6bd 76ae fa3d d65b 11bd
000000f0: a566 c7bc 39be c3bd 9cf4 80bd 86cb 873d
0.06028227 -0.05227726 0.046892013 0.052588068 0.049327463 -0.00399013 -0.15067624 0.097073585
0.06261924 0.06011264 -0.050128985 -0.050467424 0.07649007 -0.023777084 -0.118620716 -0.0352442
0.011302436 0.019124418 0.015415767 -0.030443326 -0.11743303 -0.00031759148 -0.023926144 -0.18990178
0.10632379 0.039673172 -0.07326339 -0.095464155 0.05486835 -0.0903404 -0.049607772 0.0018114458
-0.07568273 0.06459679 0.06596192 -0.08739025 -0.105674416 0.07298643 -0.062967815 0.05610982
0.013127719 -0.06011553 -0.16508429 0.096178725 -0.016118184 0.05525747 0.1563637 -0.09175109
0.0058306376 -0.03699528 -0.10013878 -0.06270091 -0.076902546 0.08742215 0.060988825 0.04347422
-0.04765014 -0.10457154 0.12240307 -0.035487972 -0.024340937 -0.095577665 -0.062966555 0.06630616

core.features.layer1.ds_conv.out_depth_conv.weight f4 [64, 64, 1, 1]
00000000: 154a c03e 3cce 2cbf e650 043d 4921 b4be
00000010: 37c7 493e 21fc a53e f766 833e be9f 1c3d
00000020: 8b85 d3be 0ee7 62be 2295 a6bb 9b9d a63d
00000030: e0fe 823c 7b47 41be b73c 8bbc 886f 4abe
00000040: cf4d 51be 2f66 c3be c15b 533e 8f3c 94bd
00000050: 08f2 de3b 3150 3f3d 693e 3d3d 35a8 033f
00000060: 46d5 f7bd e1d4 c6bd 2926 9cbd 1012 023f
00000070: 7647 7e3d 2398 9cbe 2dbd 643e 9543 65be
00000080: 3947 eebd 5454 9b3b eb26 b2bd 1682 5f3c
00000090: 7b20 39be 3277 75bd 865d 95be a9a0 5cbe
000000a0: 4a4b d5bd c653 08bc 45ec 263e 5269 1cbe
000000b0: 0c75 103e ffe6 09be 303d 78be b445 ddbd
000000c0: 403f 503e fea0 2c3e a615 9d3e 9575 0bbe
000000d0: 082f f5bd 18aa 243e fff4 2c3e 98db 913e
000000e0: 8898 09bd 28e0 4fbd 37cb 34bb 31e6 ad3e
000000f0: 656d 2a3e 26ae e13d e76e bb3e a4cf a6bd
00000100: 93dc 643e 0efd 06bf 2229 e5be fbe7 9abe
00000110: 8aa1 68be 39a6 283e 7407 38bd a87c adbc
00000120: 733d 1d3d 1978 18bd 55b0 1ebd be09 0ebe
00000130: e7a8 2b3e 5799 69be 9ca2 12bd 9e17 073d
00000140: f0ef bfbe f4f1 543e 2e49 563e c6be 41be
00000150: 9028 85be 517b 1a3f a33d e3bd 881f 9cbe
00000160: 363b 803e 956d cabd a56a b23d 2887 50be
00000170: e6bc 4ebc 72d7 623e 58c2 a2be 30a2 253e
00000180: 8f89 98bc 66c2 8cbe b6a4 ed3c 567e a9be
00000190: 8d08 c5be 7558 f33e c4ab 793d 4bd5 e33c
000001a0: 222c 5abc 1f32 21be 2a6c 8dbd b4c3 253f
000001b0: 5d19 c33d dffd 943e df3b b93e bb56 a33e
000001c0: 7571 58bc db21 cc3c dfee 4f3e 177b 64be
000001d0: f452 75be 7190 5abe f53b 37bf 834f 373c
000001e0: 92b8 d23b 15a5 683e f0de aeb9 2732 5a3e
000001f0: a865 323f d903 1bbc 3336 e6bd 519f 633e
00000200: 4408 403d a484 90bc 45a1 113b 8462 cf3d
00000210: cf9e 153e 4f55 4abe 37cc ac3d e207 3abe
00000220: 3b49 05bd 87f0 0dbf 1c0f 0abd c275 c03e
00000230: a593 003f 8582 e2bc b26e 8e3e 5858 983d
00000240: cb94 a53e 5a17 d4bd ce51 3dbe fb71 ad3e
00000250: d65f b5bd 2872 363e 2b99 543e e74f e23d
00000260: 8269 d43e cdfb d3bd d34f 6bbe b075 e53c
00000270: d006 c63d 46f8 a43e 0fe1 00bd 147d d03d
00000280: f664 16be 7c50 e0bd 7e12 3ebd 395a 65be
00000290: a581 303d 6b6e e9bd a8d7 fbbc 912c 1c3f
000002a0: 96e9 bebc 091c c83e e59d fdbd cb53 01bf
000002b0: 86bd a8bd 9d5f 84bd a3dc 7d3e d688 d23b
000002c0: 4c4d 6dbd 71e0 e33d 0305 59bd ffad 7fbe
000002d0: ee62 1e3e b0f4 da3c 113d 563e 76a7 9cbc
000002e0: adec 9a3e c1a7 65be 9bbe 49be 2451 1fbe
000002f0: 89f8 0abe d619 81be bfd6 dc3e ab39 7bbd
00000300: 7744 c63d 9e7c 2dbe 97bd 783d 130a f8bd
00000310: cef5 a6bd d882 2f3e fb05 07be 8fd2 0d3e
00000320: 4636 9bbd 0860 6e3e 38f7 133d c9db ca3d
00000330: 1ebe 5e3e b648 ba3d 0db3 bc3d b3a6 9a3e
00000340: 473a 833d ba53 c5be 5a47 343e 5934 613e
00000350: 2694 27bd 693e 933d f813 863e 7936 dd3d
00000360: 1cea b9be 7110 2fbd c156 bb3d 2d81 693e
00000370: 233b 6ebd b843 473e d562 d33d 5d95 48be
00000380: 5797 d33c 449f 90be 1255 d53e 9efd a8be
00000390: 1042 e63d 2ab6 7d3c 4e29 643c 7aad 78be
000003a0: f442 863c 75e6 343e 05c4 5e3e 0525 ea3d
000003b0: e116 093d e030 00be b38c 6dbe 9fc9 993d
000003c0: 4a3c df3d bd32 3abe 2e9d 4abd 4e6f 01be
000003d0: 81e6 d63e 85be 66bd a224 d9bd e7d5 9ebd
000003e0: 62ea 0cbc 6b21 073d 6323 963e 31db fd3e
000003f0: dff9 bb3e 627d 5abd c969 01bd 3f30 80be
0.3755652 -0.6750219 0.032303713 -0.35181645 0.197049 0.32418922 0.25664493 0.03823828
-0.41312823 -0.22158453 -0.005083696 0.081355296 0.015990674 -0.18874924 -0.016996725 -0.19769108
-0.20439838 -0.38163897 0.2064047 -0.07238113 0.0068037547 0.046707336 0.046202097 0.5142854
-0.121012256 -0.09708572 -0.07624466 0.5080881 0.06207987 -0.3058482 0.2233779 -0.22389062
-0.116346784 0.0047402773 -0.08698829 0.013641855 -0.18078797 -0.059928127 -0.29172915 -0.21545662
-0.10414751 -0.008320754 0.16301067 -0.15274552 0.1410715 -0.13467024 -0.24242091 -0.108043104
0.20336628 0.16858289 0.3068058 -0.13619073 -0.11971861 0.1608051 0.16890334 0.2848785
-0.03359273 -0.05075088 -0.0027586946 0.33964685 0.16643293 0.11019544 0.3660805 -0.08145073
0.22349767 -0.5272988 -0.44757944 -0.30255112 -0.22717872 0.16469659 -0.044928983 -0.021177605
0.03838868 -0.03722391 -0.038742382 -0.13870904 0.1676365 -0.22812401 -0.035799608 0.032981507
-0.37487745 0.20795423 0.20926353 -0.1892043 -0.2600751 0.60344416 -0.11095741 -0.30492806
0.25045174 -0.09884182 0.08711747 -0.20364058 -0.012618279 0.22152498 -0.31788898 0.16175151
-0.01862028 -0.27492064 0.029009204 -0.331042 -0.38483086 0.47528425 0.060954824 0.027811667
-0.013316186 -0.15741776 -0.06905396 0.64751744 0.09526322 0.29099938 0.3617849 0.31902108
-0.013210644 0.024918487 0.20305966 -0.2231258 -0.23957425 -0.21344163 -0.7157586 0.011188391
0.006430694 0.22719224 -0.00033353968 0.21308194 0.69686365 -0.009461367 -0.112408064 0.22228743
0.046882883 -0.017641373 0.0022221368 0.10126212 0.14611362 -0.19759105 0.084373884 -0.1816707
-0.03254054 -0.5544514 -0.033705816 0.37589842 0.5022529 -0.027650127 0.2781883 0.07438725
0.32340083 -0.103560165 -0.18488237 0.33876023 -0.0885617 0.17816985 0.20761554 0.110503964
0.41486746 -0.103507616 -0.2297967 0.02801022 0.09669268 0.32220668 -0.031464633 0.10180107
-0.14686951 -0.10952851 -0.046404354 -0.22397698 0.04309239 -0.11398014 -0.030742481 0.610055
-0.023304742 0.3908389 -0.123836316 -0.5051848 -0.08239274 -0.06463549 0.24791197 0.0064250035
-0.057935044 0.11126793 -0.052983295 -0.24968718 0.15467426 0.026728004 0.20921732 -0.01912282
0.30258694 -0.22427274 -0.19701616 -0.15558296 -0.13571371 -0.25215024 0.43132588 -0.061334293
0.096810274 -0.16942069 0.060727682 -0.121112965 -0.08152352 0.17139757 -0.13185875 0.13849853
-0.07578711 0.2327882 0.036124438 0.09905202 0.21752211 0.090959 0.09213839 0.30205306
0.064076 -0.3854044 0.17605343 0.21992625 -0.04091277 0.07189638 0.2618711 0.108014055
-0.36311424 -0.04274029 0.09147406 0.22803183 -0.058161866 0.19459426 0.10321585 -0.19588228
0.025829 -0.2824651 0.41666466 -0.33005995 0.11243069 0.015485326 0.013925863 -0.24284926
0.016389348 0.17666037 0.21754463 0.11432842 0.033469085 -0.12518644 -0.23198204 0.07509159
0.10900171 -0.18183418 -0.049466304 -0.12640116 0.41972736 -0.056334037 -0.1060269 -0.077556424
-0.008600803 0.032990854 0.29323873 0.49581292 0.36714074 -0.05334223 -0.031595025 -0.2503681

core.features.layer1.ds_conv.out_depth_conv.bias f4 [64]
00000000: b191 96bd f536 073e 9ff2 273d 255c cebd
00000010: 724e f7bc 4621 033e e3dd 643d a9af b73d
00000020: 0788 84bd 0952 4a3d bdec 7c3d ab9e ab3c
00000030: 05f5 a7bd a60c 18bd beaf 5ebc 55a0 493d
00000040: 7214 9a3c 978b 6ebd 9900 74bd 418a 28be
00000050: f873 773d cdcc 15be a768 593d 925e b8bc
00000060: 0f7b 90bd f8d2 bd3d 4071 ca3c 48c1 763d
00000070: 8e90 bf3c 8c86 6fbd 2e48 803d fc17 1cbd
00000080: bf8f 903c e44b 493d 1bb5 3f3d b5f4 363d
00000090: bfbb c1bd 9fdc 34bd cf96 bdbd 5332 b8bd
000000a0: bb74 18bd d294 7dbd 9db5 4c3d fdc7 91bd
000000b0: 7cc2 93bd e878 093d 95de 60bd 6e09 8cbc
000000c0: 7a74 8b3d 279c 7bbd 9f5a 00bd fcdc 833d
000000d0: b682 253c 330e 7a3d 14a8 f0bc 5309 753d
000000e0: 0d1a 153e 6a3c 2bbd c3aa 8fbd 0b02 ae3d
000000f0: 938a ef3b d06d 863d 0480 1f3e 26f3 693d
-0.07352007 0.13204558 0.041002866 -0.10076169 -0.030188773 0.12805662 0.05587567 0.089690514
-0.06471258 0.04939464 0.06174921 0.020949682 -0.08201031 -0.037121437 -0.013591705 0.04922517
0.018808577 -0.058238592 -0.059570882 -0.1645899 0.06041333 -0.14628907 0.05307832 -0.022506032
-0.070547216 0.09268755 0.024712205 0.06024292 0.023384359 -0.058477923 0.06263767 -0.03810881
0.017646668 0.04914464 0.046803575 0.044666965 -0.09459638 -0.044155713 -0.0925728 -0.089939736
-0.037220698 -0.061909504 0.049977887 -0.07118223 -0.07214829 0.03356257 -0.05489977 -0.01709434
0.068093255 -0.061428215 -0.031336423 0.06438634 0.010101965 0.061048698 -0.02937702 0.059823345
0.14560719 -0.041805662 -0.07014992 0.084964834 0.0073102205 0.06563914 0.15576178 0.05711665

core.features.layer1.norm.weight f4 [64]
00000000: 2a13 b13f beeb c53f 4386 953f d55f a83f
00000010: 53a1 a13f a4d1 a93f ffc3 923f dd15 8e3f
00000020: bf09 913f 0ee2 b13f 9f94 9f3f 505c aa3f
00000030: b88c 913f 7989 9a3f 1d62 b03f db80 9a3f
00000040: 3d40 be3f e921 733f b19b a73f 876e c93f
00000050: 4677 953f 9a33 ad3f 5ef5 b43f c599 ab3f
00000060: 9aab b03f 5cb0 a03f b8c0 bb3f 0c0f 9b3f
00000070: e9b8 b93f 9bc8 803f 3310 933f 56f5 ab3f
00000080: 0631 9a3f ae02 9b3f 7287 b93f c04d b63f
00000090: 1c83 8e3f 1033 993f 3b8e 9c3f cfee 913f
000000a0: a565 953f 5022 973f 021e aa3f 161d aa3f
000000b0: d273 a13f 71fd a53f c3f3 ba3f 9aef 7f3f
000000c0: 718e ce3f 8648 943f a8e9 d03f 7dc1 ba3f
000000d0: 608e b33f ec97 963f 465b 7b3f c0f0 9f3f
000000e0: e019 983f 887e c63f c0b8 b33f 2a66 8a3f
000000f0: 20bf 8d3f 6015 7b3f cd7c b73f 5c66 903f
1.3833973 1.5462568 1.1681598 1.3154246 1.2627357 1.3267102 1.1466063 1.1100422
1.1331099 1.3897111 1.246723 1.3309422 1.1371069 1.2073203 1.3779942 1.2070574
1.4863354 0.9497362 1.3094388 1.5736855 1.1677024 1.3531373 1.413738 1.3406302
1.3802369 1.2553821 1.4668188 1.2113967 1.4509555 1.006122 1.1489319 1.3434246
1.2046211 1.2110193 1.449446 1.4242477 1.1133761 1.1968708 1.2230905 1.1401004
1.1671644 1.1807346 1.3290408 1.3290126 1.261347 1.2967969 1.460564 0.9997498
1.613722 1.1584632 1.6321306 1.4590298 1.4027824 1.1765113 0.9818615 1.2495346
1.1882896 1.5507364 1.4040756 1.0812428 1.1073952 0.9807949 1.4334961 1.1281238

core.features.layer1.norm.bias f4 [64]
00000000: 97a3 11be cf9e 52bf 83d2 57be 3c19 8fbe
00000010: 1c88 70bd 52f9 cbbe 430a 04be 90b6 dbbe
00000020: b97f 1cbe 8995 08bf 3ad3 6dbe e7cd b6be
00000030: 54ac 32be 2b20 d1be 179b cdbe 9a76 39bd
00000040: 1d86 a0be 0323 22be 5905 a6be fea2 e7be
00000050: 2e37 8dbe 08ea 29be 99c9 dbbe 591b b2be
00000060: ee0a 97be ab8d 47be c3e3 febd bd5f acbe
00000070: aa3c 93be cd2d 6cbe 2ebb 10be eef0 8dbe
00000080: 792c cfbd 113d 37be ce94 12be e4d5 abbe
00000090: 8be8 94be f3ca 81be 9a60 b2be a727 b2be
000000a0: f67e 0bbe ae99 89be 95a1 d1be 2e6e 62be
000000b0: 6361 ecbe f139 6dbe a0b6 81be f5a5 2ebe
000000c0: 379d 1abf 539a e1bd 6c2e dbbe f8bd c8be
000000d0: cd58 bbbe c3ad adbe bfd3 50be f99a 2ebe
000000e0: cd40 ddbe 3442 1fbf 44a5 71be 3722 b8be
000000f0: 059d a73d 7139 9bbe 86a9 1cbf e368 8bbe
-0.14222561 -0.8227357 -0.21076398 -0.2794894 -0.058723554 -0.39838654 -0.1289454 -0.42912722
-0.15283097 -0.5335317 -0.23225108 -0.35703966 -0.1744855 -0.40844855 -0.40157387 -0.045279123
-0.3135232 -0.15833668 -0.32425955 -0.4524154 -0.2758116 -0.16593182 -0.42927244 -0.3478649
-0.29500526 -0.19487636 -0.12445786 -0.33666793 -0.2875722 -0.23064347 -0.14133903 -0.27722877
-0.10115904 -0.17894389 -0.14314577 -0.33561623 -0.29083666 -0.2535015 -0.34839326 -0.34795877
-0.1362265 -0.2687506 -0.4094359 -0.22112343 -0.4616805 -0.23166634 -0.25334644 -0.17055495
-0.6039614 -0.11015763 -0.42808855 -0.39207435 -0.36591187 -0.33921632 -0.20393275 -0.17051305
-0.43213502 -0.6221039 -0.235982 -0.35963604 0.08184246 -0.30317262 -0.6119617 -0.2722846

core.features.layer1.norm.running_mean f4 [64]
00000000: e8f1 26c0 8719 d9be d6ad 83bf f229 b1bf
00000010: 1826 28bf a35c ef3c 6966 173f 9a4e c5bf
00000020: 7f24 d7bf ad9d 6ec0 1ec3 853e 6add 4fc0
00000030: b1c6 12c0 005e d2bb 2634 16bf f2c1 27be
00000040: 639c e53d 0af6 12bf 8935 c53d 65f5 34c0
00000050: 0778 bdbe 9797 71bf 6aca d2bf 17ed 00bf
00000060: 7e9a 0fc0 5759 773f 4b32 df3f f13c 4fbf
00000070: ffd3 13bf 85d1 7f3e 78ce 913d 0961 293f
00000080: 27cf 17bf deef ebbe 451b d9be a484 7e3f
00000090: 93a4 07bd 53fd e3bf 2fa5 ffbe 2e6a 463f
000000a0: f31f d6bf 0769 bfbf 7f78 2bc0 fe19 063e
000000b0: 7c21 8bbf 20c8 c83e df32 bcbf 5647 f73d
000000c0: f70a 40c0 af14 d1bf 6a9c aabf 065a 25be
000000d0: 0ea2 26c0 da7c 12bd 1c59 0bc0 26a1 5dbf
000000e0: 81f3 bd3f e4aa 71c0 5535 5cbf 3dbc c2bd
000000f0: 2a4a 223e 8db6 6dbf fcaa 1dc0 b6bb fd3f
-2.6085148 -0.42402288 -1.0287426 -1.3840926 -0.65683126 0.029218977 0.5914064 -1.5414612
-1.6808013 -3.7283738 0.26125425 -3.247889 -2.2933772 -0.006419897 -0.5867332 -0.16382578
0.11211469 -0.57406676 0.09629352 -2.8274777 -0.37005636 -0.9437193 -1.6468022 -0.5036177
-2.2438045 0.96620697 1.7437223 -0.80952364 -0.57745355 0.24982269 0.07119459 0.6616369
-0.59300464 -0.46081442 -0.42403618 0.99421144 -0.033115935 -1.7811683 -0.49930713 0.7750577
-1.67285 -1.4953927 -2.6792295 0.13095853 -1.0869594 0.39215183 -1.4703025 0.12074153
-3.0006692 -1.6334437 -1.3328984 -0.16147622 -2.603641 -0.0357636 -2.1773138 -0.8657402
1.4839936 -3.7760553 -0.8601888 -0.0950856 0.15848604 -0.92856675 -2.463561 1.982291

core.features.layer1.norm.running_var f4 [64]
00000000: 72ea 0542 14a2 4542 7f65 2042 0e63 9c42
00000010: c18b e741 919a e741 7545 2d42 317d ff41
00000020: 4aff d341 0ae2 2e42 5395 5242 9537 0c42
00000030: 9871 b441 a1db 0542 b391 0942 375f b841
00000040: 2ecf 3c42 231e 2242 66bd 6742 60ca 3642
00000050: 7a8f e741 3314 0842 2a05 f441 e845 2142
00000060: 40d2 2e42 636d 2742 8e7c 9942 cbd4 1f42
00000070: 46ed 0242 4273 0142 75dd 0342 2d7a 0442
00000080: d199 8042 241c ef41 5333 3042 5cb5 3442
00000090: 6dd4 6542 de36 5942 6e92 2242 5539 e941
000000a0: 3fa3 0c42 8ac4 fe41 4570 1042 824b 5042
000000b0: 9f42 2142 6162 0d42 d059 1842 8a4c f041
000000c0: 72ab 2842 fc53 d341 8f3d 2d42 34ab 4942
000000d0: 4a70 2f42 8244 3842 1eb3 bd41 a584 f841
000000e0: d118 3a42 8eb5 8442 4920 4642 c082 3442
000000f0: f45b 0d42 fa15 5a42 feff 2942 d5d7 7542
33.47895 49.40828 40.099117 78.19347 28.94324 28.950472 43.31783 31.936129
26.499653 43.72074 52.645824 35.05428 22.555466 33.46448 34.392284 23.046492
47.202324 40.52943 57.93496 45.69763 28.945057 34.019726 30.502522 40.318268
43.705322 41.856823 76.74327 39.957806 32.731712 32.362556 32.966267 33.119312
64.30042 29.88874 44.05012 45.17711 57.457447 54.30358 40.642998 29.152994
35.15942 31.845966 36.10964 52.07374 40.31506 35.346073 38.087708 30.037373
42.167427 26.416008 43.310116 50.41719 43.859657 46.066902 23.71246 31.064768
46.524235 66.3546 49.53153 45.127686 35.339798 54.52146 42.499992 61.460773

core.features.layer2.ds_conv.in_depth_conv.weight f4 [64, 64, 1, 1]
00000000: c3f2 04bd 55bb 2dbd fbab 2d3e 2d70 c23d
00000010: 4d61 bfbd 66d4 29be 7ecf 93be e75e c33c
00000020: 4e5a 2b3e ec98 9c3e 3fde f73d a2ee adbd
00000030: 3cc0 233e 70e2 d53e f890 72bd b941 b3bd
00000040: 54a9 ed3d cbf1 c33e fb55 ffbd 1301 c1bd
00000050: 220d 69bd 97b9 7fbd 79a3 74be e0ee 933c
00000060: 7869 75be e4ce bbbe 9c32 053e 9565 93be
00000070: 8bee 443d e65a 10bd 0e96 4cbc adf5 c5bd
00000080: c994 593e 3766 453e 3154 6abe a2e7 ab3e
00000090: 2bb2 0e3e ff24 5dbd 7e49 bb3e 51c8 9abd
000000a0: 7d19 813e b11f d1bb 5357 353e b0d8 c23e
000000b0: fed3 debe 41ed 5dbe 42ff b53e 31c3 023e
000000c0: 10cf 87bd d040 213e 19ef 44be b4a9 3e3e
000000d0: 6d58 4dbd 3dc7 4dbe 3180 d53d 7524 b8bd
000000e0: 1969 d2bd 4d36 c43d 5245 b0be 6e8b f33c
000000f0: eb64 4d3d 4c1a f53d fd64 853e fb68 f63c
00000100: 8dd8 22be f6be a6be cff6 a43e 375a 38be
00000110: 9919 be3e a9b2 c63d 76de 98be aff0 083e
00000120: eda4 ac3c bd75 89be d2e9 38be b364 293e
00000130: 299e 46be c8ff 72be 5d63 783e c491 2a3e
00000140: c499 563e c2b2 45bd b7c9 8cbe d770 b5be
00000150: 0b52 f33d 12ec 0b3e 8c02 e1be 8fad 74bd
00000160: 2dfa 673d b211 0a3e 6f0a d8bd 69e1 f63d
00000170: 9122 b53d c08c 303e ba1f 583e 0dfd fc3d
00000180: 3943 6cbe f791 d33e 7028 09be 2b81 88be
00000190: 2121 b6bc 1625 d13a 90c9 91be ce99 b2be
000001a0: 214c 8c3d 0cfb 57bc b119 833e 4483 8a3e
000001b0: 8890 9ebe 2880 7fbb 9906 abbe 91bd 8fbd
000001c0: 77d5 35be 3a50 2a3e 34cf 8fbe cf9a c1be
000001d0: ca80 9abe a194 823c e665 f83c d0db bcbd
000001e0: 12ba dfbc 7c23 d0be 1598 a3bd 9a20 85be
000001f0: 7f8d 8abe ad93 4fbd 35e5 8d3e 28b3 35be
00000200: 3c0f 9b3e bd08 9dbe 580f 2a3d 57a3 7cbe
00000210: 4853 023e cea4 e13d 1d69 bb3e 9301 853e
00000220: 7072 ae3e c252 d6bc 734a c8bd 00c9 1f3d
00000230: 4500 cdbe 26bb 8a3d d6d2 843c 386b 2c3e
00000240: 45b8 7cbe 5257 f23d e816 ee3c 2965 7fbd
00000250: a7d6 f53c c9fb ca3d ded0 c2bd f38c b93e
00000260: a53b 1fbc 3077 513e 7f9b e2bd 15c4 193e
00000270: 73c9 0abe b538 443c 7ff3 723b abe3 803d
00000280: 5da3 3dbc e51b f73c 98c9 25bb d757 95be
00000290: abfc 9abe 8b05 44be 9002 1a3e 58c3 073e
000002a0: 7e15 a9bc 95cd d23d 5560 163f f0ef c53d
000002b0: f2b5 02bf ba01 1ebe 98f3 6bbe 3c5b b83d
000002c0: 72da 843d dc6d 59be 9a69 ba3e 48e3 353d
000002d0: 237a f9bd a8c3 90be 009e 8cbe da03 273d
000002e0: b48f acbd ddf0 0cbe d807 47bd a10c 333d
000002f0: 1a40 ba3d 493f 123e 1a8a 56be 6bde 1b3d
00000300: 9b65 503e 722c 8cbe bd4a a83e 8bcd 13be
00000310: 8fcf 4ebe 7677 113e d1ff 32be ab22 a0bd
00000320: 4af8 f4bd 7f3a 063f c42b fd3d d550 24bd
00000330: e20a d6be e5fc f13e 6574 d23e d303 9dbd
00000340: 57cc ae3e f264 03be df6a bf3c ab51 1d3f
00000350: 9cdb c73d bb77 e43d 269b d13c ab95 1d3e
00000360: a7fc 8d3d 1ed0 f4bc f936 92be a82f 4e3d
00000370: 43d7 49bd 107f 833d 0e0e 603e ecac 57be
00000380: 0153 d7bd 48dc 88be 67d7 06bf 318f 543e
00000390: 3143 a8be 9223 d53d 1217 2cbd 7759 7abe
000003a0: f37d 123f 5f23 e6be 6bc1 e13e c10e 1a3f
000003b0: 33d1 b7be 1c5b 1d3d 3ab2 7d3e 388d 463e
000003c0: 6ea7 5abe 735b 7fbd eb2d d33d 5468 00bf
000003d0: cfe5 fd3e 8610 adbd cbd3 6f3d f892 fabd
000003e0: 8b47 dc3d d2f9 d23e aa2c b53e 8ac7 6f3e
000003f0: 6152 71bb 1dab 813d 7fd9 e7bd 2c12 aa3d
-0.032458078 -0.042414982 0.16960137 0.09494052 -0.093447305 -0.1658493 -0.2886924 0.023848964
0.16733667 0.3058542 0.12102937 -0.08492781 0.159913 0.4177432 -0.059220284 -0.0875277
0.116045624 0.3827041 -0.12467571 -0.09424033 -0.05689729 -0.06243285 -0.23890485 0.01805824
-0.23966014 -0.36681283 0.13007587 -0.28788438 0.048079055 -0.035242938 -0.012486948 -0.096659996
0.21248163 0.19277273 -0.22883679 0.3357516 0.13935153 -0.05399036 0.36579508 -0.075577386
0.2521476 -0.0063819517 0.17709093 0.38055944 -0.43521112 -0.21672536 0.3554631 0.12769772
-0.06631291 0.1574738 -0.19231834 0.18619424 -0.050133158 -0.20095535 0.10424841 -0.089913286
-0.10273952 0.095806696 -0.34427887 0.029729571 0.05014507 0.11967906 0.2605361 0.030079355
-0.1590292 -0.32567567 0.3221955 -0.18003164 0.37128904 0.097020455 -0.29857224 0.13373064
0.021074736 -0.2684764 -0.18057945 0.1654232 -0.19396271 -0.23730385 0.24256654 0.16657168
0.20957094 -0.04826618 -0.27497646 -0.35437652 0.11880883 0.13664272 -0.43947256 -0.05973583
0.05663507 0.13483313 -0.10548865 0.12054712 0.08844484 0.17241192 0.21105853 0.12352953
-0.23072518 0.413223 -0.13394332 -0.26661047 -0.022232594 0.0015956487 -0.28474092 -0.3488297
0.06850458 -0.013182413 0.25605538 0.27053273 -0.30969644 -0.00389863 -0.3340347 -0.07018579
-0.17757212 0.16632167 -0.2808777 -0.37813422 -0.30176383 0.015940012 0.030322026 -0.092216134
-0.027310405 -0.40652072 -0.07987992 -0.26001436 -0.27061078 -0.050677944 0.27713934 -0.17744124
0.3028506 -0.3067073 0.04151854 -0.24671684 0.12727082 0.11017762 0.36603633 0.25977764
0.34071684 -0.026162509 -0.09779825 0.039010048 -0.40039268 0.06773977 0.016213816 0.16837776
-0.24679668 0.11833061 0.029063657 -0.062352333 0.03000958 0.099113055 -0.095124945 0.36240348
-0.00971881 0.20455623 -0.11064815 0.15016206 -0.1355341 0.011976411 0.0037071405 0.06293424
-0.011574593 0.030164668 -0.0025297161 -0.2916858 -0.30270895 -0.1914274 0.1504004 0.13258111
-0.020640131 0.10293118 0.5874074 0.09664905 -0.51058877 -0.15430346 -0.23042142 0.090017766
0.06486978 -0.21233314 0.36408693 0.044406205 -0.12181499 -0.28274274 -0.27464294 0.040775158
-0.08425847 -0.13763757 -0.048591465 0.043713216 0.09094258 0.14281954 -0.20951119 0.03805391
0.2035126 -0.2737766 0.3286952 -0.14433877 -0.20196365 0.14205727 -0.17480399 -0.078191124
-0.1196142 0.5243301 0.12361863 -0.04011615 -0.41805178 0.47263256 0.41104427 -0.07666745
0.34140274 -0.12831476 0.02336639 0.6145274 0.09758684 0.11155649 0.025586676 0.15389125
0.06932955 -0.029884394 -0.28557566 0.050338417 -0.049277555 0.064207196 0.21880361 -0.21062058
-0.105138786 -0.2673056 -0.5267243 0.20757748 -0.32863763 0.10407175 -0.04201419 -0.2444819
0.57223433 -0.4494886 0.4409288 0.6017876 -0.35901794 0.038416967 0.2477502 0.19389808
-0.21352932 -0.062343072 0.103114925 -0.5015919 0.49589393 -0.08450417 0.05855159 -0.12235063
0.10755833 0.41206223 0.35385638 0.23415962 -0.0036822783 0.063314654 -0.11320781 0.08304247

core.features.layer2.ds_conv.in_depth_conv.bias f4 [64]
00000000: 6c70 083d ed2d 11bd 97a7 18bd 0a19 3dbe
00000010: 6004 b03d 7e60 0b3d 7d96 b3bd 0dfd 57bd
00000020: a59c d7bc 8780 a63c 2ee2 1dbe cd6a 4abd
00000030: f010 03bd 4e45 c9bc 9386 a2bb 2279 acbb
00000040: 6cb8 c7bd 8821 94bc 4a0b c73b 138c 8bbc
00000050: 6cb8 303d 82d5 fb3c dfc2 b83d 37e5 9dbd
00000060: 9df8 6e3d 6891 cdbd 7878 3b3d 200d 95be
00000070: b239 b23c eeb6 0b3e c971 ba3d 08ce 4c3e
00000080: 7b63 3cbd 3d99 d4bd 51c9 db3c 778d 57bc
00000090: c654 c23d 2709 cc3d 99fe 553c 1ab2 b53d
000000a0: 7ece d6bc 967e 0d3d 6880 edbd 0ff0 42bc
000000b0: ad22 b53c b864 6bbd 611b 013d 1fd7 0e3c
000000c0: 7b69 01be c0ca 853b f56f 25bd 0caa 133d
000000d0: 6714 273d 3959 013e 2a03 92be 71cb 0c3e
000000e0: 43b4 573e eb2a 3abe 12e7 58bd 6b6d 55bc
000000f0: f83f 7ebd 6806 593d c024 68bb 2c78 793c
0.03331034 -0.03544419 -0.0372692 -0.18466583 0.085945845 0.03402757 -0.08768938 -0.052731562
-0.026319811 0.020324958 -0.15418312 -0.04941826 -0.031998575 -0.02456918 -0.00495989 -0.0052634636
-0.097519726 -0.018082395 0.006074344 -0.017034566 0.04314463 0.030741457 0.09021544 -0.07709735
0.058342565 -0.100375 0.045769185 -0.29111576 0.021756027 0.13644001 0.09103734 0.2000047
-0.04599331 -0.103807904 0.026829394 -0.013156286 0.094888255 0.09962683 0.013061189 0.08871861
-0.02622151 0.03454455 -0.11596757 -0.011898055 0.022111261 -0.0574691 0.03152025 0.008718281
-0.12637894 0.0040830076 -0.040389974 0.03605084 0.04079094 0.12631692 -0.2851804 0.13749482
0.21064858 -0.18180434 -0.05295474 -0.013026576 -0.062072724 0.052984625 -0.0035422295 0.015226405
